Vanilla DQN/vanilla_checkpoint_3.pth (torch_old, 40359 bytes, 6 tensors)

fc1.weight f4 [80, 37]
000000 93 5a 79 bb ca 31 db 3d 75 db 4e be 04 6c 76 bd
       -0.0038048371 0.10702856 -0.20200904 -0.060161605
000010 b7 3b 6e be 52 6d 5f be cf d4 07 3d dd 54 a0 3e
       -0.23264967 -0.21819046 0.033161934 0.31314746
000020 13 f1 b0 3e 82 4e 24 3e ab 77 0a bc 20 36 82 3e
       0.34558925 0.16045573 -0.008451383 0.2543192
000030 a5 c3 0a bf d3 6f ca bd e8 91 13 3e a5 20 72 3e
       -0.5420478 -0.0988461 0.14411128 0.23645265
000040 c9 22 be 3d 9e df 61 be 6f 56 6c 3d b2 86 88 be
       0.092839785 -0.2205796 0.057699617 -0.26665264
000050 b4 61 74 3d f1 99 ac 3d 77 db 0e 3d f0 4c 3e 3e
       0.05966349 0.084277995 0.034877267 0.18584037
000060 d0 fb 22 bf 46 15 f7 bb 36 00 3d bd dc 5e 0b 3e
       -0.63665485 -0.007540378 -0.04614278 0.13610405
000070 98 f8 69 be ea 84 37 bd 27 6b 2c be 90 a1 93 bc
       -0.22848737 -0.04480449 -0.1683775 -0.018021375
000080 30 b9 28 3e 11 bf fc bd 94 dc 8c be 28 70 5a bd
       0.16476893 -0.123411305 -0.27512038 -0.053329617
000090 31 4c 24 bd 2c d3 f5 3d 5f 52 88 be 02 65 75 3d
       -0.040111724 0.120031685 -0.26625344 0.05991078
0000a0 ab 12 9f 3e 5a 3f cf be 7e ea e3 3d b5 4c fd bc
       0.3106893 -0.4047802 0.1112871 -0.030920366
0000b0 39 56 4e bd 70 7d 1a bf b2 fa 86 be 60 28 90 bd
       -0.050375197 -0.6034765 -0.2636314 -0.07038951
0000c0 ab 4f 51 3d 6e 8b 6f be bf bc 98 3e d5 f9 9d 3e
       0.051101368 -0.23393032 0.29831502 0.3085467
0000d0 c5 d6 74 3d 1d dc 7b bd c6 06 69 3e 9d 14 ad bd
       0.059775133 -0.061489213 0.2275649 -0.08451197
0000e0 5a 8e ae be 3b 3f 5b be 2d 21 bc 3c 66 19 46 be
       -0.3409298 -0.2141084 0.022965038 -0.19345626
0000f0 1f 43 1a 3e ee c6 3f 3e 03 1a 17 3e e6 48 b8 3d
       0.15064667 0.1872823 0.14756016 0.08998279
000100 e0 39 69 be e1 8e 0a 3c a5 40 18 3d 4e ca b2 bd
       -0.22775984 0.008456917 0.037171025 -0.08729993
000110 dd 40 54 3e 53 66 b4 3d 41 c4 b3 3d f2 59 24 be
       0.20727868 0.08808579 0.08777667 -0.16049936
000120 fb f0 2f 3e 02 f2 3d 3a eb 92 c3 3d 0e 48 0a 3e
       0.1718177 0.000724584 0.09549507 0.13504049
000130 1a ad 15 3e 90 81 21 be 9c c2 c3 bd 61 d0 81 bf
       0.14616814 -0.1577208 -0.09558603 -1.0141717
000140 dc 2d 38 3e ef ce ca 3e 87 c6 3c be b6 a5 ce bf
       0.17986244 0.39611003 -0.18435107 -1.6144321
000150 3e 8a 5b bd ae e4 6c 3c fa d4 5c 3c bf f2 d8 bd
       -0.053598635 0.014458818 0.013478512 -0.10593175
000160 02 00 0b bc 2f da df bd b1 6f 01 3e d2 68 17 3e
       -0.008483889 -0.10930287 0.12640263 0.1478608
000170 91 ad 44 3c 3e 90 96 bd bc 3f 6a be 91 9d e3 3d
       0.012004272 -0.07351731 -0.22875875 0.11114038
000180 dd c0 21 3d 6b b9 86 be 76 2a 8c be 82 dd 3a be
       0.03949057 -0.26313338 -0.27376145 -0.18248561
000190 bf 48 99 3e a1 18 40 3e 17 3d 5b be 3a ad 12 3e
       0.29938313 0.18759395 -0.21410023 0.14323893
0001a0 ca 7e 6a bf 2f 65 13 3e 5b b5 07 3e 4d c6 91 bd
       -0.91599715 0.14394067 0.13252775 -0.07117901
0001b0 c4 a0 4e bf eb 86 c9 bc a9 5b a8 bb 26 ac f8 3e
       -0.8071406 -0.024600467 -0.00513788 0.4856884
0001c0 30 9b 22 bf fa 7f 22 bf a7 6e 94 be f0 3c 2b c0
       -0.6351805 -0.63476527 -0.2899067 -2.6755943
0001d0 77 b8 63 3c 3a 12 f6 3d 83 bc e2 3d 2c 79 28 3e
       0.01389896 0.12015195 0.11071112 0.16452473
0001e0 49 f8 7a 3d 8d 6e 46 3d 0a 88 66 3d 46 cb 45 3c
       0.06127194 0.048445273 0.05628208 0.01207239
0001f0 6e f2 a5 3d b7 fb 3b bd dd 93 dc bc d1 9e 3a 3d
       0.081028804 -0.04589435 -0.026925975 0.045561615
000200 cc 46 e7 3c ec 73 bc 3d 95 33 e1 3c 2a da af 3d
       0.028232 0.09201798 0.027490417 0.08586533
000210 b5 05 89 3d e7 e9 e2 3d a0 a1 8f 3d 72 ce cb 3d
       0.06690542 0.110797696 0.070132494 0.09951486
000220 c5 ea 7a 3d 11 78 22 3e d4 ab 11 3e b5 a2 60 3e
       0.06125905 0.15866114 0.14225703 0.21937068
000230 dc 2b a2 3c bc 64 5b 3d c6 54 37 3e 91 62 10 3e
       0.019796304 0.053562865 0.17903432 0.141001
000240 b2 93 f8 3d ef 10 9a bd 92 b9 a2 3c 3e 3d e0 39
       0.12137546 -0.07522761 0.019863877 0.00042770238
000250 97 93 56 bd 08 17 17 3d e9 6e 4a bc eb 67 2a 3c
       -0.052386846 0.0368872 -0.012355545 0.010400753
000260 16 dc cb bc 0b b1 f8 3e 91 5d e8 be ac f0 1f bf
       -0.024885219 0.48572573 -0.45383886 -0.6247661
000270 29 bc 5c bf 36 25 26 c0 bf bd 04 3d 50 80 81 3d
       -0.8622461 -2.5960212 0.03240752 0.06323302
000280 86 3d 90 3d c7 74 9c 3d be fe 18 bc 44 23 ec 3c
       0.07042985 0.07639461 -0.009338079 0.02882541
000290 4f 0f 36 3d f5 db 9f 3d 8e 32 0a 3e f1 c1 25 3d
       0.044448193 0.07805625 0.13495848 0.04046816
0002a0 69 70 ae 3c 22 cd d7 3d eb f6 c1 3d 35 4d 3b 3e
       0.021293836 0.10537173 0.09470924 0.18291171
0002b0 47 62 f4 3d 3c 7c a5 3d f8 21 95 3d ec 8f 00 3e
       0.119328074 0.080803365 0.0728187 0.12554902
0002c0 ff 30 57 3e f4 28 fb 3d b3 b5 06 3e db 37 b4 3d
       0.21014784 0.122636706 0.1315525 0.08799716
0002d0 98 bb fc 3d 1f 37 5b 3e 76 39 1b 3e ff 79 00 3d
       0.12340468 0.21407746 0.15158638 0.031366345
0002e0 ed 50 e2 3a 17 de 1a bb 33 cc b3 3c f4 99 d3 3b
       0.0017266549 -0.002363091 0.021947956 0.0064575616
0002f0 89 38 b4 3c a0 92 c1 3d e0 55 6b 3d e6 27 b1 3d
       0.021999614 0.094517946 0.057454944 0.08650188
000300 55 3e 14 3e d2 c8 e1 3d 1e c5 e0 bd 49 57 10 3c
       0.14476903 0.110246316 -0.10975097 0.008809873
000310 e1 85 97 bc 1c 11 2b bd 52 7c 10 3e 64 24 a8 3d
       -0.018496456 -0.041764364 0.14109924 0.08210066
000320 49 66 6e bc 1d aa 81 3d bf d5 82 3d dc 84 3c 3d
       -0.014550754 0.06331275 0.06388425 0.046025142
000330 ea c1 ba 3c fc 74 f9 3d 58 10 4a 3d b0 e4 34 3e
       0.022797544 0.12180516 0.049331993 0.17665362
000340 87 48 0f 3e 43 a4 4e bd f7 6f 07 bd 22 15 3a bd
       0.1399251 -0.05044962 -0.033065762 -0.04543031
000350 c8 69 7c 3d 57 8c 37 3e 4d be 3d 3e 96 50 aa 3e
       0.06162432 0.17924629 0.18529625 0.33264607
000360 a5 2e ef be 29 2d dc be 63 ac 41 bf 0c ee 26 c0
       -0.46715274 -0.43003204 -0.75653666 -2.6082792
000370 d5 3c e1 bc f1 7b 31 3a 9b 08 6c 3e bf 84 0c 3e
       -0.027494827 0.0006770483 0.23050158 0.13722514
000380 51 d4 14 3d 65 9d 18 3e 15 a9 1c bd 96 1d 02 3e
       0.036335293 0.14903791 -0.038247187 0.12706599
000390 ee bb df 3c 21 1c ae 3d 13 e1 70 3e 1a 11 97 3d
       0.027311292 0.08501459 0.23523359 0.07376309
0003a0 9a 5d 2d 3e fe 11 46 3e 02 84 89 3e 09 5c 88 3e
       0.16930237 0.19342801 0.26858526 0.26632717
0003b0 3e 45 35 3e b6 6f 35 3e 28 14 a7 3d 5f 85 e7 3d
       0.17702195 0.17718396 0.081581414 0.113047354
0003c0 5e a7 b8 3d 93 44 53 3c 1f 6b 87 3d fb 26 0b 3e
       0.09016298 0.012894767 0.066122286 0.13589089
0003d0 35 d4 74 3e 13 92 e5 3d 02 80 37 3e 85 d7 9e 3d
       0.23909076 0.11209502 0.17919925 0.07755951
0003e0 90 c4 fa 3d a0 86 0b 3e e5 61 df bc 35 db 93 bd
       0.122445226 0.13625574 -0.02726836 -0.07219545
0003f0 51 8b 91 3e 35 83 d4 3d 84 e7 8f 3d f6 1d 8a 3d
       0.28426602 0.10376588 0.0702658 0.06743996

fc1.bias f4 [80]
000000 6d 9c 9d 3c 35 f1 31 be 3b 3c 74 3e 92 55 f8 bd
       0.019239629 -0.1737717 0.23851101 -0.12125696
000010 0e 9e 4b 3e 6b a6 ff 3d d6 eb be 3e 22 a1 ce 3c
       0.19884512 0.124829136 0.37289304 0.025223318
000020 06 ad 22 bd 4a e2 39 bd 32 90 84 3e 9f 1a f8 3d
       -0.03971579 -0.04538182 0.25891262 0.121144526
000030 88 cf 6b be 82 e2 69 bc 79 d5 e9 3b 74 36 57 be
       -0.23028386 -0.014275195 0.0071360436 -0.21016866
000040 20 0c 7f 3e 0d 16 5b bd d1 1a 56 be 38 de c4 3c
       0.24906969 -0.053487826 -0.20908667 0.024031743
000050 1e f1 41 bd b8 b8 0c 3e 2a e0 a3 bd 36 3f 6b be
       -0.047349088 0.1374234 -0.0800174 -0.22973332
000060 ba ad 41 be 9f 93 23 3d cc 77 90 bd ea 5f 26 be
       -0.18913928 0.039935704 -0.070540994 -0.16247526
000070 5b 6b d1 bd 30 f6 38 3e 03 49 a7 3d 27 fc 37 be
       -0.102255546 0.18062663 0.08168223 -0.17967282
000080 24 00 80 bc b9 56 fe bd cb d3 e6 bd 2d cb 93 bd
       -0.015625067 -0.12418885 -0.11270865 -0.07216487
000090 39 62 c5 3e 24 21 be bd 93 eb fe bc 7a 9b 55 bc
       0.385515 -0.09283665 -0.03111819 -0.013037557
0000a0 a2 eb 7b bc 87 dc 4d bd 6a ae 4c bd df c1 8c 3d
       -0.015376003 -0.05025914 -0.04997102 0.068729155
0000b0 7f fa 22 3d ef c5 66 be 26 45 53 bd f9 b5 48 3e
       0.039789673 -0.22536443 -0.051579617 0.19600667
0000c0 a6 f3 31 bc c6 11 20 be 17 2e 72 3d 27 f3 4d be
       -0.010861313 -0.1563178 0.059125986 -0.20112287
0000d0 5c ab f3 3c 21 98 a6 3d 67 a1 b6 be 4b 1a c8 3d
       0.029744796 0.08134485 -0.35670015 0.0977064
0000e0 27 78 1d 3e ef c1 9d bd 7d da 56 3d d4 97 bd 3e
       0.15377866 -0.077030055 0.05245446 0.37029898
0000f0 41 a4 23 bd 27 6e 2e 3e 96 0c 09 3e 6a 0b 56 be
       -0.039951567 0.17034207 0.13383707 -0.20902792
000100 d3 3e 47 3c bd 76 6d bd 22 4f 03 3d 6c 60 26 be
       0.012160975 -0.057974566 0.03205789 -0.1624772
000110 80 73 16 3d 1e 44 5c bd f1 19 8f 3d 98 df 85 3d
       0.036731243 -0.0537759 0.0698737 0.06536788
000120 1d 7b 8e bd 5d df 1f be 61 b5 39 be 21 1a 70 3e
       -0.06957076 -0.1561255 -0.18135597 0.23447467
000130 2e fa ca bd 83 13 70 be 8a c1 b5 3b e0 2e 56 be
       -0.09910999 -0.23444943 0.0055467533 -0.20916319

fc2.weight f4 [80, 80]
000000 06 d4 b1 bd 77 a9 d7 bc 27 12 01 3e a3 2d ce 3d
       -0.086830184 -0.026325924 0.12604581 0.10067298
000010 b6 2d c9 bd 1f fd 06 3d 2a cd 90 3e 44 b1 2c 3c
       -0.09823172 0.03295624 0.28281528 0.01054031
000020 15 dc 22 be 5a 96 8f bd 14 96 27 3e 6b 6a d4 3d
       -0.15904267 -0.07011099 0.16365844 0.1037186
000030 88 14 e4 bb 15 2a af 3d 68 44 5b 3e 3e 79 45 be
       -0.0069604553 0.085529484 0.21412814 -0.19284531
000040 17 b7 27 3e 41 93 d2 3d ce 17 c5 bc a8 ed b3 bd
       0.16378437 0.10281993 -0.024059203 -0.08785564
000050 31 3f 10 3e 67 1a 67 bd a0 37 24 3e 6e 0a a2 bd
       0.14086606 -0.056421664 0.16036844 -0.079121456
000060 65 8d f1 bd fc 6d 26 3e 45 00 cd 3d 1e bd 78 3c
       -0.11794547 0.16252893 0.10009817 0.015181808
000070 ca 06 ab 3d af d4 a6 3d 7c 4b fe 3d 53 9d e0 3d
       0.08350904 0.08146035 0.12416741 0.10967507
000080 83 5a 82 3c 99 fa 7d 3d 35 ec 97 bb d2 93 7d be
       0.0159123 0.062006567 -0.0046363124 -0.2476342
000090 92 48 a1 3e fa 34 a7 bd f9 ef 1a 3e 21 bf 3f be
       0.3150068 -0.08164401 0.15130605 -0.18725254
0000a0 1c 45 c9 3c 79 8a 1e 3d 79 08 94 be 62 54 ca 3d
       0.024569087 0.038706277 -0.28912714 0.09879376
0000b0 8b 2e b9 bc 38 89 13 3d 81 f8 d6 3d 1b 39 86 bd
       -0.022605201 0.036019534 0.10496617 -0.06553861
0000c0 e6 a3 3b bb aa 0c d6 3c fc a6 ef bc 95 a7 2e 3d
       -0.0028631627 0.026129086 -0.029254429 0.042640287
0000d0 b2 27 f5 3b d3 7d a9 3d fd 9e 2b be a4 08 b0 3d
       0.0074815387 0.08275952 -0.16759868 0.08595398
0000e0 c6 19 c4 3b 55 4d d6 3c 29 6b 26 bd b2 8b 90 3e
       0.0059845177 0.026159922 -0.04062954 0.2823158
0000f0 48 fa 9e bd ea 9d 20 ba 43 6b 17 3d 06 c1 50 3d
       -0.07762581 -0.00061270467 0.036967527 0.05096533
000100 a7 cd b6 3d db 09 04 3e 12 1d 93 3d 39 26 97 3d
       0.08925944 0.12894385 0.07183279 0.07380337
000110 2d b5 fa bc 46 0c b7 3d f9 72 d5 bd ad 94 33 be
       -0.03060397 0.08937888 -0.1042232 -0.17537184
000120 85 4c 26 bd 95 82 82 bd 0f f0 91 3d 3a dc cc 3b
       -0.04060032 -0.06372563 0.07125866 0.006251839
000130 4a a1 8d bd d4 45 ec 3c 84 20 91 3b 82 74 58 3c
       -0.06915529 0.02884189 0.004428925 0.013211371
000140 62 08 8d bd a1 6a 84 bf 25 e4 06 bf 5e 94 2c bf
       -0.068863645 -1.034504 -0.5269187 -0.6741389
000150 de e6 61 bf 32 e4 6b be d9 5e 90 3d 54 11 17 be
       -0.882429 -0.23036268 0.07049341 -0.14752704
000160 3f 39 1e be c1 db d7 bb 67 19 71 3d 05 3c 9d bf
       -0.15451525 -0.006587476 0.058862116 -1.2283942
000170 16 9e 09 bf 60 c3 ee be cc 0a 33 3d 97 7d 17 3e
       -0.53756845 -0.46633434 0.04371147 0.14794002
000180 62 7d 20 3e d4 61 7d 3d 8a 90 90 3c da f5 40 be
       0.1567283 0.061860874 0.017647047 -0.18843785
000190 cb 09 d2 bd d0 4f 3b bf 1b 0a d2 3e 44 2e 77 be
       -0.10255774 -0.7316866 0.41023335 -0.24138743
0001a0 c4 43 2d 3e eb 25 66 be fa c1 50 be 9f c6 6b 3d
       0.16920382 -0.22475402 -0.20386496 0.057562467
0001b0 56 e2 a8 3e e0 47 b0 3e f2 87 06 bf ce 18 7d be
       0.3298518 0.34429836 -0.52551186 -0.24716493
0001c0 9c 2d 9f 3d 3d ad e2 3c 75 b0 00 3d 62 59 71 bd
       0.07772371 0.027670497 0.031418283 -0.058923133
0001d0 d0 c4 20 b8 03 db 25 3e b2 88 83 be 74 db 50 bf
       -3.833027e-05 0.16196828 -0.25690228 -0.8158486
0001e0 d8 37 20 bf a3 b5 93 be 2d 3e e3 be 5f 22 8e 3d
       -0.6258521 -0.28849515 -0.44383374 0.069401495
0001f0 5d be 8d bf 09 8d 73 bf 2a 63 a6 3e 1d 2c 31 3d
       -1.1073719 -0.9513708 0.3249753 0.04325496
000200 5c e6 82 3e a4 f4 c9 be fa 4f 04 be bd af 1f be
       0.25566375 -0.39444458 -0.12921134 -0.15594383
000210 2d e9 5b be 5d e1 49 be 31 0d d9 bd 53 a9 b8 bd
       -0.21475668 -0.19714876 -0.10598219 -0.09016671
000220 24 9f 91 bd dc 51 5a be fb 19 8c bf ac 45 2a be
       -0.07110432 -0.2132029 -1.0945429 -0.1662814
000230 8d 2d b1 be 7f 4d e0 3d cc 98 85 3e fe 43 e7 3d
       -0.34605065 0.10952281 0.26093137 0.11292265
000240 ad 1a 9b 3d 7a c2 21 be 5b ee 90 bd 94 55 1b bf
       0.075734474 -0.15796843 -0.07076713 -0.60677457
000250 ce 03 2e 3e be a4 2a be b9 f2 94 be 75 f3 d2 be
       0.16993639 -0.16664407 -0.29091433 -0.41201368
000260 c0 ef 8c be 57 ae f8 be 69 b1 38 be d9 e9 f2 be
       -0.27526665 -0.4857051 -0.18036427 -0.47444037
000270 cc 3f ea be 50 ce ea be e4 aa 1a 3e 36 05 03 3e
       -0.45751798 -0.4586053 0.15104252 0.12794957
000280 d6 6a 2c bd e5 19 2f be 8f c0 d2 3b 5b 52 ad 3d
       -0.042094074 -0.17099722 0.006431646 0.08462974
000290 f1 17 f0 be c7 e9 96 be 3c 1a 8c bd ba e6 8e 3c
       -0.46893266 -0.29475233 -0.06840941 0.017444003
0002a0 ac a3 77 3e ee 19 0d bd 1e 03 67 3d 90 44 bb 3e
       0.2418353 -0.034448557 0.056399457 0.36575747
0002b0 ed 75 a0 3e 0d 6f d9 bd 53 4f 7e bd 0b a8 df bc
       0.3133997 -0.106168844 -0.06208737 -0.027301809
0002c0 26 46 46 3c 5c 52 55 bc 51 e1 02 3e c9 b3 93 3e
       0.012101686 -0.013020124 0.12781264 0.28848103
0002d0 19 42 0c bf b2 c8 66 3e ed 68 d0 bd bc 3b 25 3e
       -0.54788357 0.22537497 -0.10176263 0.16136068
0002e0 53 87 0d 3e 3c 02 cf be bd d6 39 3e 9e 0e 70 3e
       0.13821153 -0.40431392 0.18148322 0.23443076
0002f0 d9 87 92 3d 61 07 1c be e6 db f0 3c 0c 97 11 3e
       0.07154817 -0.1523719 0.02940173 0.14217776
000300 ca 9c 83 3e 40 a6 b2 3d 94 a9 7b bc 08 ba a4 3e
       0.25705558 0.08723116 -0.015360255 0.3217318
000310 de 19 56 bc 59 c9 e6 3d 46 ee 52 be 1a 1d 04 be
       -0.013067691 0.11268873 -0.20598707 -0.12901726
000320 99 53 87 be d8 41 54 3e 27 85 2a 3e 8a 15 4d 3e
       -0.26430967 0.20728242 0.16652356 0.20027748
000330 cc f6 75 3d 00 1b ec 3d 56 42 11 be 14 4d 21 3e
       0.060049817 0.11528587 -0.14185461 0.15752059
000340 32 37 d9 3d 9a 2a af 3d 7f 4a 24 be 83 8d 30 be
       0.10606231 0.085530475 -0.16044043 -0.17241482
000350 77 d4 b7 3e 97 a5 18 3f 5c a1 81 3e 62 00 f1 bc
       0.35904285 0.5962767 0.2531842 -0.029419128
000360 99 3f 05 3e 57 ab 91 3c 46 90 20 be 02 25 e5 bd
       0.13012542 0.017781897 -0.15680036 -0.11188699
000370 75 77 02 3e 3d 30 46 3d 28 73 23 bc 55 b0 0c 3e
       0.12740882 0.048385847 -0.009976186 0.1373914
000380 5f ac 1d 3c 6e 91 0a be 71 e2 4b 3d 30 f3 e1 3c
       0.009623616 -0.1353204 0.0497765 0.027581781
000390 c6 59 a0 be 67 e1 09 3e 35 3b 1c 3d 67 6a 31 3e
       -0.31318492 0.1346489 0.0381424 0.17325746
0003a0 3e 0f 32 bd 46 8a e5 bd c0 f8 43 be 31 96 be 3d
       -0.043471567 -0.11208014 -0.1913786 0.093059905
0003b0 af 3f ce 3e 26 11 f5 bb 16 84 2e 3e ba 55 11 3e
       0.40282962 -0.007478851 0.17042574 0.14192858
0003c0 c1 fd 86 bc 3f 41 71 3d 22 43 a0 be 8c d7 04 3f
       -0.016478421 0.058900114 -0.31301218 0.518914
0003d0 b5 7f a3 be 92 9a c8 3d 93 e1 2c bd d9 ad b9 3d
       -0.3193337 0.09795107 -0.04220731 0.09066362
0003e0 eb 03 ad bc 3c b8 22 bd 24 ea df bc 4b aa 87 3e
       -0.021120032 -0.03972648 -0.027333327 0.2649711
0003f0 9f 1e 7f 3e 9f 6f 95 3e 85 e0 73 3e ee 42 aa 3e
       0.24914025 0.29186723 0.23816116 0.33254188

fc2.bias f4 [80]
000000 15 cb 2a 3f 6e 13 93 be 56 24 12 3e a5 4d 47 3e
       0.6671613 -0.2872576 0.14271674 0.19463213
000010 74 e8 8d bc 2a 58 b7 bd de 4b 24 3b c4 c3 20 3d
       -0.017322756 -0.08952363 0.0025069634 0.039249197
000020 76 d8 1b be ae 8c c2 bb af 37 67 be dc 53 83 bd
       -0.15219292 -0.0059371805 -0.22579835 -0.06412479
000030 ff 0f fb bd fe 28 9d bc cc 64 9f 3e 98 1b 89 3e
       -0.122589104 -0.019184586 0.3113159 0.26778865
000040 2a 70 bc bd 44 71 6f be f5 b2 ba bd cf 40 89 be
       -0.09201081 -0.23383051 -0.091161646 -0.26807258
000050 1e d9 8b be 7d f9 25 be 12 9d f0 bd 39 d5 34 3d
       -0.27314085 -0.16208453 -0.11748709 0.044148657
000060 85 88 a9 bd 35 c3 31 3e d9 bb d4 3d 47 b0 69 3e
       -0.08277992 0.17359622 0.103873916 0.2282115
000070 8a 87 94 3b d5 14 85 bd 6f 91 3d 3f e7 6e 84 3d
       0.004532759 -0.06498114 0.7405004 0.064664654
000080 23 0d 86 3e bc 87 33 3f 31 8e 34 bd 4b ba 82 3e
       0.26181898 0.7012899 -0.044080917 0.25532755
000090 c5 cb 19 3b 32 ec 90 bd 3f f0 81 3d da ed 64 bd
       0.0023467403 -0.07076301 0.063446514 -0.055890895
0000a0 ce e0 96 3d 8e e3 d7 3e a3 78 a6 3e 28 e3 7a bd
       0.07367097 0.42165798 0.32513914 -0.06125179
0000b0 58 e4 0d 3d 95 6f fa 3e a0 59 42 be 36 72 80 3e
       0.034641594 0.48913255 -0.18979502 0.25087136
0000c0 5e 27 1d 3f 7e c5 2f be ae e7 0a 3f 58 83 e9 bd
       0.61388195 -0.17165181 0.54259765 -0.11402005
0000d0 2d 01 26 be 8c c7 b5 3e 21 3e a0 3d e3 8c 8b 3e
       -0.16211386 0.35503805 0.0782435 0.27255926
0000e0 ce 57 55 3e 43 93 ed bd 83 b3 bb bd ba 12 a5 3e
       0.20834276 -0.116003536 -0.091650985 0.3224085
0000f0 31 a7 9b bc 38 39 25 3f 61 0c ca 3e 78 18 91 bd
       -0.019000622 0.64540434 0.3946257 -0.07084745
000100 0b d1 45 bd dc 7d 31 bd de f9 2d 3e d7 f8 91 3d
       -0.048295062 -0.04333292 0.16989848 0.071275406
000110 74 91 7c 3e a4 d2 4f bd ce a8 40 be dd b0 99 bd
       0.24664861 -0.050737992 -0.18814394 -0.07504437
000120 e4 d3 5c 3e 1c 99 e0 3c 74 09 c7 3e 9f f1 31 bc
       0.21565205 0.027416758 0.388744 -0.01086083
000130 06 6c 79 bd 64 fd ad bc de 87 02 3e b9 5d f8 3d
       -0.060894035 -0.02123899 0.12747142 0.12127251

fc3.weight f4 [4, 80]
000000 0a 64 29 3e d4 08 8b be e9 30 6d 3e 59 6a 12 bc
       0.16542068 -0.27155173 0.23163189 -0.008936488
000010 2f 97 d4 3e 1d 0d 49 bd 0c c0 6a 3d 41 75 85 3d
       0.41521594 -0.04908477 0.057312056 0.06516505
000020 5e 77 da be 64 25 a6 3d 75 15 bf be 1a 27 5e be
       -0.42669195 0.081126004 -0.37321058 -0.21694604
000030 5d a9 e2 bc ca f0 ef 3e b9 cc 3f 3e 21 40 6b 3d
       -0.02766865 0.46863395 0.18730439 0.057434205
000040 37 d4 f1 be 17 ca c9 be 6c d8 29 bf 8f a9 f5 bd
       -0.4723222 -0.39411995 -0.6634586 -0.11995231
000050 97 84 72 be 98 28 4c be 99 dd c4 bd cf a9 ef 3d
       -0.23683392 -0.1993736 -0.09612579 0.1170231
000060 74 4a bf bd 2d 5c 22 3d 74 a6 e7 bd 7d 06 3a 3e
       -0.09340373 0.039638687 -0.11311045 0.18166538
000070 1a 84 0e 3f fd 36 07 3e 86 7e 56 3e 43 6b 90 3e
       0.5567032 0.1320457 0.20946702 0.28206834
000080 63 0a 84 3e 3d 64 81 3e a7 46 bc be 17 37 b1 3d
       0.25789174 0.25271788 -0.36772653 0.08653086
000090 46 6b 91 bd 42 50 04 3d 1b 7b d5 3d 0c d8 3a 3e
       -0.07100539 0.032303102 0.10423871 0.18246478
0000a0 29 e6 df 3c 8f f5 10 3e 65 0e 8c 3e a8 4a 22 3e
       0.027331429 0.14156173 0.27354732 0.15848792
0000b0 54 6d b5 3d 82 2b 5e 3e c1 39 91 3d 5a 85 58 3e
       0.08858743 0.21696284 0.07091094 0.2114462
0000c0 a2 5b 68 3e 97 ce 71 be 83 a9 07 3e f4 a6 fd be
       0.22691205 -0.23613964 0.13248257 -0.49541438
0000d0 ae 1c 43 be 77 e3 ba 3d 05 84 84 3e 67 39 09 3e
       -0.19053909 0.09125417 0.25881973 0.13400804
0000e0 26 a0 4d 3e 6c b6 cd bd 87 c9 4c be 7e c6 98 3d
       0.20080623 -0.1004456 -0.19998752 0.074597344
0000f0 8a c1 69 be db 85 81 3e e7 39 8f 3d ed 8b 3b 3d
       -0.22827736 0.25297436 0.06993466 0.04578774
000100 81 f6 54 3e 9f c4 bd bd 3d 8a 73 3d a9 a6 9c 3d
       0.20797159 -0.09266018 0.059458006 0.076489754
000110 9d 1f 94 3b 66 13 0e 3f af f9 f4 be 22 bb bf 3d
       0.00452037 0.5549835 -0.47846743 0.093618646
000120 52 86 79 3e 78 9a 06 3d 2e 79 a6 3d aa dd 00 bf
       0.24367645 0.032862157 0.08128582 -0.5033823
000130 ef 4e d8 bd 2f 20 b8 be 3c b5 9b 3d 69 34 89 3d
       -0.105619304 -0.35962054 0.07602927 0.066994496
000140 68 4d 72 3e 73 d1 82 bd e9 7c 41 3e 15 02 35 3d
       0.2366234 -0.063876055 0.18895306 0.04419144
000150 cf 58 af 3e 41 4d 61 3c a8 85 fc 3d ca 15 48 3d
       0.34247443 0.013751329 0.123301804 0.048848905
000160 8a 12 16 be b8 51 ae be 99 dd ad be 22 5e 34 bd
       -0.1465551 -0.3404672 -0.33958128 -0.044035085
000170 04 a3 9a be 88 95 af 3e 16 0c 52 3e 06 96 bc 3d
       -0.30202496 0.3429377 0.20512423 0.09208302
000180 6b a6 d4 bd 2c da 49 3e e2 a4 80 3d 81 e1 38 be
       -0.10383304 0.19712132 0.06281449 -0.18054773
000190 b0 e2 80 be 12 64 3e be 5a 76 68 bc 11 10 55 3d
       -0.2517295 -0.18592861 -0.014188373 0.052017275
0001a0 93 ff cf bd e8 fd fe bc ab f1 ec 3d 55 44 4e 3e
       -0.10156169 -0.031126931 0.11569532 0.20143254
0001b0 12 68 bc 3e 2b 55 81 3c 24 83 91 3e b7 9b 9f 3e
       0.3679815 0.015787682 0.28420365 0.31173488
0001c0 74 3d 81 3e ef b9 47 3e e2 5b 18 be 79 d1 00 3e
       0.25242198 0.19504522 -0.148788 0.12579907
0001d0 a3 d1 d7 bd ae 67 85 3e 04 cd cc bc 24 85 ea 3d
       -0.10538032 0.26055664 -0.025000103 0.11451176
0001e0 dd 21 a2 3d 11 ff b5 3d dd a5 28 3e d6 66 db 3d
       0.07916615 0.08886541 0.16469522 0.10712974
0001f0 1e 49 fb 3d 15 93 4f 3e 51 ff 1a bf d5 3c 2b 3e
       0.12269805 0.20270951 -0.6054583 0.16722424
000200 0b bb 42 3e 79 13 ed 3d 55 f5 26 3e 09 a9 9b bd
       0.19016664 0.1157598 0.16304524 -0.076006
000210 c0 d7 12 be 37 bb 3a 3e 17 b6 d4 3d bb 8e 10 3e
       -0.14340115 0.1823548 0.103862934 0.14116947
000220 b6 8b 24 3e 40 02 4f 3d 0c 9c 30 be e8 ce 23 3e
       0.1606892 0.050539255 -0.17247027 0.15996897
000230 ca 74 59 bd a8 a5 62 3e 84 00 12 3e 28 76 85 bc
       -0.053089894 0.22133505 0.14258009 -0.016291693
000240 34 68 be 3e bc 4b 83 3e e8 73 10 3e a2 a5 46 bd
       0.37188876 0.25643718 0.14106715 -0.048497804
000250 f1 54 19 bc 8b 02 0b 3f 27 cc b0 bd 2c 1b 63 be
       -0.0093586305 0.54300755 -0.08632689 -0.22178334
000260 f5 aa 42 3e d4 13 05 3e f9 99 80 3d f9 c6 15 3e
       0.19010527 0.12995845 0.06279368 0.14626683
000270 ac 45 9d 3c f4 69 2c 3d 11 e7 f0 bc 3e 67 36 3e
       0.019198261 0.042093232 -0.029407056 0.17812821
000280 50 c8 82 3e 5a 86 34 be 97 5b ab 3d 24 58 78 3e
       0.2554345 -0.17629376 0.08367079 0.24252373
000290 70 cd 0c 3f 8b a2 8a bd 09 16 3d 3f 54 78 84 bd
       0.5500097 -0.06769284 0.7386175 -0.06468263
0002a0 bf f9 40 bf 92 67 a7 3e a4 72 80 3e 87 94 06 3e
       -0.7538108 0.32696205 0.25087464 0.13142596
0002b0 b1 d7 b1 3e 1f 0c 08 bd 9b 88 5d 3e ac e1 31 3d
       0.34734872 -0.033214685 0.21634142 0.043428108
0002c0 04 2e 22 bf 9b 48 6d 3e 45 a6 92 be 79 0c 6e be
       -0.63351464 0.23172228 -0.2864248 -0.23246945
0002d0 d5 3e 99 be ba 31 f4 bd 50 34 1e 3d e8 f3 fb 3d
       -0.2993075 -0.11923547 0.038624108 0.12302381
0002e0 68 3d fe 3c 00 60 c9 bd 06 80 03 3e d5 13 81 3e
       0.03103514 -0.09832764 0.12841806 0.25210443
0002f0 63 d0 84 3e 6a e4 c2 3e b2 0b 73 3e 4c d3 99 be
       0.25940236 0.3806489 0.2373493 -0.3004402
000300 1e 54 7e 3e 91 7f 5d 3e dc 14 86 be 56 7d d7 bd
       0.24836776 0.21630694 -0.2618779 -0.10521953
000310 0d 0a 2f bf 72 bc e4 3e 38 c5 a9 3d 37 c9 3f 3e
       -0.6837471 0.44675022 0.082895696 0.18729101
000320 c5 a2 78 3e 56 e2 28 3e 3d 96 01 3e 8a 85 e4 be
       0.24280842 0.1649259 0.12654968 -0.44633132
000330 49 39 01 3e d7 8c 49 3e 3e e7 3f 3e b0 7d 01 3d
       0.12619509 0.19682632 0.18740556 0.031614006
000340 88 ff 3a 3e e8 7e 94 3e b9 47 31 3e b7 a4 df be
       0.1826154 0.29003072 0.17312516 -0.43680355
000350 7d f9 c4 bc 46 86 1e 3e 79 41 b8 3e f4 18 02 3e
       -0.024044747 0.15480909 0.35987452 0.12704831
000360 3b 58 d5 3d 3c f7 48 3d f3 7d 6b 3d c6 21 e7 3d
       0.10417219 0.049063906 0.05749316 0.11285739
000370 ff a4 cc 3d 6e a4 15 3e 03 c9 02 3e f9 1f fd be
       0.09992408 0.14613506 0.12771992 -0.49438456
000380 e3 e2 ae bc 2c 47 d5 3d bf 09 23 3e 2b 08 87 be
       -0.021348422 0.104139656 0.15921687 -0.2637342
000390 53 91 90 bd ff b8 14 3f ab c2 38 be 08 38 9b be
       -0.070589684 0.5809478 -0.1804301 -0.30316186
0003a0 a5 da ec 3d 67 87 2e 3e 28 a2 41 3e 9f 69 5b 3d
       0.11565141 0.1704384 0.18909514 0.053567525
0003b0 3c a2 5f 3d 7c 46 d7 be 40 59 d4 bd 69 be 16 3e
       0.054598078 -0.42045963 -0.103685856 0.14721073
0003c0 d0 cb 73 3e d2 e4 4e be 9a 32 26 3e d5 23 de 3d
       0.23808217 -0.20204476 0.1623024 0.10846678
0003d0 9e 01 cd 3e a8 40 30 bc 94 de 3d 3f 5f a9 49 3e
       0.40040296 -0.010757603 0.7416775 0.19693516
0003e0 df 5a 29 be 8f 5f 58 3e a7 59 31 be dc 99 d1 be
       -0.16538571 0.21130203 -0.17319356 -0.40937698
0003f0 cd 7e a0 be e1 a2 d8 3e 1b 59 24 3e ee 34 1e 3e
       -0.3134674 0.42311767 0.16049616 0.15449879

fc3.bias f4 [4]
000000 55 bd 06 3f 34 8b c3 3e d7 ab d8 3e 01 1d bd 3e
       0.5263265 0.3819214 0.42318603 0.3693619
