Vanilla DQN/vanilla_checkpoint_1.pth (torch_old, 40359 bytes, 6 tensors)

fc1.weight f4 [80, 37]
0.02215478 -0.06155411 -0.23897137 -0.049983274 -0.057016302 -0.004380535 -0.22063006 0.19915523
-0.17460395 -0.0076822788 -0.13960172 0.12615079 -0.3911543 -0.462597 0.14566307 -0.012761692
0.1927474 -0.15422998 -0.14756599 -0.09436 0.08071031 0.048372507 -0.17468539 -0.005435076
-0.3806942 -0.0027980916 -0.114002936 -0.058674503 -0.31631854 -0.07979448 -0.009778928 -0.17940317
-0.015440307 -0.1821992 -0.20198785 -0.20594318 -0.09465964 0.19661622 -0.055974893 0.1080708
-0.0063375686 -0.14694189 0.036199097 0.06161873 -0.24270312 -0.33446988 -0.32260966 -0.029992294
0.08287366 -0.056009475 0.12563698 0.26456746 0.04065016 0.02973012 0.211036 -0.24816653
-0.080467515 -0.14735134 0.021209814 -0.139231 -0.045206506 0.1496513 -0.13816178 0.086066484
0.1063138 0.023657188 0.054118764 0.056128524 0.05084838 0.19894435 -0.097964 -0.041955892
0.041111395 0.0019915206 0.119419366 0.021769945 0.12911205 0.09213993 0.06269241 -0.66311216
0.25390103 0.2244175 -0.13089122 -0.8860988 -0.02182815 0.07574547 -0.022062002 -0.11897411
-0.07288059 -0.004290377 0.046582174 0.20045735 -0.13141924 -0.04234504 -0.26963148 0.08961893
0.12045191 -0.076945774 -0.052024767 -0.1284395 0.16362251 0.19251956 0.029808624 -0.15246767
-0.5306426 0.09284435 0.14636941 -0.16109015 -0.55814815 -0.013935618 -0.0037703516 0.4216983
-0.6087494 -0.20953363 -0.18411471 -1.9679855 0.016250575 0.090984076 0.020680636 0.06466983
-0.0015176691 -0.03021536 -0.015276191 0.034708027 -0.009283609 0.076124646 -0.050380263 -0.020832585
-0.037444323 0.046745874 -0.040707305 0.013726874 0.015143792 0.04049176 0.12423555 -0.0025806278
0.025632024 0.13437243 0.054113675 0.13188621 0.03340235 0.07624102 0.13192302 0.11164863
-0.023168797 -0.10703909 -0.028079852 0.006049129 -0.053373493 -0.047984112 -0.06868795 -0.057911374
-0.024802046 0.37786126 -0.3250751 -0.57145065 -0.44549987 -1.927175 0.007927281 0.014660757
-0.027016297 0.0396053 -0.011741355 -0.0074254028 -0.023705902 0.039996695 0.049370468 0.0795237
-0.03659467 0.05083204 0.04379152 0.122938566 0.15232429 -0.0011738867 0.0629364 0.104806624
0.10063014 0.13220087 0.02529075 0.021603879 0.14515783 0.13747928 0.10581778 0.001953387
0.002123094 0.060019083 -0.018794773 -0.0053095403 0.006457635 0.08067969 0.10001396 0.08531689
0.02438204 0.13578658 -0.29180717 -0.09830422 0.05076974 0.062445525 -0.0014905437 0.15727906
-0.07139364 0.18317468 0.0964036 -0.16654183 -0.05375684 0.12961629 0.10493134 0.0814512
0.12247522 -0.10961162 -0.030400401 -0.050090045 0.12255784 0.027277404 0.008843819 0.27375057
0.004844149 -0.33081886 -0.3737827 -1.6563582 -0.0040432424 0.0070537543 0.19964805 0.08384118
-0.01961569 0.09893543 -0.13006872 0.010845008 0.00816294 0.10233203 0.20979394 0.17755505
0.07567039 0.15884382 0.25416622 0.20220575 0.17847285 0.11219912 0.026155373 0.06861428
0.07309625 0.062321223 0.014932042 0.06107237 0.22798552 0.059981707 0.21911444 0.032718394
0.07227373 0.070279256 -0.045690954 -0.03889092 0.21660575 0.09184299 0.021272926 0.012177983
00000000: f17d b53c 2a20 7cbd e9b4 74be 43bb 4cbd
00000010: ed89 69bd 978a 8fbb d9ec 61be 59ef 4b3e
00000020: 61cb 32be a0bb fbbb c1f3 0ebe ac2d 013e
00000030: 6045 c8be 84d9 ecbe b328 153e 6a16 51bc
00000040: 935f 453e 77ee 1dbe 8a1b 17be d13f c1bd
00000050: 724b a53d 4022 463d bae0 32be b918 b2bb
00000060: 5aea c2be 3060 37bb 5f7a e9bd ad54 70bd
00000070: 81f4 a1be 4a6b a3bd cc37 20bc 77b5 37be
00000080: 57f9 7cbc 6d92 3abe e7d5 4ebe c5e2 52be
00000090: eadc c1bd c355 493e ee45 65bd 3954 dd3d
000000a0: 61ab cfbb ef77 16be 8145 143d ec63 7c3d
000000b0: 2b87 78be a33f abbe 182d a5be 66b2 f5bc
000000c0: aab9 a93d 316a 65bd fba6 003e 6375 873e
000000d0: c880 263d 958c f33c d219 583e 5e1f 7ebe
000000e0: 27cc a4bd 45e3 16be 34c0 ad3c 9292 0ebe
000000f0: 752a 39bd 313e 193e 487a 0dbe a043 b03d
00000100: 0dbb d93d b8cc c13c a3ab 5d3d 06e7 653d
00000110: 6446 503d 11b8 4b3e 5aa1 c8bd f1d9 2bbd
00000120: 6c64 283d 2c84 023b 2492 f43d e256 b23c
00000130: f335 043e dcb3 bc3d e164 803d b8c1 29bf
00000140: 51ff 813e b3cd 653e 5908 06be 5fd7 62bf
00000150: f3d0 b2bc 7120 9b3d 5fbb b4bc b3a8 f3bd
00000160: 6b42 95bd 4a96 8cbb f3cc 3e3d b144 4d3e
00000170: c492 06be fe71 2dbd 230d 8abe 218a b73d
00000180: 7eaf f63d bf95 9dbd ec17 55bd a585 03be
00000190: a98c 273e d923 453e 3731 f43c 7c20 1cbe
000001a0: 32d8 07bf 2e25 be3d dde1 153e d1f4 24be
000001b0: cce2 0ebf 3852 64bc 0118 77bb d7e8 d73e
000001c0: 00d7 1bbf fc8f 56be 9188 3cbe f3e6 fbbf
000001d0: ed1f 853c dc55 ba3d 706a a93c 9e71 843d
000001e0: 86ec c6ba 3486 f7bc fd48 7abc 012a 0e3d
000001f0: 471a 18bc 3de7 9b3d 895b 4ebd 19a9 aabc
00000200: 385f 19bd 9a78 3f3d b4bc 26bd afe6 603c
00000210: ab1d 783c b0da 253d 356f fe3d c01f 29bb
00000220: 40fa d13c ed98 093e 4da6 5d3d 2e0d 073e
00000230: e7d0 083d 4024 9c3d d416 073e 09a8 e43d
00000240: 7dcc bdbc 4f37 dbbd b807 e6bc c637 c63b
00000250: 2a9e 5abd fd8a 44bd 45ac 8cbd 7a34 6dbd
00000260: a92d cbbc 0877 c13e 3e70 a6be 974a 12bf
00000270: 8f18 e4be acad f6bf 6de1 013c ac33 703c
00000280: 4851 ddbc 2b39 223d d05e 40bc cb50 f3bb
00000290: e132 c2bc 93d3 233d b038 4a3d 52dd a23d
000002a0: 4be4 15bd 4235 503d bd5e 333d 37c7 fb3d
000002b0: e6fa 1b3e 1add 99ba cde4 803d dba4 d63d
000002c0: 2d17 ce3d aa5f 073e 8c2e cf3c 9efa b03c
000002d0: 41a4 143e 5ec7 0c3e feb6 d83d 6504 003b
000002e0: 9b23 0b3b 92d6 753d 7ff7 99bc a7fb adbb
000002f0: 929a d33b 653b a53d 1ed4 cc3d 9fba ae3d
00000300: d8bc c73c a30b 0b3e c067 95be b953 c9bd
00000310: eef3 4f3d e1c6 7f3d 595e c3ba c30d 213e
00000320: d436 92bd 2592 3b3e 406f c53d f189 2abe
00000330: 2230 5cbd 22ba 043e 3ee6 d63d e3cf a63d
00000340: 4ad4 fa3d 0f7c e0bd 430a f9bc 382b 4dbd
00000350: 9bff fa3d dd74 df3c aae5 103c 0929 8c3e
00000360: abbb 9e3b 1761 a9be 7260 bfbe 8c03 d4bf
00000370: 2d7d 84bb 2e23 e73b 8a70 4c3e edb4 ab3d
00000380: 15b1 a0bc a99e ca3d bc30 05be 43af 313c
00000390: dabd 053c 7593 d13d 39d4 563e fed0 353e
000003a0: 14f9 9a3d f4a7 223e 1322 823e 060f 4f3e
000003b0: 96c1 363e a7c8 e53d cb43 d63c a585 8c3d
000003c0: 7db3 953d 8a44 7f3d 86a5 743c 0527 7a3d
000003d0: 0975 693e 61af 753d 895f 603e b903 063d
000003e0: 4004 943d 92ee 8f3d 7026 3bbd 164c 1fbd
000003f0: e6cd 5d3e 2d18 bc3d 8f44 ae3c 2a86 473c

fc1.bias f4 [80]
0.0051858076 -0.12401779 0.11391786 -0.11091954 0.15650986 0.18338479 0.29666665 0.028922655
0.039543994 0.0031403492 0.2022207 0.1631932 -0.25447416 0.039125018 0.027691463 -0.123092316
0.22051159 0.029211333 -0.08657188 0.09124415 0.07712311 -0.0048029376 0.012643565 -0.1573719
-0.22992943 0.15809737 -0.006537407 -0.058306273 0.09697351 0.2477838 0.09867638 -0.05427155
0.0034829292 -0.0456366 -0.034247756 -0.18100834 0.28433767 -0.0680222 -0.029407045 -0.12442394
0.009204631 -0.034284633 -0.030132404 0.15673156 0.0795531 -0.20291544 -0.0043239235 0.068817
0.1217251 -0.016298149 0.07726305 -0.008688212 -0.056773752 0.069152676 -0.21603516 0.1758044
0.14562847 -0.053441044 0.06948671 0.3200713 -0.02410766 0.16915727 0.14857177 -0.1735654
0.15612328 -0.0021471546 0.10860138 -0.06886416 0.044309728 -0.039486103 0.06267911 -0.007171408
-0.060390662 -0.074053034 -0.046065062 0.08570409 -0.088715315 -0.18290265 0.063601464 -0.17528042
00000000: b5ed a93b 0afd fdbd c44d e93d c929 e3bd
00000010: 1f44 203e 39c9 3b3e b1e4 973e 34ef ec3c
00000020: e2f8 213d 51ce 4d3b f112 4f3e 1e1c 273e
00000030: 704a 82be 8e41 203d 35d9 e23c d317 fcbd
00000040: cacd 613e 9b4c ef3c 994c b1bd 37de ba3d
00000050: b9f2 9d3d f661 9dbb f526 4f3c 1926 21be
00000060: 9f72 6bbe 47e4 213e bf37 d6bb 8fd2 6ebd
00000070: 0c9a c63d 09bb 7d3e d816 ca3d d84b 5ebd
00000080: db41 643b 72ed 3abd 6047 0cbd 405a 39be
00000090: b594 913e 394f 8bbd 0be7 f0bc fbd1 febd
000000a0: 05cf 163c 0b6e 0cbd 3bd8 f6bc 3d7e 203e
000000b0: bcec a23d 11c9 4fbe b3af 8dbb edef 8c3d
000000c0: 024b f93d b283 85bc 173c 9e3d 0159 0ebc
000000d0: 988b 68bd eb9f 8d3d 5238 5dbe 1206 343e
000000e0: a11f 153e ffe4 5abd 0c4f 8e3d 63e0 a33e
000000f0: 6d7d c5bc 9037 2d3e 3323 183e 21bb 31be
00000100: c8de 1f3e 47b7 0cbb 666a de3d a708 8dbd
00000110: 1e7e 353d 2ebc 21bd e85d 803d 21fe eabb
00000120: 335c 77bd 1ea9 97bd b8ae 3cbd a085 af3d
00000130: 60b0 b5bd d54a 3bbe 7c41 823d b67c 33be

fc2.weight f4 [80, 80]
-0.04995877 -0.0052357763 0.12809204 0.087164216 -0.07609483 0.025698647 0.23394366 0.088852815
-0.0015643022 -0.023573482 0.1338421 0.080109976 0.009317905 0.16742836 0.17743114 0.08450837
0.16518885 0.06977625 0.013341275 0.018312505 0.15140855 -0.03937218 0.14674616 0.06499187
-0.13988619 0.14447346 0.15859295 0.011245097 0.12252071 0.14525908 0.3291318 0.14565325
0.08168923 0.07117226 -0.022464758 -0.07482522 0.24027072 -0.061835743 0.2412873 -0.043370504
0.048002835 0.06758748 -0.14736654 0.11360093 0.015965734 0.08498988 0.10882998 0.026442435
-0.02629414 0.078627296 -0.0008998926 0.085345834 0.072934985 0.16672458 -0.03449664 0.13698462
0.014101085 0.03001224 -0.025704574 0.2493413 -0.06266666 0.053524673 0.064845875 0.026328018
0.16206491 0.10697428 -0.0033787114 0.1230184 0.055588838 0.12174186 -0.11137513 -0.07114087
-0.065750904 -0.022537235 0.13396849 -0.036419377 0.041742545 0.051564172 0.07587686 0.019080196
0.14247192 -0.103130564 -0.3423567 -0.6768436 -0.33024156 -0.091417044 0.08189733 0.06570447
0.17616047 0.13129602 -0.027045175 -0.312535 -0.042297646 -0.22480331 0.048135016 0.074609175
0.1065616 -0.11712069 0.07183514 -0.046222087 0.018475417 -0.13544357 0.18671654 -0.086941086
0.09439868 -0.032425944 -0.5260771 -0.0013306439 -0.09714891 -0.04361951 -0.05422164 0.07126453
-0.04787711 -0.25276452 0.15011822 -0.08692841 0.037136275 0.04013546 -0.27890682 -0.0016487484
-0.14381692 -0.17388576 -0.47015628 0.11649601 -0.13866422 -0.25270265 0.23298906 0.021898134
0.09507442 -0.0034699303 -0.062049504 0.054665264 -0.27812803 -0.26258388 -0.06871752 0.008728463
-0.18134129 0.06928028 -0.25076845 -0.11973108 -0.28640592 0.0010364578 0.15165801 0.030997144
-0.08074787 -0.18726504 0.034646865 0.09526817 -0.07001642 -0.00023929124 -0.19871926 -0.22822948
0.13726227 0.006441611 0.006151564 0.12603803 -0.36370754 0.121548936 -0.04539485 0.169088
0.04080485 -0.13730621 -0.17422129 -0.0780597 -0.29274318 -0.093722336 -0.014789895 0.00027485332
-0.11328813 0.088224165 0.036415886 0.24466379 -0.26779065 -0.12029794 -0.17003593 0.047849245
0.012604194 -0.01406843 0.19496848 0.1294705 -0.17523837 0.18160509 -0.108780384 0.039426003
-0.17018288 -0.05058499 -0.0618688 0.09416474 0.07191918 -0.08372135 -0.16735189 0.05134861
0.13549206 -0.101033226 -0.0138025 0.082702056 0.054377757 0.092252746 -0.33144274 -0.2000128
-0.24905603 0.14885053 -0.01903104 -0.037587054 0.025161278 -0.14924797 -0.06607686 0.15709366
0.0037242018 0.05744023 0.014923497 -0.21037298 0.010853629 0.44226006 -0.21915504 0.01767205
0.12071381 0.006275993 -0.2579237 -0.095728785 0.15592407 0.030379208 -0.03355784 0.030794011
0.13225316 -0.03060377 -0.036747366 -0.079063125 -0.32946426 0.16177328 -0.026462695 0.0900773
0.041601326 -0.14792517 0.13661447 -0.28871676 -0.14569089 -0.14640002 0.13600615 0.057663437
0.07728694 0.06809111 -0.14948776 0.391323 -0.15249507 -0.030058488 0.05179001 -0.26287365
-0.0109269805 -0.09205098 0.039016537 0.24730502 -0.1984871 -0.023539953 0.01864028 -0.06275236
00000000: 91a1 4cbd e090 abbb 8f2a 033e 2783 b23d
00000010: 9bd7 9bbd f885 d23c ed8e 6f3e 77f8 b53d
00000020: 4609 cdba 2d1d c1bc e70d 093e b310 a43d
00000030: 20aa 183c 5772 2b3e 82b0 353e b912 ad3d
00000040: 4427 293e dae6 8e3d 5d95 5a3c 1b04 963c
00000050: d80a 1b3e b944 21bd a044 163e 751a 853d
00000060: 533e 0fbe daf0 133e 3166 223e 5b3d 383c
00000070: 23ec fa3d ccbe 143e f783 a83e 2026 153e
00000080: af4c a73d c3c2 913d 0308 b8bc f73d 99bd
00000090: 8709 763e 7a47 7dbd 0514 773e 45a5 31bd
000000a0: 9f9e 443d 4e6b 8a3d 41e7 16be 9ba7 e83d
000000b0: 92ca 823c 2d0f ae3d 41e2 de3d ce9d d83c
000000c0: cf66 d7bc 5907 a13d c5e6 6bba ccc9 ae3d
000000d0: f05e 953d d9b9 2a3e 594c 0dbd b245 0c3e
000000e0: 3d08 673c 3bdc f53c 6692 d2bc 5353 7f3e
000000f0: 6157 80bd b03c 5b3d eacd 843d dbad d73c
00000100: 58f4 253e 5515 db3d 5f6d 5dbb 12f1 fb3d
00000110: 1fb1 633d cc53 f93d a518 e4bd 4eb2 91bd
00000120: 69a8 86bd 02a0 b8bc 092f 093e 7c2c 15bd
00000130: 3bfa 2a3d f434 533d 5465 9b3d 124e 9c3c
00000140: 29e4 113e 1e36 d3bd 6149 afbe 9f45 2dbf
00000150: 6c15 a9be dc38 bbbd cab9 a73d 1190 863d
00000160: 6963 343e 7772 063e d88d ddbc 9604 a0be
00000170: 4c40 2dbd d732 66be 3929 453d b2cc 983d
00000180: f83c da3d f9dc efbd 4d1e 933d 5f53 3dbd
00000190: c259 973c b8b1 0abe 9f32 3f3e 2b0e b2bd
000001a0: 1854 c13d 11d1 04bd fdac 06bf 0069 aeba
000001b0: 02f6 c6bd 5faa 32bd 8317 5ebd 23f3 913d
000001c0: ca1a 44bd 5a6a 81be 97b8 193e 8607 b2bd
000001d0: 351c 183d 1565 243d e0cc 8ebe d11a d8ba
000001e0: be44 13be 1c0f 32be 53b8 f0be 7695 ee3d
000001f0: fefd 0dbe 3e62 81be af94 6e3e b763 b33c
00000200: 61b6 c23d c567 63bb 9f27 7ebd afe8 5f3d
00000210: cc66 8ebe 6571 86be c5bb 8cbd d401 0f3c
00000220: 88b1 39be d2e2 8d3d b964 80be 9235 f5bd
00000230: cca3 92be c1d9 873a 3d4c 1b3e b9ed fd3c
00000240: 245f a5bd 68c2 3fbe dfe9 0d3d f51b c33d
00000250: c564 8fbd 41ea 7ab9 107d 4bbe fdb4 69be
00000260: 7b8e 0c3e 2614 d33b 0f93 c93b 1d10 013e
00000270: e037 babe a6ee f83d f3ef 39bd 6825 2d3e
00000280: fd22 273d 009a 0cbe 1167 32be c4dd 9fbd
00000290: 6fe2 95be 7ff1 bfbd 5151 72bc 301a 9039
000002a0: 9b03 e8bd dfae b43d d328 153d 2589 7a3e
000002b0: db1b 89be c45e f6bd e61d 2ebe 92fd 433d
000002c0: d281 4e3c 467f 66bc d1a5 473e ea93 043e
000002d0: b071 33be aff6 393e 40c8 debd 297d 213d
000002e0: 6c44 2ebe 3532 4fbd 246a 7dbd 71d9 c03d
000002f0: 5d4a 933d 1976 abbd 4b5e 2bbe ec52 523d
00000300: 6ebe 0a3e 82ea cebd e223 62bc b25f a93d
00000310: 36bb 5e3d 02ef bc3d ddb2 a9be 28d0 4cbe
00000320: 8b08 7fbe 466c 183e fce6 9bbc e2f4 19bd
00000330: 061f ce3c 76d4 18be 4e53 87bd 29dd 203e
00000340: bd11 743b 7246 6b3d af81 743c 046c 57be
00000350: 6bd3 313c e96f e23e 2e6a 60be fac4 903c
00000360: cd38 f73d d8a6 cd3b 930e 84be 740d c4bd
00000370: 8faa 1f3e d1dd f83c f273 09bd b943 fc3c
00000380: 5f6d 073e c2b4 fabc 6884 16bd d9eb a1bd
00000390: 8aaf a8be e5a7 253e 4bc8 d8bc 737a b83d
000003a0: 2766 2a3d b279 17be aae4 0b3e afd2 93be
000003b0: fe2f 15be e3e9 15be 3245 0b3e 7f30 6c3d
000003c0: 9d48 9e3d 5a73 8b3d 5213 19be 7d5b c83e
000003d0: ab27 1cbe 383d f6bc c321 543d 6097 86be
000003e0: 1407 33bc 3985 bcbd cecf 1f3d 873d 7d3e
000003f0: 3440 4bbe dcd6 c0bc 80b3 983c 4f84 80bd

fc2.bias f4 [80]
0.41591525 -0.1686507 0.084140316 0.15852721 -0.07673197 -0.08952363 0.017458946 0.023465116
-0.12716919 0.05506285 -0.14998153 -0.025531573 -0.078431666 0.025903363 0.17662248 0.15045564
-0.047254864 -0.13987091 -0.0096447095 -0.11369783 -0.1609374 -0.07162465 -0.11748709 0.019760823
-0.08277992 0.09941662 0.08071406 0.1849293 -0.024814716 0.003656423 0.47872192 -0.020513037
0.16016267 0.44263262 -0.020375568 0.17141393 -0.040257964 -0.04178407 0.0031605905 -0.042599585
-0.013617031 0.21385628 0.1906723 0.0072746878 -0.039214738 0.25102496 -0.14781255 0.19502203
0.36410123 -0.07393515 0.32268375 -0.09416544 -0.041354388 0.2160775 0.009309276 0.13089013
0.097670764 -0.043824956 -0.017579783 0.19066998 -0.016999537 0.40280533 0.27453178 -0.059301313
-0.020602992 0.029488526 0.07935887 0.091443546 0.2267825 -0.072996974 -0.1712562 0.014994943
0.088762544 0.105527356 0.22054519 -0.02242498 -0.060894035 -0.036982052 0.02346122 0.033857506
00000000: d8f2 d43e c5b2 2cbe c251 ac3d f554 223e
00000010: a725 9dbd 2a58 b7bd 1006 8f3c ea39 c03c
00000020: a438 02be 9589 613d c294 19be 9727 d1bc
00000030: c8a0 a0bd 4a33 d43c 86dc 343e 0b11 1a3e
00000040: 518e 41bd 523a 0fbe d804 1ebc 68da e8bd
00000050: c6cc 24be f2af 92bd 129d f0bd 73e1 a13c
00000060: 8588 a9bd f19a cb3d 6a4d a53d 1b5e 3d3e
00000070: 3b48 cbbc 99a0 6f3b 0a1b f53e f50a a8bc
00000080: af01 243e bea0 e23e aaea a6bc 2287 2f3e
00000090: 89e5 24bd c625 2bbd e921 4f3b e77c 2ebd
000000a0: f819 5fbc 24fd 5a3e 993f 433e 8160 ee3b
000000b0: a29f 20bd 5886 803e 2c5c 17be dbb3 473e
000000c0: 7a6b ba3e 506b 97bd ce36 a53e cfd9 c0bd
000000d0: 3863 29bd 6c43 5d3e ef85 183c 1008 063e
000000e0: 9c07 c83d cc81 33bd 7a03 90bc fe3e 433e
000000f0: 9d42 8bbc 803c ce3e 6e8f 8c3e efe5 72bd
00000100: 9bc7 a8bc ec91 f13c e786 a23d c146 bb3d
00000110: ac39 683e 707f 95bd c95d 2fbe 59ad 753c
00000120: 23c9 b53d ba1e d83d 99d6 613e 97b4 b7bc
00000130: 066c 79bd 7e7a 17bd bf31 c03c 2bae 0a3d

fc3.weight f4 [4, 80]
0.11887566 -0.18443729 0.21667978 0.13398676 0.4098462 -0.04908477 0.12537134 0.20610459
0.021968199 0.08493509 -0.14877494 -0.23492302 -0.05406764 0.19013396 0.2549945 0.1039141
-0.6308708 -0.17596148 -0.13204865 -0.24257155 -0.1817258 -0.20803854 -0.09612579 0.06874269
-0.09340373 0.14960605 0.04341184 0.226537 0.54674876 0.27612332 0.15622734 0.32478386
0.39143538 0.20771584 -0.028941026 0.07531054 0.0072762184 0.1927591 0.042283878 0.07239007
0.07935674 0.11891897 0.322008 0.032202624 -0.1323264 0.18015863 -0.12210491 0.13528813
0.17643408 -0.21921907 0.106038004 -0.00090972346 -0.10899311 0.15081207 0.2249295 0.17337488
0.110279694 -0.22415943 -0.18439594 0.0928786 -0.1013386 0.21819244 0.09308183 0.024282422
0.23254868 0.061156902 0.089342415 -0.007688878 0.04592111 0.2964659 -0.18429534 0.068746075
0.20694216 0.03617559 0.07294461 -0.08464884 -0.105619304 -0.2210092 0.13426602 0.12865311
0.18711612 -0.15736504 0.08567923 0.22586413 0.36424842 0.013751329 0.25151098 -0.0022860295
-0.015889779 -0.1904813 -0.2025406 -0.21596444 0.055567738 0.5223565 0.20799163 0.07590683
-0.23036353 0.026031375 -0.23795812 -0.052678745 -0.2999579 -0.015285103 -0.014188373 0.027970454
-0.10156169 0.03388203 0.06814873 0.2092083 0.51980513 -0.22281927 0.23095016 0.3795186
0.36431852 0.1780147 0.29953548 0.0940488 0.18032916 -0.13459416 -0.027221695 0.21765159
0.06647706 0.04756878 0.2695366 0.026372196 0.08318455 0.168067 -0.1087129 0.08239987
0.17577358 -0.044314116 0.1118217 -0.21751353 -0.061913908 0.16383313 0.09495774 0.13286033
0.08713339 -0.042382114 -0.055190798 0.17921214 0.0046033124 0.17358975 0.06938941 0.09090508
0.40661794 0.2876626 0.17015076 -0.19224006 0.094540454 0.6033977 -0.009376811 -0.2473932
0.17006405 0.021688575 0.022846952 0.057283565 0.019198261 -0.20111501 0.012000202 0.17518812
0.20402324 -0.08368605 0.12667842 0.1285852 0.59260255 -0.06769284 0.29625183 -0.37424436
-0.30321765 0.22441871 -0.036285717 -0.081331536 0.23768704 -0.037272632 0.21734811 0.10112505
-0.40143052 0.21073665 -0.09974823 -0.087530635 -0.2132522 -0.2947421 0.038624108 0.23503672
0.03103514 -0.060457893 0.14797296 0.307409 0.19613375 0.38669777 0.1711923 -0.13965355
0.34949172 0.15934946 -0.07933431 0.030932711 -0.10186416 0.28935567 0.06808119 0.080671124
0.22918175 0.13111393 0.17403126 -0.2410023 0.35405877 0.14851364 -0.22319028 0.0593326
0.1200356 0.0010977554 0.13963433 -0.29399434 -0.06720888 0.24560134 0.40349966 0.15849155
0.1822141 0.062159337 0.13597402 0.10824869 0.18095438 0.09543266 0.16081588 -0.406272
-0.20713572 0.16829202 0.18122031 -0.48953202 0.059347 0.81227076 -0.037420303 -0.33590248
0.17154801 0.15789074 0.18034257 -0.015861638 0.054598078 -0.2684997 -0.035299625 0.19388932
0.19033174 -0.10000149 0.15069397 0.16989993 0.41983783 -0.010757603 0.5900379 0.2939274
-0.14446382 0.17931905 -0.30489376 -0.21370214 -0.56597596 0.62126845 0.12804833 0.1028917
00000000: 1575 f33d 21dd 3cbe 4ee1 5d3e d333 093e
00000010: 5cd7 d13e 1d0d 49bd 5861 003e 150d 533e
00000020: a7f6 b33c 73f2 ad3d 7558 18be a98f 70be
00000030: 0876 5dbd 7ab2 423e a48e 823e ead0 d43d
00000040: c080 21bf 3f2f 34be c337 07be ad64 78be
00000050: 5416 3abe 0e08 55be 99dd c4bd f8c8 8c3d
00000060: 744a bfbd 5432 193e 9dd0 313d 51f9 673e
00000070: baf7 0b3f 0960 8d3e 0ffa 1f3e 124a a63e
00000080: 386a c83e 76b3 543e bb15 edbc 6a3c 9a3d
00000090: 586d ee3b a462 453e dc31 2d3d 3f41 943d
000000a0: c985 a23d ca8b f33d 3cde a43e e6e6 033d
000000b0: 9280 07be 817b 383e 2412 fabd f988 0a3e
000000c0: 23ab 343e f77a 60be 742a d93d 827a 6eba
000000d0: c837 dfbd 7b6e 1a3e eb53 663e 2f89 313e
000000e0: 52da e13d 0d8a 65be 4ad2 3cbe 2337 be3d
000000f0: 9d8a cfbd d76d 5f3e b0a1 be3d eeeb c63c
00000100: 3e21 6e3e a97f 7a3d 28f9 b63d fcf2 fbbb
00000110: c617 3c3d 61ca 973e ebb7 3cbe beca 8c3d
00000120: a5e8 533e db2c 143d fc63 953d 5f5c adbd
00000130: ef4e d8bd 3c50 62be 087d 093e a4bd 033e
00000140: 5e9b 3f3e 4d24 21be 9878 af3d ed48 673e
00000150: c57e ba3e 414d 613c 0cc6 803e 36d1 15bb
00000160: 482b 82bc 880d 43be ce66 4fbe c825 5dbe
00000170: ff9a 633d 28b9 053f c2fb 543e 0a75 9b3d
00000180: 6be4 6bbe c03f d53c 4bab 73be abc5 57bd
00000190: 1594 99be 5e6e 7abc 5a76 68bc 4b22 e53c
000001a0: 93ff cfbd e2c7 0a3d 9091 8b3d b33a 563e
000001b0: f311 053f bc2a 64be 337e 6c3e 4350 c23e
000001c0: f587 ba3e 7c49 363e b75c 993e a89c c03d
000001d0: 35a8 383e 0dd3 09be 0800 dfbc 0fe0 5e3e
000001e0: 2025 883d 7bd7 423d b400 8a3e 810a d83c
000001f0: a95c aa3d c119 2c3e dea4 debd 43c1 a83d
00000200: fdfd 333e b882 35bd c702 e53d debb 5ebe
00000210: 7099 7dbd dfc3 273e 3479 c23d 8a0c 083e
00000220: fe72 b23d de98 2dbd bf0f 62bd 6383 373e
00000230: 62d7 963b 83c1 313e 091c 8e3d 712c ba3d
00000240: 3a30 d03e 8348 933e 003c 2e3e 94da 44be
00000250: 6d9e c13d 4678 1a3f 32a1 19bc a554 7dbe
00000260: 4525 2e3e 3dac b13c 8829 bb3c 2ca2 6a3d
00000270: ac45 9d3c 18f1 4dbe 7f9c 443c 8464 333e
00000280: 78eb 503e 9763 abbd fdb7 013e d7ab 033e
00000290: cdb4 173f 8ba2 8abd 52ae 973e f59c bfbe
000002a0: 583f 9bbe 05ce 653e 55a0 14bd 2691 a6bd
000002b0: 3b64 733e 30ab 18bd 8190 5e3e a61a cf3d
000002c0: 4d88 cdbe 59cb 573e cd48 ccbd 4343 b3bd
000002d0: c95e 5abe 70e8 96be 5034 1e3d 77ad 703e
000002e0: 683d fe3c b2a2 77bd 3986 173e b664 9d3e
000002f0: 49d7 483e 40fd c53e 094d 2f3e 5701 0fbe
00000300: 94f0 b23e 812c 233e 077a a2bd 9966 fd3c
00000310: 289e d0bd 6d26 943e 276e 8b3d e736 a53d
00000320: 9fae 6a3e bb42 063e 4035 323e 4fc9 76be
00000330: 3147 b53e f613 183e fe8b 64be be06 733d
00000340: 3ad5 f53d 8fe2 8f3a 4dfc 0e3e 6d86 96be
00000350: cfa4 89bd eb7e 7b3e 8297 ce3e 9c4b 223e
00000360: 5596 3a3e ca9a 7e3d c63c 0b3e 7db1 dd3d
00000370: 1b4c 393e 3372 c33d ebac 243e e202 d0be
00000380: 631b 54be be54 2c3e d191 393e f1a3 fabe
00000390: d715 733d faf0 4f3f 0846 19bd 69fb abbe
000003a0: 48aa 2f3e 1cae 213e b9ab 383e 44f0 81bc
000003b0: 3ca2 5f3d cb78 89be 5796 10bd ec8a 463e
000003c0: 53e6 423e 95cd ccbd 854f 1a3e 3ffa 2d3e
000003d0: fcf4 d63e a840 30bc b90c 173f a77d 963e
000003e0: 53ee 13be 6a9f 373e 091b 9cbe bcd4 5abe
000003f0: cde3 10bf 730b 1f3f 1a1f 033e e2b8 d23d

fc3.bias f4 [4]
0.30083647 0.23224755 0.22904661 0.18652181
00000000: 3d07 9a3e 4dd2 6d3e 328b 6a3e 93ff 3e3e
