Vanilla DQN/vanilla_checkpoint_2.pth (torch_old, 40359 bytes, 6 tensors)

fc1.weight f4 [80, 37]
000000 15 6b 1e bd 98 28 2a 3d 85 20 62 be b3 3b 1c be
       -0.03867634 0.04154262 -0.22082718 -0.15257148
000010 25 58 a3 bd 87 9b 1e be 85 c4 8d be 1d 6a a3 3e
       -0.079757966 -0.15489016 -0.27688995 0.31916896
000020 92 bd 73 3e b7 4a 9e 3d d1 f4 89 bd 34 d3 26 3e
       0.23802784 0.077290945 -0.06736148 0.16291505
000030 61 68 af be f2 37 ff be 01 32 57 3e 77 2f ca 3c
       -0.34259322 -0.4984737 0.21015169 0.024680836
000040 3d 56 8a 3e 69 e3 3b be 14 e9 d1 bd c7 a7 51 bd
       0.2701892 -0.18348469 -0.10249534 -0.051185396
000050 ff 00 91 3d 99 ab c3 3d ee 2a f6 bd a3 fe c0 3d
       0.07080268 0.09554214 -0.12019907 0.09423568
000060 fe 27 ec be 6d 87 41 3c ea 8a 1b be 71 12 a7 3c
       -0.46124262 0.011812073 -0.1518971 0.020394536
000070 49 96 98 be cc 02 de bd ff eb 0a 3d a5 1e 9d be
       -0.29802158 -0.10840377 0.03391647 -0.30687442
000080 17 d8 b7 3c 98 42 1d be 18 5e ae be 99 1c 02 be
       0.022441907 -0.15357435 -0.34056163 -0.12706222
000090 5a e9 ea bd b1 25 a2 3d 88 02 8c bd 66 55 29 3d
       -0.114702895 0.07917345 -0.0683642 0.041341208
0000a0 c7 6f 16 3e cd d8 32 be da 28 0e 3e de 84 3a 3c
       0.14691077 -0.17465515 0.13882771 0.011384217
0000b0 02 2c b9 be fe 45 20 bf 16 16 9f be 33 a1 9a be
       -0.36166388 -0.626068 -0.31071538 -0.3020111
0000c0 dd 4d 0d 3e d3 bb 38 be 2b 2e 75 3e 3e 95 e4 3e
       0.13799234 -0.18040399 0.23943393 0.44645113
0000d0 51 5c 07 3d 16 ff 85 be 92 19 aa 3e 2c 47 6c be
       0.033047024 -0.26171178 0.33222634 -0.23074025
0000e0 d0 38 36 be 6d 24 78 be 9f 27 c2 3d 43 7c 86 be
       -0.1779511 -0.24232645 0.094802134 -0.2626668
0000f0 3a 65 87 bc 19 92 aa 3e a4 03 c3 bc 5d d6 99 3d
       -0.01652776 0.3331459 -0.023805447 0.0751159
000100 e9 ae f5 3c 48 16 d5 bd 13 3f cc 3c 2c 36 20 bd
       0.02999063 -0.104046404 0.02493242 -0.039114162
000110 fb a7 47 3e 8d 4c b3 3d 65 90 66 be 68 e6 0e 3e
       0.19497673 0.08754835 -0.2251602 0.1395508
000120 3f 86 09 3e 31 93 02 bd 1f d0 45 3e 4c 45 45 3d
       0.13430117 -0.031878654 0.19317673 0.04816179
000130 32 fe a4 3d b0 c7 2a ba ea c7 94 bd 65 5e 71 bf
       0.080562964 -0.0006514741 -0.07264693 -0.9428466
000140 d3 54 32 3e ac c1 ae 3e 3f 5c 3c be 80 a5 8e bf
       0.1741517 0.34132135 -0.18394564 -1.1144257
000150 96 3a 6a bc 57 14 91 3c 8b 34 63 3d bf c9 11 be
       -0.014296195 0.017709894 0.05547003 -0.14237116
000160 99 d1 2f be 87 cd 12 be 20 08 0b 3e ea 6f 26 3e
       -0.17169799 -0.14336215 0.13577318 0.1625363
000170 d1 8e 8d bd 2a 7f df bd 93 48 4f be 3f ab f9 3d
       -0.06912006 -0.109129265 -0.20242529 0.12190866
000180 73 d0 24 3d 2f 8f 07 be b6 eb 49 be c8 66 39 be
       0.040237855 -0.13238214 -0.19718823 -0.18105614
000190 21 ba 86 3e 71 21 51 3e 49 61 92 be 1c f4 b1 3d
       0.2631388 0.20422913 -0.28589848 0.08689138
0001a0 51 2d 55 bf b3 c3 b1 3c 55 11 1b 3e 06 99 3d 3d
       -0.8327227 0.021699762 0.1514333 0.046288513
0001b0 b4 b0 2f bf 34 86 b6 bc 25 f8 de 3b 0d 82 ee 3e
       -0.68629 -0.02228079 0.0068044835 0.46583596
0001c0 00 d7 1b bf 5b a1 fd be bc 51 7e be 89 77 16 c0
       -0.6087494 -0.49537167 -0.24835867 -2.3510458
0001d0 eb 6a c3 3c ca 03 e0 3d 9c cf 85 3d 57 d6 e5 3d
       0.023854693 0.10938223 0.06533739 0.11222523
0001e0 4e 73 17 3d e5 cc 1f 3d 54 da bd 3c d7 50 39 3d
       0.036975197 0.039013762 0.023175396 0.04524311
0001f0 2a ae 96 3c 5e 60 b5 3c 92 51 f1 ba 31 4e 14 3c
       0.018393595 0.022140678 -0.0018411151 0.009051845
000200 63 22 ae bb d6 07 cb 3c d0 49 04 3d 80 08 6a 3d
       -0.005314158 0.02478401 0.032296956 0.057137012
000210 fc 2d 58 3d 64 91 bc 3d 3e d9 71 3d 6b a4 42 bc
       0.05277823 0.092074186 0.05904507 -0.011880021
000220 f4 e8 5e 3d e6 c3 3e 3e 54 95 97 3d be 6b 16 3e
       0.05442138 0.18629417 0.07401529 0.14689538
000230 59 92 d8 3c 8c 2d 6f 3d b8 44 f2 3d a9 15 4f 3e
       0.026436972 0.058393046 0.11829513 0.20223106
000240 2f d0 ff 3c 4e cf c0 bd 6a 37 1c bd b7 22 87 bb
       0.0312272 -0.0941454 -0.038138784 -0.0041240114
000250 81 16 9f bd 1b 71 ac bc d8 c3 87 bc 99 32 07 bc
       -0.07767964 -0.021050027 -0.016572878 -0.0082518095
000260 2e 64 be bb 43 a6 dd 3e 6f 64 9e be 26 c2 fb be
       -0.005810282 0.4329091 -0.30936 -0.4917156
000270 ce 59 29 bf ab 41 18 c0 48 20 19 bc 32 b4 4c 3d
       -0.66152656 -2.379008 -0.009346075 0.049976535
000280 5a 55 48 3d 8f c3 15 3d e9 f9 4b bd 72 8b cc 3a
       0.048909523 0.036563452 -0.04979888 0.0015605523
000290 b0 52 d7 3c a5 c9 8c 3d ae 60 8a 3d d0 c8 14 3d
       0.026284546 0.06874398 0.067567214 0.036324322
0002a0 d4 5e aa bc 00 38 ed 3d d3 72 30 3d 9c 61 25 3e
       -0.02079717 0.11582947 0.043078255 0.16150516
0002b0 97 53 0c 3e 0e 47 64 3d 25 eb 15 3d e4 23 c1 3d
       0.13703762 0.055731826 0.036601204 0.09430674
0002c0 db 64 5a 3e 3f 01 fe 3d d0 c2 20 3d 43 2f ba 3d
       0.21327536 0.124025814 0.039248288 0.09091046
0002d0 68 1e 11 3e ca 71 44 3e 0f e0 d6 3d 4a fb e5 3c
       0.14171755 0.19184032 0.104919545 0.028073926
0002e0 c5 3f 44 3b 25 ae 73 3d 95 d9 8e 3d d8 1e 43 bd
       0.0029945236 0.05949225 0.06975094 -0.047636837
0002f0 a0 87 80 bc 7b f1 c8 3d 40 f5 7e 3d 7a 91 cb 3d
       -0.015689671 0.09811684 0.062245607 0.09939857
000300 53 6b 1e 3e 22 24 b0 3d 36 e8 2d be b0 5e a1 bc
       0.15470628 0.08600642 -0.16983113 -0.01969847
000310 08 b6 21 3d 42 39 f4 3b 74 0c 8a 3d 7d 61 d0 3c
       0.03948024 0.0074531147 0.067406565 0.025437111
000320 26 83 89 3c db 55 0d 3e f1 a2 c5 3c c2 dc 36 bc
       0.01678617 0.13802283 0.024125548 -0.011161031
000330 8c 85 c3 bd 74 bf e6 3d f0 57 fc 3d ad ae 0d 3e
       -0.095469564 0.112669855 0.1232146 0.13836165
000340 ba bb e4 3d a5 3e 9c bd 47 63 83 bc 79 b9 38 bd
       0.111686185 -0.07629136 -0.01603855 -0.045098756
000350 27 13 04 3e 52 6f be 3d b6 d1 f3 3d e1 1d ad 3e
       0.12897931 0.092985764 0.119052336 0.33811858
000360 7e f3 71 be 36 1f c2 be 74 0e 10 bf 65 ff 0a c0
       -0.23628041 -0.37914437 -0.56272054 -2.171838
000370 f7 c9 db bc 6e f5 f9 bb 52 48 66 3e 18 c2 e4 3d
       -0.026829703 -0.0076281345 0.22488526 0.11169833
000380 76 7f c5 3c ea 1a 03 3e 6a eb b6 bd 60 e6 94 3d
       0.02410863 0.12803236 -0.089316204 0.07270503
000390 b5 5e 8d 3c 48 84 e4 3d b9 47 76 3e 13 6c cf 3d
       0.017257074 0.11158043 0.24050798 0.101280354
0003a0 35 31 d1 3d 3f 50 33 3e ac 28 95 3e c0 43 82 3e
       0.102144636 0.1751108 0.29132593 0.25442314
0003b0 0a d4 47 3e 08 52 1d 3e fa 53 84 3d 7e b9 e0 3d
       0.1951448 0.15363324 0.0646133 0.1097288
0003c0 15 16 87 3d 6b fc ee 3c b5 85 2d 3d 85 6c bb 3d
       0.06596009 0.029173097 0.04236384 0.09151558
0003d0 e2 05 83 3e 90 c1 d3 3d ff 5a 4d 3e ec 26 61 3d
       0.25590426 0.103396535 0.20054244 0.05496876
0003e0 9e f9 f9 3d 3f 72 df 3d 85 b2 14 bd 87 c2 15 bd
       0.12205814 0.109104626 -0.036303062 -0.03656247
0003f0 2a 65 86 3e 61 2d 9c 3d 16 b3 82 3d eb 3c 8b 3d
       0.26249057 0.07625843 0.06381814 0.067987286

fc1.bias f4 [80]
000000 84 43 02 3d 4c 3a 10 be 5a a0 21 3e c7 37 d2 bd
       0.03180267 -0.14084738 0.15783826 -0.10264545
000010 2b 86 3b 3e bf b8 39 3e 7c f3 b2 3e a1 98 9b bd
       0.183129 0.18136881 0.3495139 -0.07597471
000020 c4 f0 db bc 85 48 cb bc 02 73 81 3e e7 62 2d 3e
       -0.026848204 -0.024814853 0.25283056 0.1693226
000030 08 15 60 be f0 e9 86 bc 43 b8 3d 3c 7a dc 44 be
       -0.21883023 -0.016468972 0.011579576 -0.1922473
000040 f8 1f 75 3e 93 a5 b3 bc 4a 95 d5 bd 34 fa 45 3d
       0.23937976 -0.021929538 -0.10428865 0.048334315
000050 88 89 18 3d 3d dd f8 3c e3 52 b1 3c fd 6a 45 be
       0.037240535 0.030378932 0.021645969 -0.19279094
000060 79 fe 6c be d0 03 f7 3d 51 7e a5 bc c1 69 d4 bd
       -0.23143949 0.12061274 -0.020201834 -0.103717335
000070 d0 2c 2b 3c 8a ec 59 3e 54 6e b9 3d 0b 1d f0 bd
       0.010447696 0.21281639 0.090542465 -0.117242895
000080 94 cf d3 bb 19 bd 79 bd d0 77 12 bc fa c8 e4 bd
       -0.006463954 -0.060971353 -0.008939698 -0.11171146
000090 a7 3d b2 3e d1 d4 b7 bd 34 e1 d7 bc 27 eb 82 bd
       0.34812662 -0.089761384 -0.026352502 -0.06392508
0000a0 ea 06 9d bc d8 09 b0 bb 4c 5f 9e bc 72 10 e9 3d
       -0.019168336 -0.005372267 -0.01933255 0.1138009
0000b0 3b 29 35 3d 8b c6 52 be f1 b3 c0 bb 56 27 17 3e
       0.044228774 -0.2058355 -0.0058808257 0.14761099
0000c0 5c c9 8c 3d e9 37 a9 bd b4 d8 a4 3d 93 a1 96 bd
       0.06874344 -0.08262617 0.08049145 -0.073550366
0000d0 19 bb 60 3c 15 ce bb 3d 92 02 72 be f7 e5 1f 3e
       0.013716483 0.091701664 -0.23633793 0.15615068
0000e0 31 24 22 3e 98 bb a5 bd b7 43 8a 3d fe 48 ba 3e
       0.15834118 -0.08092421 0.06751197 0.36383814
0000f0 07 4f 85 bb df 5e 49 3e 41 fb 0f 3e 53 15 37 be
       -0.0040682587 0.19665097 0.1406069 -0.17879228
000100 ac 25 9b 3d ac d5 92 bc 47 ec 41 3d 08 a6 02 be
       0.07575545 -0.017924152 0.047344472 -0.12758648
000110 b7 e3 ac 3c b1 91 68 bd f0 65 b2 3d 60 33 f6 bc
       0.021104677 -0.056779567 0.08710849 -0.030053794
000120 ac 3b 41 bd 52 54 0d be ef 57 03 be b6 6b e2 3d
       -0.04717605 -0.13801697 -0.12826513 0.110557005
000130 8c d3 c2 bd 05 41 62 be 93 84 ea 3c 61 fb 40 be
       -0.095130056 -0.22095115 0.02862767 -0.18845893

fc2.weight f4 [80, 80]
000000 a0 aa 88 bd 95 f5 06 bd e7 35 00 3e 7a 58 aa 3d
       -0.06673169 -0.03294905 0.12520562 0.08317657
000010 3b d1 c0 bd 9f 32 dd 3c 7d 32 8e 3e aa 80 8a 3d
       -0.094149075 0.027001677 0.27772895 0.06762822
000020 8f 39 90 bc 95 fc 2f bd 99 0b 2d 3e 16 18 c2 3d
       -0.017605571 -0.04296549 0.16898955 0.0947725
000030 06 e1 76 bd b9 2e 0d 3e 96 2b 40 3e d2 b2 33 bc
       -0.060273193 0.13787355 0.18766627 -0.010967927
000040 13 51 4c 3e 06 7b ab 3d ae bd 01 3c 56 76 57 bd
       0.19952802 0.08373074 0.007918758 -0.05260309
000050 17 43 18 3e 4a e2 8b bd 11 b5 0b 3e 8b bb 17 bd
       0.14869343 -0.068302706 0.1364329 -0.03704409
000060 86 9d 54 be 6f 3f 21 3e 71 6c 12 3e 6e d8 b5 bb
       -0.20763215 0.15746854 0.1429918 -0.005549482
000070 46 c2 d9 3d f4 42 8f 3d 28 e4 4f 3e ca 3f 11 3e
       0.10632758 0.06995192 0.20301878 0.1418449
000080 80 a4 3b 3d 68 4b 96 3d 83 2d b6 bc da 4d 42 be
       0.045811176 0.07338601 -0.022238499 -0.1897501
000090 72 3a 96 3e d4 59 54 bd d6 e1 15 3e de 7a 28 be
       0.29341465 -0.05184348 0.14636931 -0.1645312
0000a0 21 8e ff 3c dd 0c 71 3d 40 01 4b be 83 0e 8c 3d
       0.031195702 0.058850158 -0.19824696 0.068387054
0000b0 4f 97 09 3d 35 9b 60 3d bc d4 af 3d 92 3d be bb
       0.033591565 0.054835517 0.08585498 -0.0058056796
0000c0 93 4d 3e bc a7 6b 04 3d ae be db 39 5c 79 7c 3d
       -0.011615175 0.032329228 0.00041913002 0.061639175
0000d0 34 62 c3 3c c7 fc f2 3d 84 c6 d8 bd 84 98 10 3e
       0.023850538 0.1186462 -0.10584739 0.1412068
0000e0 86 4a 5f 3c 6c c6 15 3d 6f 00 55 bd f1 fd 93 3e
       0.013628608 0.036566183 -0.052002367 0.2890468
0000f0 3f c3 b9 bd c2 68 5e 3d b8 1b 17 3d 7d bc 60 3d
       -0.09070443 0.054299124 0.03689167 0.054867256
000100 ec 42 12 3e 6f f6 fe 3d 57 43 1a 3d ae da 54 3d
       0.14283341 0.12449347 0.037661877 0.05196636
000110 a9 37 ad 3c 8a 94 d1 3d 92 c3 aa bd 59 b3 da bd
       0.021144705 0.1023341 -0.08338083 -0.10678739
000120 a3 ae c8 bd 23 1e 64 bd 1b 88 9b 3d d2 74 c2 bc
       -0.09798934 -0.055692803 0.075943194 -0.023737345
000130 e0 29 dd 3b 7f d2 2b 3d d4 0c 5b 3d 24 db 80 bd
       0.0067493767 0.04194879 0.05347903 -0.06291798
000140 3a 9a f2 3c 76 91 05 bf df 50 bb be 1d ba 1f bf
       0.029614557 -0.5217508 -0.36585137 -0.6239336
000150 c3 cf 05 bf e8 36 ac bd 62 f6 84 3d 46 d4 9e 3d
       -0.52270144 -0.0840891 0.06492306 0.07755332
000160 32 96 88 3e 25 d9 27 3e 20 89 6a 3c e4 14 18 bf
       0.2667709 0.16391428 0.01431492 -0.59406877
000170 bf 5c bc be 48 19 7d be 0e b7 f7 3c 65 f3 aa 3d
       -0.3678951 -0.24716675 0.030238654 0.08347205
000180 ea 58 b8 3d 5a 0b 5e bd 5a e6 49 bb 9e ee ee bd
       0.09001334 -0.054210044 -0.0030807466 -0.11666606
000190 70 0c bd 3d 62 62 fa be 2a f4 76 3e 94 bb c0 bd
       0.09230888 -0.48903185 0.24116579 -0.09410778
0001a0 b1 a3 76 3d 8e 4e 42 be aa 08 a0 be 0e 8c 17 3d
       0.060214702 -0.18975279 -0.3125661 0.0369988
0001b0 4f f7 92 3c 80 07 a3 3b de 4a 8a bc 91 f2 c2 3c
       0.017940192 0.0049752593 -0.016881403 0.023797305
0001c0 e7 fe e1 bd ff 06 a5 bd 67 4c 78 3e 81 e2 f7 bd
       -0.11034947 -0.08057975 0.24247895 -0.12103749
0001d0 7b 51 83 3c 56 d5 53 3d 32 bf cb bd 1d 69 6b be
       0.016030064 0.051717125 -0.09948577 -0.22989316
0001e0 6a c7 5a be a8 f3 8e be 2d 3e e3 be 3d f0 65 3e
       -0.21365133 -0.2792027 -0.44383374 0.22454925
0001f0 29 ae 31 bf a3 1d d4 be f5 e8 94 3e 3e e0 ce bd
       -0.6940637 -0.4142886 0.29083982 -0.101013646
000200 75 f6 14 3e e8 c9 83 bd 81 db a3 bd cf 5d 05 be
       0.14547141 -0.06434995 -0.080008514 -0.13024066
000210 0b c2 8b be f8 fe 4c be ba 05 ef 39 36 37 00 3d
       -0.2729648 -0.20019138 0.000455899 0.031302653
000220 36 bf 8d be d8 a0 b1 3d 81 88 ae be c0 e5 70 be
       -0.27684945 0.08673257 -0.3408852 -0.23525143
000230 03 f5 d6 be b7 cd 75 3d 67 69 d3 3d 3e fb ef 3c
       -0.41983804 0.060010638 0.10322838 0.029294606
000240 73 04 ac bd 22 2d be bd 75 18 db 3c 26 78 5a be
       -0.08399286 -0.09285952 0.02674506 -0.21334895
000250 f6 25 9b bc f7 9a f1 be 54 a1 db bd ef 47 ab be
       -0.018939 -0.4718854 -0.1072413 -0.33453318
000260 b1 48 36 3c 6e 06 55 be 26 f8 a4 3d 58 93 86 be
       0.011125729 -0.20803234 0.08055143 -0.2628429
000270 76 83 93 be 43 19 37 bd 30 4b 8e bd f9 5c dc 3c
       -0.28811234 -0.044701826 -0.06947935 0.026899802
000280 92 d4 46 bd c1 08 5c be 27 2b 16 be b7 57 c7 bd
       -0.048542567 -0.21487714 -0.14664899 -0.09733527
000290 8b a1 eb be cd d3 10 be dd bc 41 bd a7 69 40 3e
       -0.46021685 -0.14143296 -0.047299255 0.18790303
0002a0 76 df 0b be 78 88 dc bc 88 3d 28 3d 43 8e 97 3e
       -0.13659462 -0.026920542 0.041074306 0.29600725
0002b0 5c c6 10 3e 51 c5 de be 23 f9 03 bc 01 16 58 bd
       0.14138168 -0.43509915 -0.008055004 -0.05275536
0002c0 ee 5b c3 3b 38 d6 07 bd 75 19 d6 3d 03 05 62 3e
       0.0059618866 -0.03316328 0.10454074 0.22072224
0002d0 06 5b 98 be 9a 91 21 3e d3 2b c8 bd 98 fd 2c 3e
       -0.29756945 0.15778199 -0.09773984 0.16893613
0002e0 5f b1 44 3e d0 b5 15 be ed 1f d5 3d 45 47 85 3e
       0.19208287 -0.14620137 0.1040648 0.26030937
0002f0 63 44 9d 3d 48 27 4f bd 11 bf ab be 59 4e 12 bb
       0.07679059 -0.05057457 -0.3354421 -0.002232453
000300 32 c2 4a 3e c6 5d 3c bc 11 18 0a bd 77 0a 23 3e
       0.19800642 -0.011496967 -0.033714358 0.15921961
000310 74 ea 96 bb c4 60 13 3e 42 54 9f be 64 da 01 be
       -0.0046055857 0.14392382 -0.3111897 -0.12680966
000320 56 84 90 be 03 d2 97 3e 48 bb 8f 3c 8f de 65 3d
       -0.28225964 0.29652414 0.017545357 0.05612045
000330 b1 3a fe 3c a7 33 b3 3d 20 c0 42 bb d2 66 43 3e
       0.031033846 0.08750086 -0.0029716566 0.19082192
000340 7c 61 7c 3d ba 53 c1 3d f1 c2 b9 3d 94 7c 0e bd
       0.061616406 0.09439798 0.09070385 -0.034786776
000350 70 d2 21 3e 7c f2 05 3f d9 ea 1c bd 4e 2d 39 bd
       0.15802932 0.52323127 -0.038309906 -0.04520922
000360 5d be 34 3e e0 99 10 3e 02 20 6a be 09 91 f9 bd
       0.17650743 0.14121199 -0.22863773 -0.121858664
000370 ef 44 be 3d 1c f7 28 3d 34 94 7d bd ab cc 33 3d
       0.09290492 0.041251287 -0.061908916 0.04389636
000380 62 65 c2 3d b9 17 e4 bd f4 fc e6 3c 7b 8e 83 bd
       0.094919935 -0.11137337 0.02819679 -0.0642366
000390 60 f1 1d bd 63 11 23 3e cc 6e 64 bd 1a 00 0a 3e
       -0.03856027 0.15924601 -0.055769727 0.13476601
0003a0 83 dc 54 3d 56 48 40 be 3f 18 b0 3d a6 d4 ac bd
       0.05196811 -0.18777594 0.085983746 -0.08438997
0003b0 68 60 3d 3e 01 01 47 bd 24 6b 18 3e d3 76 e6 3d
       0.18493807 -0.04858494 0.14884621 0.11253133
0003c0 81 7a 1b bc ba 4d ab 3d 0a 15 25 be a7 14 bd 3e
       -0.009489656 0.083644345 -0.16121307 0.3692982
0003d0 64 d1 8b be d3 2c bb 3c 75 d8 56 3d bb bc 03 3d
       -0.2730819 0.022848522 0.052452523 0.03216241
0003e0 2e 05 b7 bd 6c c0 fb bd 90 a0 0e 3d 05 b4 87 3e
       -0.08936535 -0.12292561 0.034821093 0.26504532
0003f0 0d 72 f7 bc 49 04 fb 3d c2 0b 35 3e 73 19 11 3e
       -0.03020575 0.12256677 0.17680266 0.14169864

fc2.bias f4 [80]
000000 43 c5 10 3f 94 a4 86 be ec b9 df 3d b4 b1 66 3e
       0.56551 -0.26297438 0.10924134 0.22528726
000010 c3 8f 4e bd 2a 58 b7 bd ff 74 1a 3c 0c 20 df 3c
       -0.05043007 -0.08952363 0.009427308 0.02723696
000020 18 0d 05 be ab e0 36 3c aa ad 1a be 03 41 1d bd
       -0.12993276 0.011161963 -0.1510531 -0.038392078
000030 b2 59 c1 bd cb 2f 89 39 00 02 89 3e 9d e3 5e 3e
       -0.09440936 0.00026166285 0.26759338 0.21766515
000040 4a 34 29 bd a9 a5 61 be 38 b4 62 bd 61 3c 49 be
       -0.041309632 -0.2203585 -0.05534765 -0.19651939
000050 89 21 64 be bd 77 f4 bd 12 9d f0 bd 6a c0 24 3d
       -0.22278418 -0.11936901 -0.11748709 0.040222563
000060 85 88 a9 bd c0 da 07 3e e9 6b c1 3d 57 0d 67 3e
       -0.08277992 0.1326704 0.0944441 0.22563682
000070 a5 43 91 bb e3 af 10 bc 5d 2b 22 3f d8 ed 25 3d
       -0.0044331127 -0.008830997 0.6334742 0.04051003
000080 eb 3d 60 3e 5b a0 18 3f 3c c3 e5 bc 65 cf 7b 3e
       0.2189862 0.59619683 -0.028047197 0.24590833
000090 ce 55 ab bc 92 7a 32 bc 73 26 03 3d ea 2d 0d bd
       -0.020914938 -0.010893481 0.03201909 -0.034467615
0000a0 05 20 4a 3d 55 41 af 3e 8f d6 88 3e 6f ef d9 3c
       0.049346942 0.34229532 0.26726195 0.026603429
0000b0 33 db 95 3c e0 07 ca 3e 7b 49 33 be f2 70 61 3e
       0.018292999 0.39459133 -0.175085 0.22015741
0000c0 82 34 03 3f cf cc 73 bd f5 ed e9 3e 69 51 9e bd
       0.51251996 -0.059521493 0.4568936 -0.077303715
0000d0 8f a4 cb bd 6b 3b 94 3e 55 3f 35 3d d3 b5 66 3e
       -0.099434964 0.28951582 0.04424985 0.22530298
0000e0 62 c0 38 3e 45 3f af bd e7 e3 94 bc 15 90 84 3e
       0.18042138 -0.085569896 -0.018175079 0.25891176
0000f0 08 25 94 bb 98 f9 0b 3f b2 9d ba 3e f1 3a 3b bd
       -0.004521016 0.54677725 0.36448437 -0.045710508
000100 1c 82 63 bc da 7b 89 3b 68 fa 05 3e 8a 66 86 3d
       -0.013886001 0.0041956725 0.13083804 0.065625265
000110 c5 06 80 3e 8e bf 75 bd 7f f8 4f be 22 63 72 bd
       0.25005165 -0.059997134 -0.20309637 -0.05917657
000120 ad ca 21 3e a0 2d 8a 3d a0 e4 a7 3e de 5c 42 bc
       0.15799971 0.067469835 0.32791615 -0.011862962
000130 06 6c 79 bd 60 50 b4 bc c1 fa bf 3d ec af a6 3d
       -0.060894035 -0.022010982 0.093739994 0.08139023

fc3.weight f4 [4, 80]
000000 9a 46 1e 3e ea c2 62 be ff ad 7b 3e c6 3e 82 3d
       0.1545662 -0.22144666 0.24578093 0.06359629
000010 7f 21 ff 3e 1d 0d 49 bd bd 00 ec 3c 4d 8e 1b 3e
       0.49830243 -0.04908477 0.028808946 0.15191002
000020 f8 78 87 be 11 a7 00 3e 36 b1 65 be 72 7d b3 be
       -0.2645948 0.12563731 -0.22430882 -0.35056645
000030 3d ff 03 bd ad 4e 78 3e 3d ee 6a 3e ba f5 b2 3d
       -0.032225836 0.24248762 0.22942443 0.08738275
000040 33 48 fb be 17 ca c9 be 2a 02 a2 be 19 7f 06 be
       -0.4907852 -0.39411995 -0.31642276 -0.13134421
000050 cd b2 45 be 17 39 30 be 99 dd c4 bd 97 36 b6 bb
       -0.19306488 -0.17209278 -0.09612579 -0.005560707
000060 74 4a bf bd 9b 88 de 3d 6e f0 02 bd ac 04 47 3e
       -0.09340373 0.10865899 -0.031967573 0.19435376
000070 e6 63 03 3f 26 b3 b4 3e 27 97 45 3e fd 1f aa 3e
       0.5132431 0.3529293 0.19295941 0.3322753
000080 eb fd a5 3e 73 a4 74 3e 96 4b a2 be 10 9a 75 3d
       0.32420287 0.23890857 -0.31698292 0.05996138
000090 a9 fc 10 3e fa 93 bc 3d 6e d5 9a 3d d4 45 41 3d
       0.14158882 0.09207912 0.0756024 0.047185734
0000a0 74 37 1b 3d 22 f9 0b 3e 36 13 8e 3e 62 8f ea 3d
       0.03789468 0.13669255 0.27749032 0.11453129
0000b0 2c 9d 83 bd 4f 84 53 3e f1 7e 94 3d 1a d2 64 3e
       -0.064264625 0.2065594 0.07250775 0.22345772
0000c0 91 76 4e 3e d6 d7 da be b8 6e 02 3e b6 78 55 be
       0.20162417 -0.42742795 0.12737548 -0.20846829
0000d0 92 37 29 be fc 15 0d 3e 90 d6 a1 3e 88 58 26 3e
       -0.16525105 0.13777918 0.3160901 0.1624471
0000e0 d0 40 2b 3e 7a d2 25 be 3b c7 75 be fe 02 3a 3e
       0.16723943 -0.16193572 -0.24001782 0.18165204
0000f0 c4 44 14 be da f3 75 3e fc cc 4d 3d 65 95 d4 bd
       -0.14479357 0.24018803 0.050244316 -0.10380057
000100 7c 24 78 3e d1 2a db bd 96 2f 37 3d 15 6d b9 bc
       0.24232668 -0.10701526 0.044723116 -0.022635022
000110 07 5d 42 bc c8 dd fa 3e bc e1 83 be 22 bb bf 3d
       -0.011863 0.4899733 -0.2575816 0.093618646
000120 51 e3 75 3e 29 18 17 3d 42 34 a7 3d 98 89 82 be
       0.24012496 0.036888275 0.08164264 -0.254956
000130 ef 4e d8 bd 66 fb 2f be 6e c3 ca 3d 48 d1 b3 3d
       -0.105619304 -0.17185745 0.099005565 0.087801516
000140 d5 e6 5b 3e 60 87 18 be dc ea 20 3e e5 4a d4 3d
       0.21474774 -0.14895391 0.15714592 0.103658475
000150 ce ee da 3e 41 4d 61 3c 7a c7 45 3e 36 b3 d2 3c
       0.4276032 0.013751329 0.19314376 0.02572022
000160 0e ad 95 be c4 44 53 be 2a 72 2c be 01 63 83 be
       -0.29233593 -0.20631701 -0.16840425 -0.2566147
000170 04 a3 9a be 85 8b de 3e be d9 79 3e 81 30 c3 3d
       -0.30202496 0.4346582 0.24399468 0.09530736
000180 8a 9a 89 be 2c da 49 3e 87 9e dd 3b 61 34 0f be
       -0.26875716 0.19712132 0.0067632827 -0.13984825
000190 87 32 80 be ee 90 26 be 5a 76 68 bc 13 2b c5 3d
       -0.2503855 -0.16266224 -0.014188373 0.096273564
0001a0 93 ff cf bd 1d be 43 3d 7c 56 e3 3d e2 a6 85 3e
       -0.10156169 0.047788728 0.1110048 0.26103884
0001b0 d4 ff 02 3f b9 07 85 bd 7d cc 89 3e eb b4 75 3e
       0.5117161 -0.064956136 0.26913825 0.23994796
0001c0 b1 91 ba 3e 9d 89 46 3e 44 f6 b6 b9 42 dc f0 3d
       0.3643928 0.19388433 -0.00034897227 0.11760761
0001d0 12 40 2f bd c2 7c 4e 3d d1 10 ed 3b 10 f1 0f 3e
       -0.04278571 0.050411947 0.0072346707 0.14056802
0001e0 aa 25 86 3d d6 01 96 3d d9 20 66 3e c9 c4 96 3d
       0.065501526 0.07324569 0.22473468 0.073617525
0001f0 9d 4c 29 3e d4 27 44 3e b1 5a e4 be b4 69 5d 3e
       0.16533132 0.19155818 -0.44600442 0.21622354
000200 a3 f2 40 3e 42 dd 6e 3c ba 84 20 3e 58 35 48 be
       0.18842559 0.014579119 0.15675631 -0.19551599
000210 51 cc 41 be e9 02 0f 3e a2 5c 97 3e 17 3e 26 3e
       -0.18925597 0.13965954 0.2956286 0.16234623
000220 85 d8 d8 3d 58 e7 a3 bd d2 b5 14 be 6d cd 40 3e
       0.10588173 -0.0800311 -0.14522484 0.18828364
000230 61 70 2e bd 71 ec 45 3e 03 d1 05 3e 5b 6d 88 3d
       -0.04258764 0.19328476 0.13068013 0.06661483
000240 8d 4f dd 3e bc 4b 83 3e 62 a9 1f 3e 69 39 6b be
       0.43224755 0.25643718 0.15591958 -0.22971119
000250 f9 cf 9c 3c b4 e9 fd 3e 28 e0 95 bd 2c 1b 63 be
       0.019142138 0.49592364 -0.07318145 -0.22178334
000260 f6 4f 6a 3e 22 b6 05 3e ba 38 5e 3d 21 74 2e 3e
       0.22882065 0.1305776 0.054253317 0.17036487
000270 ac 45 9d 3c 0c 27 d1 bd 83 34 b2 bc c5 2f 1f 3e
       0.019198261 -0.10212526 -0.021753555 0.15545566
000280 46 e4 6e 3e 0a f9 b4 bd c6 48 cc 3d 2d 7b 1a 3e
       0.23329267 -0.08836563 0.09974818 0.1508605
000290 8e ec 17 3f 8b a2 8a bd ad bf 03 3f e9 52 53 be
       0.5934533 -0.06769284 0.5146435 -0.20637096
0002a0 d4 7f 96 be d7 34 e5 3e cb 94 90 3d df 97 be bd
       -0.293944 0.44766876 0.0705963 -0.09306311
0002b0 b8 49 b3 3e 03 d6 05 bc 4d f3 63 3e d3 41 c3 3d
       0.3501718 -0.0081687 0.2226078 0.09534039
0002c0 b5 12 eb be a6 1e 6f 3e 95 d3 05 be 7c 9f 18 be
       -0.4591271 0.23351535 -0.13068993 -0.14904588
0002d0 40 67 78 be 7e 92 48 be 50 34 1e 3d 25 45 88 3e
       -0.24258137 -0.19587132 0.038624108 0.26615253
0002e0 68 3d fe 3c 6e 58 db bd 1d 35 63 3e 30 bf 8b 3e
       0.03103514 -0.10710226 0.2218823 0.27294302
0002f0 c9 86 73 3e 64 7b ae 3e b4 5b 5b 3e 89 de c5 bd
       0.23781885 0.34078515 0.214217 -0.09661586
000300 97 01 90 3e 76 a1 4e 3e 1c 8d 8a be b6 4e 1b bc
       0.28126213 0.2017878 -0.27060783 -0.009479215
000310 ac dd b6 be 7c 5b 0b 3f fa d3 a3 3c 3a 42 4a 3e
       -0.35715997 0.5443647 0.01999854 0.19751826
000320 1c 1d 66 3e 74 18 1e 3e dd e1 17 3e 8b 14 d7 be
       0.22472042 0.15439016 0.14832254 -0.4200786
000330 dd a9 b7 3e 93 f7 36 3e b5 3f d4 bd 8a 34 07 3d
       0.35871783 0.1786788 -0.10363714 0.03300909
000340 d1 35 2c 3e 8d b6 7c 3d c7 8f 28 3e f1 27 d9 be
       0.16817404 0.06169753 0.16461097 -0.42413285
000350 9b 69 8c bd 13 d0 4a 3e 9c 41 f0 3e ad c6 27 3e
       -0.0685608 0.19805937 0.46925056 0.16384383
000360 7a 8a 43 3e 7d 46 40 3d 6f f3 b6 3d ed 84 ee 3d
       0.19095793 0.046942223 0.0893315 0.11646447
000370 ce 0a a3 3d 6c 84 06 3e f7 50 f9 3d 8c 73 10 bf
       0.07961045 0.13136452 0.12173646 -0.5642631
000380 e7 8d dc bd 2c 47 d5 3d c3 4f 5b 3e 86 a6 d2 be
       -0.10769253 0.104139656 0.21417145 -0.41142672
000390 82 70 ff bc 57 e9 2b 3f 70 c3 2d be e1 54 a3 be
       -0.031181578 0.67152923 -0.16969085 -0.31900695
0003a0 03 5f 2a 3e fd b0 84 3e d6 6c 42 3e 56 e7 c4 bc
       0.16637807 0.2591628 0.1898683 -0.02403609
0003b0 3c a2 5f 3d 4b f4 bc be cd 5f d7 bd dd 1d 1b 3e
       0.054598078 -0.3690513 -0.105163194 0.1514811
0003c0 e0 6e 64 3e a4 86 fb bd db e4 21 3e 9d e1 05 3e
       0.2230792 -0.1228154 0.15809958 0.13074346
0003d0 29 65 e9 3e a8 40 30 bc 03 0e 44 3f 13 06 34 3e
       0.45584992 -0.010757603 0.7658388 0.17580442
0003e0 05 3e 9b be f3 ee c2 bc c5 e5 07 bf 80 2d 7d be
       -0.30320755 -0.02379558 -0.53084975 -0.24724388
0003f0 e9 9b a8 be 59 84 11 3f 6a 94 1a 3e 7e e8 0e 3e
       -0.3293145 0.5684257 0.15095678 0.13955876

fc3.bias f4 [4]
000000 6a f0 dc 3e 1d d2 a1 3e 28 38 af 3e 16 ff 93 3e
       0.4315217 0.31605616 0.3422253 0.28905553
