Noisy DQN/noisy_checkpoint_3.pth (torch_old, 40390 bytes, 6 tensors)

linear1.weight f4 [80, 37]
00000000: f83c 0e3e 8924 f23c 1810 58be 50ab f7bd
00000010: 8692 96be 9c9e a33d 3304 d1be 2b86 983e
00000020: ecc2 e0bc 7517 26be e2df bcbc 09c8 103d
00000030: 8532 92be 752d e8be 2c1c 803e ff62 f83d
00000040: ac2a 2dbe a4f8 cbbd c338 fc3d 465c 1abe
00000050: 17c1 363e 3255 d4bc 4451 73bd 49ab 99be
00000060: a7bc 3e3d f07f 83bc 29e0 0bbe 5708 fc3d
00000070: 4a37 01be 3dd0 0ebf 8355 e9bd 0dfa 013e
00000080: a9a9 0bbe fe9c 54be 6b55 43be 17e0 a3be
00000090: c010 fbbd 01e3 f33a 5e7b 013e 40ee cb3b
000000a0: e022 b33d 85b8 823d 1df9 f03d 33f2 f1bd
000000b0: bd46 47be f087 51bf 87d2 c13e 079a a23d
000000c0: 5ae6 aabe 022e 933d 592d fe3d 70ea e13e
000000d0: 0437 803e 6994 5cbd 2f92 b3bc 4c46 25bf
000000e0: 22cf eabe b935 33be d01a 27be d27e e6bd
000000f0: 6d78 1ebd 5dd0 2c3e ad25 75be 02c9 febd
00000100: 3442 b83e bcd7 ccbe 1913 b53e 1e11 523d
00000110: 0bbf d13d b5c9 8ebc 9399 06be 1427 e5bd
00000120: 6a55 753d b3d4 d8bc f35e ab3d 6f7e 9abd
00000130: aba6 223d e508 08bf e382 5dbe b218 d0bc
00000140: a385 e3be f9c4 763e 95a9 1fbd d17c a4be
00000150: f8fa 36be f3a1 a2bd 6f8c a3bc ec70 aebe
00000160: 3014 09be 6a98 8fbd a916 a5be b1cb 803d
00000170: 1ddf bebd 04ba fbbe dc20 4cbf cdc0 5abe
00000180: 474d 583e 51a1 36be 4c1e a43d a391 4a3d
00000190: 2aac 83be c97c 203e 12eb 2bbf c7e0 4e3e
000001a0: 5090 58be 3a9b e23d f368 50bf e338 afbc
000001b0: 2bec de3c f3bc bc3e 1e65 b5bc 46ea bc3d
000001c0: 53bc 0bbe 2eac c93e d5f8 dfbe 3eef 04bf
000001d0: 9320 6abe c000 193e c6d5 073e 41f9 233e
000001e0: 7d6b d0bd ea4f c6be c468 51bd da6e 5b3e
000001f0: 2e61 193e eed5 47be 0669 be3d f94f 38be
00000200: 8e95 fdbc 02ef 75be 654b 21bf b195 353e
00000210: c6dd 8ebe 69e3 3e3d cae0 d93d 265a 9a3e
00000220: 1bc0 09be b4bf f93d 650a 87bc d1d0 983e
00000230: ce05 823d d086 813d 10be 853e 7674 6e3c
00000240: 4e1f 92be e96a 75bc 0eee af3d 09b2 c4bd
00000250: b6cb a6bd 4bc3 873b 2a6a 5abd f396 01bd
00000260: f5ea 78bd ab71 ec3e e430 43bf bb2e 6ebf
00000270: 8874 27bf 0dc0 fbbf 41e5 a43d fe66 3c3d
00000280: 5c88 77bb b846 37bc d120 e7bc bd2b a33b
00000290: 0f04 aaba 1292 333d 4c71 943d 0881 873d
000002a0: 55d5 db3c b762 b73d b15b 953c fa3c bebb
000002b0: 9cbc 383d d8e5 ff3d 7788 0f3d 82c2 093e
000002c0: 90eb e33d c671 1f3e dd48 5d3e d18a b839
000002d0: c243 0a3d 7a15 013e 225b 03bd 37ee b2bd
000002e0: 5db9 b83c 1b40 393e 4474 8cbd 5584 85be
000002f0: 9208 9dbe 8c7e 923e 37a6 883a b15b 663e
00000300: 4dea 453d 3ea0 cbbe 1c89 4cbf 2f2e 8c3d
00000310: 9cd4 efbd 700d f5be dce8 eebc a62d 66be
00000320: c1a3 1dbc f598 933c b434 74bd 21cc 86be
00000330: 9ce9 9dbd cc7f 063e 0973 2b3d 8a5f 1dbe
00000340: f69a 38bd fa96 76be 13f4 6abc cd6b 92be
00000350: 9c1d 07bd 37c9 063e 19d6 743d 5c74 1f3e
00000360: 0fb1 adbe 68fb b3be fd5d 9ebc a3cc 78bf
00000370: 9644 9f3c 27f9 ea3c b5eb 963e aa7a 28bf
00000380: 5ed4 67be 64e9 18bb fcf1 5bbe 1c81 c4bd
00000390: 7e2d 99be e954 eaba a43b 22bd 1ce0 083e
000003a0: a39b febe 441d 103e 8438 7f3e 0687 8ebe
000003b0: 8522 333d cda1 7abe fcba a3be 145d 753e
000003c0: bf75 81be 384e eebb ac40 203e 3b79 34be
000003d0: 6edd 33be e48a 5d3c 6c64 b33d cf03 b3bc
000003e0: 4a74 0c3d 2602 1ebe 0845 10bf d708 4f3e
000003f0: 19e9 683e 3ddd bebd 88b4 99be 0c43 4abe
0.13890445 0.029558437 -0.2109989 -0.12093222 -0.29408664 0.07989237 -0.40823516 0.29789862
-0.027436696 -0.16219886 -0.023055974 0.03534702 -0.28554168 -0.4534718 0.25021493 0.12128257
-0.1691081 -0.09959534 0.12315514 -0.15074262 0.17847095 -0.02591953 -0.059403673 -0.30013493
0.04656663 -0.016052216 -0.13659729 0.12306278 -0.12618747 -0.55786496 -0.11393263 0.12693043
-0.13638939 -0.20763013 -0.19075553 -0.32006904 -0.12259054 0.0018607081 0.12644717 0.00622347
0.08746886 0.063828506 0.117662646 -0.11813774 -0.19460578 -0.8184805 0.37855932 0.07939535
-0.3337887 0.0718651 0.12410993 0.44124174 0.25041974 -0.053852472 -0.021920292 -0.6456039
-0.45861155 -0.17500962 -0.16318822 -0.11254658 -0.038689066 0.1687636 -0.23940153 -0.12440683
0.3598801 -0.40008342 0.35366133 0.051285855 0.10241517 -0.017430166 -0.13144521 -0.11189094
0.05989591 -0.02646861 0.083677195 -0.075436465 0.03970973 -0.5313857 -0.2163196 -0.0254024
-0.44437894 0.24098577 -0.038980085 -0.32126477 -0.17869174 -0.079410456 -0.019964425 -0.34070528
-0.13386607 -0.070114926 -0.3224385 0.06288851 -0.09319899 -0.49165356 -0.7973764 -0.2136261
0.21123229 -0.17834975 0.08013591 0.049455296 -0.25717288 0.15672602 -0.67155564 0.20202933
-0.21148801 0.11064763 -0.8141014 -0.02138943 0.027212223 0.36862907 -0.022142943 0.092243716
-0.13646059 0.39389175 -0.4374453 -0.51927555 -0.22863989 0.14941692 0.13265142 0.16013052
-0.10176752 -0.38732845 -0.051125303 0.21429005 0.14978477 -0.19515201 0.092973754 -0.17999257
-0.030955102 -0.24016955 -0.6300567 0.17732884 -0.27903575 0.046603594 0.10638578 0.30146903
-0.13452189 0.121947676 -0.016484449 0.29846814 0.063487634 0.063245416 0.2612157 0.014554134
-0.2853951 -0.014979103 0.08590327 -0.0960427 -0.081443235 0.004143154 -0.053323902 -0.031638097
-0.060770947 0.46180472 -0.76246476 -0.93040055 -0.6541219 -1.9667984 0.08051539 0.04599666
-0.0037770486 -0.011186294 -0.02821389 0.0049795792 -0.001297118 0.043840475 0.07248172 0.06616408
0.026835123 0.08954375 0.018232198 -0.005805609 0.045101747 0.12495011 0.035042252 0.13453105
0.11128914 0.15570745 0.21609826 0.0003519864 0.033756025 0.12605849 -0.032069333 -0.08736842
0.022549326 0.1809086 -0.068581134 -0.26077524 -0.306706 0.28612173 0.0010425512 0.22495915
0.04831915 -0.39770693 -0.7989671 0.06844746 -0.11710474 -0.47861814 -0.02916377 -0.22478351
-0.0096215615 0.018017272 -0.059620574 -0.26327613 -0.07710573 0.13134688 0.041857753 -0.15368477
-0.045069657 -0.2408103 -0.014340418 -0.2859787 -0.032987222 0.13162695 0.059774492 0.15571731
-0.33924147 -0.35152745 -0.019331926 -0.9718725 0.019441884 0.028683258 0.29476705 -0.6581217
-0.22639605 -0.002333247 -0.21479028 -0.09594938 -0.2991752 -0.0017878088 -0.03960766 0.13366741
-0.49728116 0.14073664 0.24923903 -0.2783739 0.043734092 -0.24475785 -0.31978595 0.23961288
-0.25285146 -0.007272508 0.1564967 -0.17624371 -0.17564937 0.013521884 0.08759388 -0.021852402
0.03429059 -0.15430507 -0.56355333 0.20218216 0.2274517 -0.093195416 -0.30020547 -0.19752139

linear1.bias f4 [80]
00000000: c843 023d 9e60 00be 48f9 a8bd ea98 15be
00000010: 28ae 703e a0a1 903b cde6 8b3c 5b89 4dbd
00000020: b7fc 9c3c 546d 373b 1fbe 0e3d 8545 673e
00000030: 0534 44be 3884 39bd 1edc dcbd 91bf 10be
00000040: 313e d53d f6cb 34bd 180a 58bd e333 063d
00000050: 4fa9 003e 6711 b43d 3987 acbd 4dbf cdbd
00000060: b041 8abd 8c88 be3d 16cb dbbd 0acb 13be
00000070: fd76 9f3d 6e36 523e 4223 753e 89bb d7bd
00000080: b6c8 1abe ef92 d7bd d71d 953d dfd6 46be
00000090: 0096 513b b58b 20be e2fb edbd 797a 26be
000000a0: 4395 32bd b940 ca3d 9ed2 763d db6a c73c
000000b0: 0cf6 05bd 7928 86be a7f3 96bd 4ef2 d83c
000000c0: fd45 143d f233 77bd 890f d93c d7d6 96bc
000000d0: ef6a 05bd ba65 36bc 69a2 25be d7c5 023e
000000e0: 73e4 403e 30ca cebd 9180 713d f5d9 e33d
000000f0: 0f92 253d aa98 513b 1bf6 41bd 1e6f 0dbe
00000100: 6733 2bbb 972a fabd a081 7b3d f1c6 a9bd
00000110: c8a6 b2bc 5317 eebd 8369 713b ed14 a4bc
00000120: ccf6 b6bc 3d89 e7bd 1cce 6fbe 4b31 e23c
00000130: 12ae acbd 98ff 8bbe 2ae0 00bc 7413 02be
0.031802922 -0.12536857 -0.082506716 -0.14609113 0.23503935 0.0044137985 0.017077828 -0.05017982
0.019163473 0.0027988749 0.034849282 0.22585113 -0.19160469 -0.04529211 -0.107841715 -0.14135577
0.10412253 -0.044139825 -0.052744 0.032764327 0.12564586 0.08792382 -0.08424229 -0.10046253
-0.0675081 0.09303388 -0.10732095 -0.14432922 0.07786367 0.20528576 0.23939231 -0.10533816
-0.15115628 -0.10526072 0.07281082 -0.19417904 0.0031980276 -0.15678294 -0.116203085 -0.16257657
-0.04359938 0.09875626 0.060259454 0.024342945 -0.03270535 -0.26202753 -0.07370692 0.026482727
0.03619956 -0.060352273 0.026496666 -0.01841299 -0.032572683 -0.011132652 -0.16175236 0.12770782
0.18837146 -0.10097158 0.0589605 0.111255564 0.040422495 0.0031981864 -0.047353845 -0.13811919
-0.0026123167 -0.122151546 0.061402917 -0.08289898 -0.021808043 -0.116255425 0.0036836572 -0.02002951
-0.022334479 -0.11305473 -0.23418468 0.027611395 -0.08431639 -0.2734344 -0.007865945 -0.12702733

linear2.weight f4 [80, 80]
00000000: a0e8 b6be 5f6c a1bb 9317 8c3e 71dc b43d
00000010: 8ae8 a2be 07a5 21bd 1086 49bd 436e 8ebd
00000020: c33d 8a3d e091 5ebe b802 bcbe 592c 1c3e
00000030: f905 c1be 09d0 d2bd feb0 cfbe 3258 b93d
00000040: bbb2 1d3e 2c9e 8f3e e1e5 09bd 7299 80be
00000050: e934 79bd a0a3 1abe e491 5dbe 02f2 833a
00000060: c40f 74be c804 e3bd 7b10 453e 5dd8 6f3e
00000070: 779b e9bb d43e 523d 7f30 12bd d818 573d
00000080: 3582 e93d b4a2 09be e959 78bb 1abb 83be
00000090: 73c4 7ebd 735b 043e 2033 97be e48d 02bf
000000a0: 2848 8ebe 217f 1abd 4c85 81bd 13b9 523e
000000b0: 2199 f3bd 8297 37be dcbd 79bc 0c21 573e
000000c0: a87d dcbe b86b 9cbe 6b67 993c 2db0 123e
000000d0: 7962 e03d 035b f83d f5b2 ea3d 2bd9 573c
000000e0: dde4 ca3c 3ea6 8bbd c6f4 49bd 58b1 633e
000000f0: 05e8 bebd b176 adbd 8951 31be 5b81 12bf
00000100: 1ae9 983e fdcf f9bd 39c4 033e 9ed4 c8bd
00000110: 77b3 29bd 2741 0d3d e56f b9bd f350 a83d
00000120: 3d70 c6be 14f5 173e ddb8 01bf 6338 bbbe
00000130: f927 82be c6b8 293d 9ab3 0dbd 33c7 6dbd
00000140: e076 65bd 024e 01bf 7814 213e 5dfb 95be
00000150: 5d19 31be c7f4 54be dc9c 83bd 1249 01be
00000160: 81ae 1e3b 9094 153e cf3c 6cbe 7ea3 223e
00000170: dbd2 52be 4ba7 4ebd 680a 08be 81fd e03e
00000180: 6e55 d0bd 2b73 cd3d 702c 8ebe 47bc 483c
00000190: ff0e 7d3c cc3f dd3d 4eae 843d 3990 ab3e
000001a0: 36b1 aa3c 309e 11bf 7be2 80be d1fd a93e
000001b0: e697 77be 61a7 05bf 4365 56be cd1f a1bd
000001c0: 59df 9c3e c706 8ebd cb55 e7be 25e6 fcbd
000001d0: 9d7d 81be af61 eebd c885 86be 7bea a6be
000001e0: d5c8 dabd 8cb1 6a3c ddaf abba c610 7a3e
000001f0: 4f9b e33d c639 ecbc 6076 69be cee6 d1be
00000200: 17dd 4dbe ea11 0fbd fbf0 29be 27e6 0ebe
00000210: 6b27 373e f981 76be 1870 64bd 6741 2f3e
00000220: 5f87 05be 5dfe dabe 74fe 79be 40c0 c4bd
00000230: da7c adbe 362d b63e 5195 8abe 91f3 6dbd
00000240: 9ad0 8fbe b005 5d3e 5f2d 3f3e 1676 22be
00000250: 0bd8 103e 2393 003b 9383 c0bd b3b7 8ebd
00000260: f385 b1be cb73 9d3d 5cad 11be 62f4 7a3e
00000270: 49bd 0b3e 8141 bd3d 31a4 71be f581 36be
00000280: 504e 34be 611c ccbd 80c1 d6bd ba2e 93be
00000290: 3d06 823d 0fa4 3abe 228d 7cbe be40 33be
000002a0: cde8 543d b05c 7bbc c5c3 c0bd d2f8 3f3e
000002b0: a154 8fbe 2607 e9be 14ec 51bd ac52 333e
000002c0: 1a84 6f3d 9a9a 3c3e 0b19 97be f4a7 ffbc
000002d0: 083f 70be 7d5f c6bd 3d1f f83c 5328 cfbd
000002e0: 9a79 20be b75d 643e f8ae eb3d d23b d5bd
000002f0: 91c1 ccbd fe11 8d3e f068 03bf 2cf4 023e
00000300: b09f 363e b748 a13d d410 ba3d 4ab9 03be
00000310: fa9e 5ebe 5a81 45bd a00b 28be 1f63 05be
00000320: 2bee 95bd 8e22 01bf 79c6 3fbe 3756 8abb
00000330: 511f fb3d d7a3 15be 9e8e 90be 137b 813e
00000340: fb3f 01be dd4d f1bb 4257 75bc d25d 72be
00000350: c3c7 a63e bd57 a8be 042c 823e a528 f73d
00000360: b4e4 2ebe 3319 0dbe 121a 55be b901 bebd
00000370: 5cdf f2bd fb20 023d 0709 82be 7687 06bf
00000380: 3bcf 0f3e 985c 51be 1fcf 483b 11b4 afbe
00000390: 59e2 55be dce5 1fbe a65d 27bd 3397 9f3c
000003a0: bbad a4be f286 d0bd 72a3 913d 7b36 84be
000003b0: 1c0d cebe bacc 753e 86a2 d6be 8500 94be
000003c0: 243a 09be 936a 173e 3da4 8bbd db98 573e
000003d0: 02ef a6be 5873 cabd ff23 d1bd c2a9 e4be
000003e0: a365 a6be 1138 94be a217 a3bd 8186 d03d
000003f0: 3789 21bd e969 d7be b507 ad3d 56e5 0b3e
-0.35724354 -0.004926249 0.27361736 0.08831108 -0.31818038 -0.039464023 -0.049200118 -0.069546245
0.06750061 -0.21735334 -0.36720824 0.15251292 -0.3769987 -0.10293586 -0.40564722 0.09050025
0.15400212 0.28050363 -0.033666495 -0.2511707 -0.060841475 -0.1510148 -0.21637684 0.0010066631
-0.23834139 -0.11084896 0.19244568 0.2342238 -0.0071291286 0.05132945 -0.03569078 0.052513927
0.11401788 -0.13440973 -0.0037895388 -0.25728685 -0.062199067 0.1292551 -0.29531193 -0.5099776
-0.27789426 -0.037718896 -0.063242525 0.20578413 -0.118944414 -0.1792889 -0.01524302 0.210087
-0.43064618 -0.30550933 0.018726071 0.14325018 0.10956282 0.12126734 0.114599146 0.0131743355
0.024767334 -0.068188176 -0.0493057 0.2223562 -0.09321598 -0.08469904 -0.1731626 -0.5722863
0.29865342 -0.12197874 0.12867822 -0.098061785 -0.041430917 0.034485962 -0.09054545 0.08218565
-0.38757506 0.14839584 -0.50672704 -0.36566457 -0.25421122 0.04143598 -0.03459511 -0.0580513
-0.05602157 -0.50509655 0.15730464 -0.29293337 -0.17294832 -0.207965 -0.06426403 -0.1262553
0.00242129 0.14607453 -0.23070072 0.1588268 -0.20588247 -0.05045251 -0.1328522 0.43943408
-0.101725444 0.10031732 -0.27768278 0.01225192 0.01544547 0.10803184 0.064785585 0.3350847
0.020836454 -0.56882 -0.2517279 0.3320146 -0.24179038 -0.52208525 -0.20937066 -0.07867394
0.3063915 -0.069348864 -0.45182642 -0.12348584 -0.25291148 -0.116397254 -0.26273942 -0.3260077
-0.10682837 0.014324557 -0.0013098676 0.24420461 0.11113607 -0.028836142 -0.22799063 -0.40996403
-0.2010387 -0.034929194 -0.16595833 -0.13954984 0.1788613 -0.24073018 -0.055770963 0.17114793
-0.13039921 -0.4277219 -0.24413472 -0.09606981 -0.33884317 0.35581368 -0.27067044 -0.05809361
-0.28088838 0.21584201 0.18669651 -0.15865359 0.14144914 0.001961895 -0.09400096 -0.069686316
-0.34672508 0.076881014 -0.14226288 0.24507287 0.13646425 0.092410095 -0.2359779 -0.17823012
-0.17607999 -0.0996635 -0.10486126 -0.28746587 0.06348846 -0.18226646 -0.24663213 -0.17505166
0.05197983 -0.015341923 -0.0941234 0.18747261 -0.27994254 -0.45513266 -0.051250532 0.17512006
0.05847559 0.18418351 -0.29511294 -0.031208016 -0.23461545 -0.09686182 0.030288333 -0.10115113
-0.15671387 0.22301374 0.11507982 -0.104118004 -0.09997857 0.2755279 -0.51331997 0.12788457
0.17834353 0.078751974 0.09085241 -0.12863651 -0.21740332 -0.048219062 -0.16410685 -0.13026093
-0.073208176 -0.5044335 -0.18728055 -0.0042217034 0.122618325 -0.14613281 -0.28233808 0.2528921
-0.12622063 -0.0073640184 -0.014974417 -0.23668602 0.3257428 -0.3287944 0.25424206 0.12068299
-0.17079431 -0.13779144 -0.20810726 -0.09277672 -0.11859009 0.031769734 -0.25397512 -0.52550447
0.14043896 -0.20445478 0.0030641032 -0.34317067 -0.20887126 -0.15615028 -0.040860794 0.019481277
-0.32163796 -0.10181989 0.07111253 -0.25822815 -0.40244377 0.24003878 -0.4192087 -0.28906646
-0.13401085 0.14786749 -0.06818435 0.21054403 -0.32604223 -0.09885281 -0.10211944 -0.44660765
-0.32499418 -0.28949025 -0.07963492 0.101819046 -0.0394375 -0.4207299 0.084487356 0.13661703

linear2.bias f4 [80]
00000000: d59b 41bd 95f6 10bc 07af 2ebe 9ea2 463d
00000010: b67d 99bd 621e febd 8f32 b2bc 09db afbd
00000020: bbd5 02be 5721 cf3d 4124 32bd 9695 ca3d
00000030: 212a 6bbe bd8b bebc 5557 cb3b 0160 47be
00000040: 11f2 88bd 02cd 1fbd 640c 21be 9e33 e1bd
00000050: 2e24 bebd 401e ed3d 9ee9 3cbe fcc9 603d
00000060: 8df4 0bbe 9361 b43c 8f60 73bd 5666 503e
00000070: 485f 25be 2ebb 4d3c 95f2 be3d 4c72 e7bd
00000080: ea6c 6ebd 519d 8e3d f3a5 50bc 2c0f dfbd
00000090: 54a9 9bbd 846e e5bc be3a 39be e0bd 81bd
000000a0: 7b95 cbbd ac4d 97bd 2aad fd3c 559d e83d
000000b0: 6cde 70bd 2475 86be 5834 52bd 0fbb 5dbd
000000c0: 2f96 22bd 982d 35bd 8668 1abe bd64 bebb
000000d0: 2ff6 a13c f48f 39bd d8a5 b2bd 72d2 223c
000000e0: f452 123e 4e25 0ebe 38d2 853c 51ef fc3d
000000f0: 4eba 6dbc b0bb 21bd 0e3d d1bc fafe a93c
00000100: 8cf0 fabd 4f21 43bd 3f04 6fbd 1f41 fcbb
00000110: 2e5b 10bd b5b4 0dbd 4806 0abe f6a5 21be
00000120: c973 44be 3b4f 07bd aea9 8abb f31c f13c
00000130: a579 11be 2e51 c1bd 216b 23be bc20 2bbe
-0.047267754 -0.008847852 -0.17058955 0.048494928 -0.074946806 -0.12408139 -0.021752624 -0.085866995
-0.12776844 0.10113781 -0.043491606 0.098918125 -0.2296529 -0.023259992 0.006205479 -0.19470216
-0.066867955 -0.03901387 -0.15727383 -0.10996173 -0.092842445 0.11578035 -0.18448493 0.054880127
-0.13667507 0.022019183 -0.059418257 0.20351538 -0.16149628 0.012556834 0.093236126 -0.11301097
-0.058209337 0.069635995 -0.012734878 -0.10891566 -0.07600656 -0.0280068 -0.18088815 -0.06335044
-0.099406205 -0.073878616 0.03096636 0.11358134 -0.058805868 -0.26261246 -0.05131945 -0.05413347
-0.039694007 -0.044232935 -0.15078935 -0.005810349 0.01977071 -0.0453033 -0.087230384 0.009937869
0.14289457 -0.13881418 0.016335592 0.123503335 -0.0145097505 -0.039485633 -0.025541808 0.020751465
-0.12252912 -0.047639187 -0.05835366 -0.0076981927 -0.035243206 -0.034596164 -0.13478959 -0.15785965
-0.19184794 -0.033034544 -0.004231653 0.02943275 -0.1420656 -0.09439312 -0.15958835 -0.16711706

noisy1.mu_w f4 [80, 4]
00000000: 135c 2cbf 68fb b0bd 795b f43d 02bc 6e3d
00000010: 5424 36bd 07eb 0cbf 5b5b b93d ff7b 493e
00000020: 0539 9cbe ac10 243e 4ae8 81be 7373 f0be
00000030: 0745 3fbf 4f86 d1be a850 933e 532b 973d
00000040: 66d0 e63b ab02 a1bd 5964 5e3e ebd0 e53e
00000050: ea68 08be 47f0 833d b178 4f3d ef35 d83d
00000060: ac3d 27bd 8f52 da3d ec91 053d 61c0 dd3e
00000070: 7bf1 8c3e 654c 0d3f 841b 5c3d b344 213f
00000080: 5405 2dbe e5e5 ee3e b940 8abe 197e babe
00000090: 4361 943e f8ce fe3d fc8c 123e a27a 8f3e
000000a0: 7bce 40bd a2d3 143d 6ff2 92bd 40cf 8c3e
000000b0: 638f 34bf f72d b3be 78e7 05be a8ea 13bf
000000c0: c87c 31bd e8c2 823e c34f e13d 4c5f f33e
000000d0: c349 283e 1a30 d73e 77c6 1e3d a1d0 db3e
000000e0: bc5a 55bf 8f6c 853e d0d9 363e bec6 013e
000000f0: e72b bb3e 3189 a33e e5dc e8bd ad4a cfbe
00000100: 89a8 24be a34a 63be b400 b3bd aa5c 9c3e
00000110: 3030 133e 6465 91be 5cbd 5d3e 4bc3 23be
00000120: 1e36 1dbe 6a34 09be 281b 79be 9246 8abd
00000130: ceb9 ca3a d3fa 79be c3c3 5e3d ffd1 fabe
00000140: abd4 cfbd af7f 29be 6430 463e b413 4abe
00000150: b770 073e 7319 83bd 1d6c 303e 7a5b 0bbe
00000160: 8a90 10be 160c 093d 70cd 943e a36e ddbe
00000170: a724 1dbf f728 f7be e516 0b3e 15f3 1d3e
00000180: ce15 2b3d 05a3 763d 96a5 a2bd c61d 56bc
00000190: 3ea2 a6be 9f07 b0bd f087 0f3e 7450 b5be
000001a0: ebce cebc 7401 1a3d 1fe0 293e c38c a3be
000001b0: c46a 08bf 330e 03bf e3b5 f23d 0314 cdbe
000001c0: 8abc 92bd 2bb6 2a3d 5b38 c6bd e766 d33e
000001d0: f4c4 bd3d 359e 0cbf a241 31be 3d26 3a3e
000001e0: 97eb a03e 7c31 be3e 5210 18be 37d2 db3e
000001f0: 85c0 a83d 2c80 e93d ea7a a63e 1f4c 7f3e
00000200: a7fb 06bf c7fb bd3d ed43 24bc cf58 ba3e
00000210: 3a35 433e 8b5c f23c 0a6f 133d 6201 923e
00000220: 23d1 0a3d d336 d0bd 01bb 4fbd 763a fa3e
00000230: 172b 8c3e 116b 8fbe 56b7 773d f564 053f
00000240: dfa6 c4be 5cd5 5a3e 364e 39bc 95a2 8e3e
00000250: 19a2 0fbe 2469 acbe b1af 39bc 98b5 d2be
00000260: 7c2e 0f3e 4e78 1f3d 84b5 543d 8128 35bf
00000270: d3ac dcbd a123 38bd 7c33 c9bc fec6 fd3e
00000280: da2e 1dbf ca2f c2be 70d8 e33d 0bca ccbb
00000290: 3f83 d03e 8ccd 603e c456 073d 1ec3 18bd
000002a0: 19a9 963d a333 503e f1b7 8bbd 01ba 1dbe
000002b0: 4676 4a3e 7d59 363d 648a bdbd d563 5e3d
000002c0: 0a50 8e3d d8a0 ad3c b886 1dbe fb6a 14bf
000002d0: f09d a6bd 6cf4 db3e 31b6 a8bd f920 ac3c
000002e0: c66b 0f3c 6266 3b3e bcc2 c13b 22a7 813e
000002f0: ddd3 6b3e d9dc 5e3e 99ef 05be 67b9 b13e
00000300: fc03 0a3d 455e 6a3e 28b1 1b3e e46a 533f
00000310: 5936 02bd 8fb2 a33d 9de8 c2bb 786c a8be
00000320: 7580 5c3e 4bae 663e e1dd 8e3d 6220 013f
00000330: f6e0 9c3e cead a33e 3657 dbbc 4c89 373e
00000340: 58c4 713e e0fc 843e 4b01 8f3e 267b b73e
00000350: cb97 a53d 9cfe c13d 6c45 113e 163c eebe
00000360: 1763 8d3d 5982 c6bb 1586 033e 9a83 d0be
00000370: 20bc 633e 7191 f23c 4f26 b6be d71b a8bd
00000380: a406 843e ad82 8f3e 2b77 bc3e fe41 273e
00000390: 1059 2dbe a78c 2dbd a769 02be c0dd 9abe
000003a0: c8ba c7be f886 64bd 124d 0bbe d3e0 b43e
000003b0: 6208 70be 04aa 00be 9b21 023d 02a0 f8bd
000003c0: f030 5dbf a696 1b3e 9ad1 993c c06d 213e
000003d0: 3e79 bdbe 2880 fdbd 696a adbc f2ec 1cbf
000003e0: a713 8e3d 7846 98be 2866 8abe 2e61 56bf
000003f0: 827b 31bf a058 223e 177b 25be b6d7 e6be
-0.67327994 -0.08641702 0.119315095 0.058284767 -0.04446824 -0.55046123 0.09050628 0.19676207
-0.30512252 0.16021985 -0.25372535 -0.4696308 -0.747147 -0.40922782 0.28772473 0.0738131
0.007043886 -0.07861837 0.21717967 0.44885954 -0.13321272 0.06442314 0.05065221 0.10557162
-0.0408303 0.10660278 0.032609865 0.43310836 0.27527985 0.55194694 0.05373718 0.6299545
-0.16896564 0.4665977 -0.27002504 -0.3642433 0.28980455 0.1244182 0.14311594 0.2802325
-0.047071915 0.03633464 -0.07175147 0.2750187 -0.7053129 -0.34996006 -0.1307658 -0.5777993
-0.04333189 0.25539327 0.110015415 0.47533643 0.16434388 0.42028886 0.03876349 0.4293261
-0.83341575 0.26059386 0.17856526 0.1267347 0.36556932 0.31940606 -0.11370257 -0.4048666
-0.16079916 -0.2219644 -0.087403685 0.30539447 0.14373851 -0.28397667 0.21654266 -0.15992467
-0.15352675 -0.133989 -0.24326766 -0.067517415 0.0015466751 -0.24412088 0.05438591 -0.4898834
-0.10147985 -0.16552614 0.19354397 -0.19734079 0.13226591 -0.064013384 0.17228742 -0.13609114
-0.14117637 0.03345879 0.29062986 -0.43248472 -0.6138405 -0.4827344 0.13582952 0.1542476
0.04176884 0.06021406 -0.07941739 -0.013068622 -0.32545656 -0.085952036 0.140167 -0.35412943
-0.02524515 0.037599042 0.16589402 -0.3194333 -0.5328791 -0.5119354 0.118510984 -0.4005433
-0.07164867 0.041677635 -0.09678718 0.41289446 0.092660815 -0.54928905 -0.17310193 0.18178649
0.3142974 0.3714713 -0.14849976 0.4293382 0.08239845 0.114014 0.3251565 0.24931382
-0.5272774 0.09276538 -0.01002596 0.3639588 0.19063273 0.029585144 0.035994567 0.2851668
0.033890855 -0.10166707 -0.05071545 0.48872727 0.27376625 -0.28011373 0.060477577 0.52107173
-0.38408563 0.21370453 -0.011310151 0.27858415 -0.14026679 -0.33673966 -0.011333392 -0.4115417
0.13982576 0.03893309 0.05193092 -0.7076493 -0.10775151 -0.044955853 -0.024560682 0.49565881
-0.61399615 -0.37927085 0.111252666 -0.0062496713 0.40725133 0.2195341 0.03304173 -0.037295453
0.073564716 0.20332198 -0.068221934 -0.15402986 0.1977168 0.044518936 -0.092549115 0.054294426
0.0694886 0.02119486 -0.15383422 -0.5797574 -0.08135593 0.42959917 -0.08237875 0.021011816
0.0087537225 0.18300775 0.0059131067 0.25322825 0.23030038 0.21763934 -0.1307968 0.34711763
0.033695206 0.22887523 0.15204298 0.8258498 -0.03179011 0.07993042 -0.00594814 -0.32895255
0.21533377 0.22527425 0.06975914 0.5044004 0.30640382 0.3196854 -0.026774984 0.17923468
0.23610055 0.25974178 0.27930674 0.35836142 0.08085593 0.09472391 0.14186639 -0.46530217
0.069036655 -0.006058019 0.12844117 -0.40725404 0.22239733 0.029610367 -0.35576102 -0.08208435
0.25786316 0.28029385 0.36809668 0.16333768 -0.16928506 -0.042370465 -0.12735616 -0.30247307
-0.3900969 -0.05579278 -0.13603619 0.35327777 -0.23440698 -0.12564856 0.03177033 -0.12139894
-0.864028 0.15194187 0.018776704 0.15764523 -0.37006563 -0.123779595 -0.021168904 -0.6129905
0.06937342 -0.29741263 -0.27031064 -0.83742034 -0.6932908 0.1585412 -0.16160236 -0.4508645

noisy1.mu_b f4 [4]
00000000: af29 143f df0a 103f 92f0 893c ffe1 1f3f
0.57876104 0.5626659 0.016838346 0.6245422
