Noisy DQN/noisy_checkpoint_2.pth (torch_old, 40390 bytes, 6 tensors)

linear1.weight f4 [80, 37]
0	0xbe94f841	-0.29095653
1	0x3ec685a7	0.38773844
2	0xbef6a5c5	-0.48173347
3	0xbe546bf9	-0.20744313
4	0xbf0f2c73	-0.559272
5	0x3da2c17c	0.079470605
6	0xbe0f5b22	-0.13999608
7	0x3e8bd0c1	0.27307704
8	0x3e0a3829	0.13497986
9	0x3e02c1ef	0.12769292
10	0xbc89a10f	-0.016800432
11	0xbe8d5a0e	-0.2760777
12	0xbcfd392f	-0.030911056
13	0x3c511d7b	0.012763376
14	0x3e39b3de	0.1813502
15	0x3cab755a	0.020929981
16	0x3e76267c	0.24038118
17	0xbc86224a	-0.016373772
18	0xbde1d060	-0.110260725
19	0xbf075d75	-0.5287698
20	0xbbf188a7	-0.0073710266
21	0x3b4e8bdc	0.0031516468
22	0x3de9c53f	0.11414575
23	0x3e7559aa	0.23959985
24	0x3e8bde05	0.27317825
25	0xbf03b429	-0.5144678
26	0x3e416db2	0.18889502
27	0x3dc79645	0.097454585
28	0x3d0366cc	0.032080457
29	0xbedaafe6	-0.42712325
30	0xbdce87c5	-0.1008449
31	0xbdb258c6	-0.087083384
32	0xbbf76b8f	-0.007550664
33	0x3de56241	0.11200381
34	0x3e3a68b8	0.1820401
35	0xbd0d0cdd	-0.034436096
36	0xbd16e6e1	-0.036841277
37	0xbc9ce29e	-0.019151028
38	0xbed3f65e	-0.413989
39	0x3e91bec7	0.28465864
40	0x3d5096cc	0.05092506
41	0xbea1ba1e	-0.3158731
42	0xbdaddac0	-0.08488989
43	0xbeb016a9	-0.34392288
44	0xbe598316	-0.21241412
45	0x3e3261bb	0.17420094
46	0x38e8ee59	0.00011107018
47	0x3eb80284	0.3593942
48	0xbeb554d3	-0.35416278
49	0xbe901f87	-0.28149053
50	0xbdc76ec6	-0.09737925
51	0xbe4a6b45	-0.19767483
52	0x3e1a9632	0.15096357
53	0x3d590a2a	0.05298821
54	0xbdda033e	-0.1064515
55	0xbcebd8a5	-0.028789828
56	0xbea6efa7	-0.32604715
57	0xbe8d858c	-0.2764095
58	0xbf188c92	-0.59589493
59	0xbd983102	-0.074312225
60	0x3e7dd833	0.24789505
61	0xbec96010	-0.39331102
62	0xbdb3bafc	-0.08775899
63	0xbe8919ca	-0.26777488
64	0x3dd90186	0.10595994
65	0xbe10c3b1	-0.1413715
66	0x3d46c33e	0.04852604
67	0x3e1ed26f	0.15509962
68	0xbe924da7	-0.2857487
69	0x3dc90c86	0.09816842
70	0xbeafcbc2	-0.34335142
71	0xbf3397fd	-0.7015379
72	0x3e99a968	0.3001206
73	0x3cdc90b2	0.026924465
74	0x3e19d72b	0.15023486
75	0x3dd9dce4	0.10637835
76	0x3d2c1a2d	0.04201715
77	0xbe0dd569	-0.13850941
78	0x3e30e93d	0.17276473
79	0xbe3f1414	-0.18660003
80	0xbe46526a	-0.19367376
81	0x3eb17ca9	0.3466542
82	0xbe2e9405	-0.17048652
83	0xbd6cbcf3	-0.057797384
84	0x3e1c7c19	0.15281714
85	0xbe55bd9d	-0.20873113
86	0xbd948541	-0.07251979
87	0xbe31e4e2	-0.17372468
88	0xbe416f56	-0.18890128
89	0xbce4d32b	-0.027932724
90	0xbe614069	-0.21997227
91	0x3e5a6c23	0.21330313
92	0xbd98699d	-0.07442019
93	0x39214577	0.00015380034
94	0xbebafa56	-0.36519116
95	0xbe473a60	-0.19455862
96	0x3e41e01a	0.18933144
97	0x3e1710b4	0.14752465
98	0xbdd3f80f	-0.10350048
99	0xbd370f95	-0.044692595
100	0xbbd7d0ba	-0.0065861614
101	0x3e299d46	0.16563901
102	0xbe9be40d	-0.30447426
103	0xbe016566	-0.12636337
104	0xbe944cc5	-0.2896482
105	0xbb4a628d	-0.0030881495
106	0xbe0b519f	-0.13605355
107	0xbe8d352b	-0.27579626
108	0x3e93d065	0.2886993
109	0x3e186619	0.14882697
110	0xbd5a7964	-0.053338423
111	0x3ea8270d	0.32842293
112	0xbeca1572	-0.39469486
113	0x3e1b9aac	0.15195721
114	0xbe6f3524	-0.23360115
115	0xbf43ecdd	-0.765333
116	0x3e174b1b	0.14774744
117	0xbe04a1eb	-0.12952392
118	0x3dc9511c	0.098299235
119	0xbd6875e4	-0.056753054
120	0xbd30b1a7	-0.043138172
121	0x3d565b76	0.052333318
122	0xbdaa9e42	-0.083309665
123	0x3d4ba61b	0.049718957
124	0xbeab53c8	-0.33462358
125	0x3d3e03b3	0.046390247
126	0x3d91be24	0.071163446
127	0xbe03f011	-0.12884547
128	0x3cc3bd44	0.02389396
129	0xbf38f818	-0.7225356
130	0xbf2dd63d	-0.67905027
131	0x3dfe2a84	0.12410453
132	0xbdf76617	-0.12080019
133	0xbdc5498c	-0.096331686
134	0xbd45d60d	-0.048299838
135	0xbe17edc6	-0.14836797
136	0xbde19dd2	-0.1101643
137	0x3e2feb57	0.17179619
138	0x3d3b72d6	0.045763813
139	0x3e3d4457	0.18483101
140	0x3bae14e9	0.0053125513
141	0x3ea8a5c3	0.32938966
142	0x3cdc9739	0.026927577
143	0xbe9f47c0	-0.31109428
144	0xbe534e37	-0.20635305
145	0xbe62c09a	-0.22143784
146	0x3e6be316	0.23035845
147	0xbd47c6de	-0.04877364
148	0xbccff996	-0.025387567
149	0xbdbc420a	-0.091922835
150	0xbdc3e9dc	-0.095660895
151	0xbd34729f	-0.044054624
152	0x3d30a3d2	0.04312498
153	0x3ec3d8e2	0.38251406
154	0xbf539f50	-0.82664967
155	0xbf090029	-0.5351587
156	0xbf1b9a4e	-0.60782325
157	0xbffba643	-1.9660114
158	0x3da17bb6	0.07884924
159	0x3d1b8f05	0.03797819
160	0x3cab67bd	0.02092349
161	0xbd503e13	-0.05084045
162	0xbd85355f	-0.0650432
163	0xbcbc9f01	-0.023025038
164	0x3d1e8bf2	0.03870768
165	0x3dc206ba	0.09473939
166	0x3d392083	0.04519702
167	0x3dd43e03	0.1036339
168	0xbc7941e3	-0.0152134625
169	0x3cd72e26	0.026267122
170	0x3e058f18	0.13042867
171	0x3cf34047	0.029693736
172	0x3e46bd8d	0.19408245
173	0x3de9a05d	0.1140754
174	0x3cb2d035	0.021827796
175	0x3e682db3	0.22673683
176	0x3dd9883c	0.10621688
177	0xbd1d0f30	-0.038344562
178	0x3e2c36c8	0.16817772
179	0x3ddbed0e	0.10738574
180	0x3d5d0ad5	0.05396541
181	0x3d86cf46	0.06582503
182	0x3e22367b	0.15841095
183	0xbd117c83	-0.035519134
184	0x3bb44477	0.0055013257
185	0xbca06028	-0.0195771
186	0xbd991d58	-0.074763
187	0xbd8a9c48	-0.067680895
188	0xbdab493d	-0.083635785
189	0x3dc17565	0.09446219
190	0x3e97a63d	0.29619017
191	0xbeff6d92	-0.49888283
192	0xbeaf53ed	-0.34243718
193	0xbeaa2d0d	-0.33237496
194	0xbfc7b348	-1.5601587
195	0xbd9226b0	-0.07136285
196	0xbe20193e	-0.15634629
197	0x3d5da4bb	0.054112177
198	0xbdecaf78	-0.115569055
199	0xbdd039f2	-0.10167302
200	0xbd9c7ccb	-0.0764099
201	0x3b26c0ad	0.0025444434
202	0xbc1c4792	-0.009538548
203	0x3cbe7ac8	0.023251906
204	0xbd0442bd	-0.03229021
205	0x3d9ba5d0	0.075999856
206	0x3e30b113	0.17255048
207	0x3c6db07d	0.01450741
208	0xbe7417d5	-0.23837216
209	0xbe271355	-0.16315968
210	0xbd916084	-0.07098487
211	0x3d525218	0.051347822
212	0x3d3c9288	0.04603818
213	0xbdd06cb0	-0.101769805
214	0x3eb62e3a	0.35582143
215	0x3d63ef0a	0.055647887
216	0xbda5b0fa	-0.08090396
217	0xbe28cc68	-0.16484225
218	0xbd244e72	-0.040113874
219	0xbe54e1d6	-0.20789275
220	0xbe20ced5	-0.157039
221	0x3d61ec35	0.055156905
222	0x3eddc06b	0.43310866
223	0xbeaef480	-0.34170914
224	0xbeddc5ac	-0.43314874
225	0xbe9d4765	-0.30718532
226	0xbffd7ce4	-1.9803739
227	0xbde3d419	-0.11124439
228	0xbdacfe21	-0.08446909
229	0xbd25c41d	-0.04047023
230	0x3da88ace	0.082296
231	0x3e032b73	0.12809543
232	0x3d1d6873	0.03842969
233	0x3dd651b1	0.104648
234	0x3d411ff5	0.047149617
235	0x3e225e7e	0.15856358
236	0x3e1720dc	0.14758629
237	0xbd76d357	-0.060260143
238	0xbdd2bbc1	-0.102897175
239	0x3dae84cd	0.085214235
240	0x3e2cdc9a	0.16881028
241	0x3e2969a9	0.16544212
242	0xbd8976bf	-0.06712102
243	0xbd00a539	-0.03140757
244	0x3d6eb4a0	0.058277726
245	0x3d9f7983	0.077868484
246	0x3c674d3f	0.014117538
247	0xbe3cdeda	-0.18444386
248	0x3bbe60f7	0.005809899
249	0xbd65f973	-0.056146096
250	0xbbf15b52	-0.0073656226
251	0x3cf7c66a	0.030245978
252	0x3bf2bb73	0.0074075996
253	0xbce548bb	-0.027988782
254	0xbe0046e4	-0.12527043
255	0x3d401f58	0.04690489

linear1.bias f4 [80]
0	0x3d479783	0.048728477
1	0xbdcdec40	-0.10054827
2	0xbd50629b	-0.050875288
3	0xbdf696fb	-0.12040516
4	0x3e6eb8b3	0.23312645
5	0x3db73da2	0.089473024
6	0x3e25d384	0.16193968
7	0xbce39d15	-0.027784863
8	0x3d07ee62	0.033186324
9	0x3cc2fe9f	0.023803053
10	0xbd30f109	-0.04319862
11	0x3e37f0cc	0.1796295
12	0xbe12abf6	-0.1432341
13	0xbd0a7de9	-0.033811484
14	0xbdbd16a9	-0.09232838
15	0xbe415814	-0.18881255
16	0xbd503c17	-0.050838556
17	0x3c1efecc	0.009704303
18	0xbd62187a	-0.055199124
19	0x3d0b5b2c	0.034022495
20	0x3c556763	0.013025138
21	0x3d757613	0.059927057
22	0xbd7aa3af	-0.061191257
23	0xbe52ffae	-0.20605347
24	0xbda558cc	-0.08073577
25	0x3d900583	0.07032301
26	0xba5e2b01	-0.0008475036
27	0xbe1ed93b	-0.15512554
28	0x3d2572b7	0.040392604
29	0x3d0aff10	0.033934653
30	0x3e314f64	0.17315441
31	0xbe05adc0	-0.13054562
32	0xbca4be30	-0.02011022
33	0xbe1a0950	-0.15042615
34	0xbc68eafb	-0.01421618
35	0xbe60eb0a	-0.2196466
36	0x3c24e9a1	0.010065467
37	0x3c05c840	0.008165419
38	0xbdc8bdc9	-0.09801824
39	0xbe18e588	-0.14931309
40	0xbdce2d13	-0.10067191
41	0x3dd13cbc	0.10216662
42	0xbe270681	-0.16311075
43	0x3d80bc11	0.06285871
44	0xbbf8aa70	-0.007588677
45	0xbe89402d	-0.26806775
46	0xbdcef9d5	-0.101062454
47	0x3db2ee33	0.08736839
48	0xbc054daf	-0.008136197
49	0xbdd3c673	-0.103405856
50	0xbd3e16b4	-0.04640837
51	0x3c71b75f	0.014753192
52	0xbe1722ef	-0.1475942
53	0x3de40572	0.11133851
54	0xbe3fe5c5	-0.18739994
55	0x3dd2c3e6	0.10291271
56	0x3dfdc96d	0.123919345
57	0xbd60ec1d	-0.054912675
58	0x3df125bc	0.117747754
59	0x3df05fe9	0.117370434
60	0x3cd94b41	0.026525142
61	0x3d5171d6	0.051133953
62	0x3d8785a2	0.06617285
63	0xbd8da163	-0.06915548
64	0x3d1f1627	0.038839485
65	0x3d3dfa0a	0.046381034
66	0x3e41f301	0.18940355
67	0xbe46e2b7	-0.19422422
68	0xbda6e37d	-0.08148859
69	0xbda8a251	-0.082340844
70	0x3d36578f	0.044517096
71	0x3d0dddb9	0.03463528
72	0xbc4bccfe	-0.012439011
73	0xbde78152	-0.11303963
74	0xbdcb991b	-0.09941312
75	0x3d147d9f	0.036252614
76	0xbe077a52	-0.13230255
77	0xbe20f25b	-0.15717451
78	0xbd2c417d	-0.042054642
79	0xbe3dac1d	-0.18522687

linear2.weight f4 [80, 80]
0	0xbe46dd9d	-0.19420476
1	0xbe4329c8	-0.19058907
2	0x3dfc56e8	0.123212636
3	0xbccf00c8	-0.025268927
4	0xbe6d1b48	-0.23154938
5	0xbb78ec69	-0.0037982708
6	0x3e2c0402	0.16798404
7	0x3d3206c9	0.043463502
8	0xbcbfb525	-0.023401806
9	0xbe98ba18	-0.29829478
10	0xbd73e0c3	-0.05954052
11	0xbd11b8dc	-0.035576686
12	0xbd3b17d9	-0.04567704
13	0x3d8494e6	0.064737126
14	0xbdeddbba	-0.11614175
15	0x3d7e1b86	0.062037967
16	0x3e8ca19e	0.27467054
17	0xbebe0a74	-0.3711735
18	0xbd542fd3	-0.05180342
19	0x3d982dc0	0.07430601
20	0xbe0322b3	-0.12806205
21	0xbd7a00c0	-0.06103587
22	0xbed07a49	-0.40718296
23	0xbc42151e	-0.011845855
24	0xbf0c98e1	-0.54920775
25	0xbe780214	-0.24219543
26	0xbda23e75	-0.07922069
27	0xbea95a29	-0.330766
28	0x3dddee81	0.10836507
29	0x3d86a5e6	0.06574611
30	0x3e465748	0.19369233
31	0xbe052917	-0.13003956
32	0x3e2a6ab0	0.1664226
33	0xbeb4b72a	-0.35295993
34	0xbe0ecbca	-0.13944927
35	0xbd155791	-0.036460463
36	0xbd8655a8	-0.065593064
37	0xbe4c0a24	-0.19925743
38	0xbe5c48cd	-0.21512146
39	0x3daa3569	0.083109684
40	0xbd8e34b3	-0.06943645
41	0xbd53bead	-0.051695514
42	0xbc557143	-0.013027492
43	0xbef0380a	-0.46917754
44	0xbe19444b	-0.14967458
45	0x3e2740f8	0.16333377
46	0xbe358d59	-0.17729701
47	0xbe03fc0f	-0.12889121
48	0xbeba497a	-0.36384183
49	0x3e50547a	0.20344725
50	0x3d405f03	0.04696561
51	0xbce4ee1f	-0.027945576
52	0xbd91239c	-0.0708687
53	0x3d914193	0.070925854
54	0xbf0d30c2	-0.55152524
55	0xbd245630	-0.040121257
56	0xbe24d2b8	-0.16096008
57	0xbdc21eb7	-0.09478515
58	0x3e1584a6	0.14601383
59	0x3e795bcc	0.24351424
60	0xbe187517	-0.14888416
61	0x3db0c0e4	0.08630541
62	0x3ce7e525	0.028307507
63	0x3d8f29f7	0.06990426
64	0x3de55e0f	0.11199581
65	0xbdc3f3c6	-0.095679805
66	0xbe5e2b38	-0.21696174
67	0xbcfb865a	-0.030703712
68	0x3d9e4276	0.0772752
69	0xbdb26713	-0.08711066
70	0xbe7da512	-0.2477
71	0xbed72c4c	-0.42025983
72	0x3d8cb7d1	0.06870998
73	0xbe37a363	-0.17933421
74	0x3e0960f2	0.13415888
75	0xbd3a39b6	-0.045465194
76	0x3d3bd033	0.04585285
77	0xbe0a4be0	-0.13505507
78	0x3e1f8c0e	0.1558077
79	0xbd01b74a	-0.03166894
80	0xbc949c67	-0.018140985
81	0x3e83a943	0.25715074
82	0xbe05f266	-0.13080749
83	0xbcb91ec3	-0.022597676
84	0x3eb32d8c	0.34995687
85	0xbe949198	-0.2901733
86	0xbe31cc49	-0.17363085
87	0xbe135d75	-0.1439112
88	0x3ebcb48a	0.3685649
89	0x3e0b875e	0.13625857
90	0xbe2cc9ff	-0.1687393
91	0x3e04d3cb	0.12971418
92	0xbe55f378	-0.20893657
93	0xbe6a0f84	-0.22857481
94	0xbde7fe63	-0.11327817
95	0xbe19de58	-0.15026224
96	0x3ca9c210	0.020722419
97	0xbd32b701	-0.043631557
98	0xbdfe3a30	-0.12413442
99	0xbd667603	-0.05626489
100	0xbf2ee70a	-0.6832129
101	0xbe23bbfc	-0.15989679
102	0xbda04b5a	-0.07826872
103	0x3e13fee3	0.144527
104	0xbe242283	-0.1602879
105	0xbe3c033e	-0.18360612
106	0xbcb3844c	-0.02191367
107	0x3dd9318d	0.10605154
108	0xbe10bb1c	-0.14133877
109	0xbf607aec	-0.87687564
110	0x3dbde45e	0.09272073
111	0xbdc9b9cf	-0.09849893
112	0xbede7a08	-0.43452477
113	0xbea71bd6	-0.32638425
114	0xbd535b43	-0.051600706
115	0x3d4abc21	0.04949582
116	0x3e175d64	0.1478172
117	0x3eafdad3	0.34346637
118	0xbe6a6250	-0.22889066
119	0x3dfaf5ef	0.12253939
120	0x3de693d1	0.112586625
121	0xbdecae29	-0.11556656
122	0xbed4afd1	-0.41540387
123	0x3d417714	0.047232702
124	0x3e318c75	0.17338736
125	0xbc3acbb9	-0.01140111
126	0xbe880564	-0.26566613
127	0xbe9a2b17	-0.30111
128	0xbe9dd4d7	-0.30826446
129	0x3e74bd1d	0.23900266
130	0xbd2e6cf1	-0.042584363
131	0xbeea9bb7	-0.45821926
132	0xbce7770a	-0.028255004
133	0xbf2c4aec	-0.6730182
134	0x3e660e6b	0.22466438
135	0xbd34fdb9	-0.04418728
136	0xbb64761f	-0.0034860445
137	0xbe534a10	-0.20633721
138	0x3e5875f6	0.21138749
139	0xbe93bd7e	-0.2885551
140	0xbcbb952e	-0.022898283
141	0x3ea3169c	0.31853187
142	0xbe9a3470	-0.30118132
143	0xbe6e85b3	-0.2329319
144	0xbe8b0b9f	-0.27157304
145	0x3cc28d35	0.023748973
146	0x3e008e30	0.1255424
147	0xbe42ec92	-0.19035557
148	0x3de6af33	0.11263885
149	0xbd9046b3	-0.07044735
150	0x3c3978db	0.011320318
151	0x3dc52f68	0.09628183
152	0xbe942c5e	-0.289401
153	0xbe3f4d02	-0.1868172
154	0x3db94926	0.09047155
155	0xbd91669c	-0.07099649
156	0xbe06dc24	-0.13169914
157	0x3ca6ceb1	0.02036223
158	0xbe18b938	-0.14914405
159	0xbeb54dad	-0.35410824
160	0x3d2c297e	0.042031758
161	0xbd9f8497	-0.077889614
162	0xbe96959e	-0.29411024
163	0x3c868443	0.01642049
164	0xbe1635f3	-0.14669017
165	0xbd5794c1	-0.052632097
166	0x3e09ca06	0.13455972
167	0xbe625a09	-0.22104658
168	0x3e8a97a2	0.27068812
169	0x3d917705	0.07102779
170	0x3dbf7e0e	0.09350215
171	0x3cdb1372	0.02674267
172	0xbea11a59	-0.31465414
173	0xbbda84a2	-0.006668643
174	0xbd8ae4ba	-0.067819074
175	0xbcd9255a	-0.026507068
176	0xbe0a816d	-0.13525935
177	0xbe297fcc	-0.16552657
178	0xbe3e3368	-0.18574297
179	0xbd962df3	-0.07332983
180	0xbdbc1a81	-0.09184743
181	0x3e51b13c	0.20477766
182	0x3c95a7d0	0.018268496
183	0xbef4c1a6	-0.47803992
184	0xbcf885a1	-0.030337157
185	0x3e29a8f4	0.16568357
186	0xbe6c51a8	-0.23078024
187	0x3e9114ea	0.2833627
188	0x3e0e5229	0.13898529
189	0x3db27302	0.08713342
190	0xbd014c42	-0.031566866
191	0xbec95578	-0.3932302
192	0x3bb631f8	0.005560156
193	0x3cb6d165	0.022316644
194	0xbe1dd90f	-0.15414833
195	0xbe971977	-0.29511616
196	0xbe7b87cf	-0.24563526
197	0x3e563a9a	0.20920792
198	0xbea73b3f	-0.3266239
199	0xbc04d76d	-0.008108002
200	0x3e9dcf9c	0.30822456
201	0xbd120ff0	-0.03565973
202	0xbea2e042	-0.3181172
203	0xbda5f9e7	-0.08104306
204	0xbcbdc1f6	-0.023163777
205	0xbe58bdd0	-0.21166158
206	0xbe959db8	-0.29221892
207	0x3df83a0c	0.121204466
208	0x3d4affa5	0.049560208
209	0x3dbee309	0.09320647
210	0xbcb2beab	-0.021819433
211	0x3d9e68ff	0.0773487
212	0xbe8d93d4	-0.27651846
213	0xbe7fff08	-0.2499963
214	0xbe6114d2	-0.21980599
215	0x3dc1be77	0.094601564
216	0xbe632c89	-0.22184958
217	0xbf2d5b04	-0.67717004
218	0x3baebd50	0.0053326264
219	0xbddd66f9	-0.10810656
220	0x3e8fb83f	0.28070256
221	0xbc757658	-0.014981829
222	0xbdbe2bc5	-0.09285692
223	0xbebe18fa	-0.3712843
224	0x3df0055d	0.11719773
225	0x3d31149d	0.04323255
226	0xbeb2ca58	-0.3492
227	0xbe90c667	-0.2827637
228	0xbded5240	-0.115879536
229	0xbe134225	-0.14380701
230	0x3cd63a61	0.026150884
231	0x3dad6fb2	0.0846857
232	0xbd81b1f3	-0.06332769
233	0x3ec3f3ec	0.38272035
234	0xba2d2d24	-0.0006606153
235	0xbdd5a24d	-0.10431347
236	0xbe7a4416	-0.24440035
237	0xbdb25d39	-0.08709187
238	0xbda6cef4	-0.08144942
239	0xbd821c5d	-0.06353066
240	0xbec417d7	-0.38299438
241	0xbe0efab8	-0.13962829
242	0xbeeadead	-0.45873013
243	0xbda9d07a	-0.08291717
244	0xbdc578c3	-0.09642174
245	0x3decb21d	0.1155741
246	0x3e2811f4	0.16413099
247	0xbdaf74ce	-0.085672006
248	0x3bce7cd1	0.0063015004
249	0xbefb6c13	-0.49105892
250	0xbda6a773	-0.08137407
251	0x3d8f2b4d	0.06990681
252	0xbe8b95cc	-0.27262723
253	0xbe342bac	-0.17594784
254	0x3df8061d	0.12110541
255	0x3e5fd9de	0.21860453

linear2.bias f4 [80]
0	0x3b90767f	0.004408657
1	0xbd984b85	-0.07436279
2	0x3cea3509	0.028589742
3	0xbd3d1aab	-0.04616801
4	0xbc12c625	-0.008958374
5	0xbcf52ca5	-0.029928515
6	0x3d9a1630	0.07523763
7	0xbc02bfa5	-0.007980262
8	0xbd231b9c	-0.039821252
9	0x3d01a56e	0.031651907
10	0xbe0f3967	-0.13986741
11	0x3cd911fa	0.02649783
12	0xbdf1d631	-0.11808432
13	0x3d8b8a36	0.06813471
14	0x3d9bbfda	0.07604952
15	0xbcd7cc42	-0.026342515
16	0xbde1e5b3	-0.1103014
17	0x3c499d5e	0.012305586
18	0xbd417495	-0.047230322
19	0xbdfa8116	-0.122316524
20	0x3d97b04d	0.074066736
21	0x3e0fb3ec	0.14033478
22	0xbde8bac3	-0.11363747
23	0x3de1cc4b	0.11025294
24	0xbdf8bb42	-0.121450916
25	0xbdc16524	-0.09443119
26	0xbdf28c03	-0.11843111
27	0xbca53bab	-0.020170053
28	0xbe92cfa2	-0.28674036
29	0xbc732512	-0.014840381
30	0x3dad2ebd	0.0845618
31	0x37e89052	2.772376e-05
32	0x3a57f1c0	0.00082376227
33	0x3d943183	0.07236006
34	0x3d626f6a	0.055282034
35	0xbd901b14	-0.07036415
36	0x3d5955c0	0.053060293
37	0xbd946bb4	-0.07247105
38	0xbe417dc7	-0.18895636
39	0xbdd4c809	-0.10389716
40	0xbe77e73d	-0.24209304
41	0xbe298eb1	-0.16558339
42	0xbbcea443	-0.0063062026
43	0x3e3800f2	0.1796911
44	0xbd4f50cd	-0.050614167
45	0xbdd2b5fe	-0.102886185
46	0xbd1b8c90	-0.037975848
47	0x3c9d7b4a	0.019223828
48	0x3ddc3c2d	0.10753665
49	0xbdba2285	-0.09088615
50	0xbe484fbe	-0.19561669
51	0xbe2859ba	-0.16440478
52	0xbd86d215	-0.06583039
53	0x3d0f4cdb	0.034985404
54	0x3d99682e	0.07490574
55	0xbdac4a9c	-0.08412668
56	0xbd30ea3b	-0.04319213
57	0x3d9e3682	0.0772524
58	0x3ccf2226	0.025284838
59	0x3d5a2b7b	0.053264122
60	0x3d46dad3	0.04854853
61	0xbd470d38	-0.04859659
62	0x3ddbd2aa	0.1073354
63	0xbda8fc6c	-0.08251271
64	0xbe73ca9d	-0.2380776
65	0x3c95ac59	0.018270658
66	0xbdbc2f89	-0.09188754
67	0x3df8743e	0.121315464
68	0x3de1a658	0.11018056
69	0xbd10f34d	-0.03538828
70	0xbe0c65b5	-0.13710673
71	0xbd95fdb7	-0.07323783
72	0xbd840a94	-0.0644733
73	0xbe156887	-0.14590655
74	0x3d2edd0a	0.042691268
75	0xbce8d457	-0.028421564
76	0xbcc974d5	-0.024591843
77	0xbe17feb2	-0.14843252
78	0xbd50a8c8	-0.050942212
79	0xbd4aac89	-0.04948095

noisy1.mu_w f4 [80, 4]
0	0xbd91b572	-0.07114686
1	0xbe82bdba	-0.25535375
2	0xbb9016fb	-0.0043972707
3	0xbd915623	-0.070965074
4	0x3ecfc22e	0.40577835
5	0xbeb18ba3	-0.34676847
6	0xbcf0c20e	-0.029389407
7	0x3ea11acb	0.31465754
8	0xbdca37bf	-0.09873914
9	0xbd1e2198	-0.038606256
10	0xbe361b11	-0.17783763
11	0xbf07f952	-0.5311481
12	0xbd082b57	-0.033244457
13	0xbe10b595	-0.14131768
14	0xbd84bced	-0.06481347
15	0x3ea204f5	0.31644407
16	0x3ec509f0	0.38484144
17	0x3dd6796d	0.10472379
18	0xbd9897fe	-0.07450865
19	0x3e774b9a	0.24149933
20	0xbe36e03e	-0.17858979
21	0xbdb7c50d	-0.08973131
22	0x3d4f78b1	0.05065221
23	0xbe964b4a	-0.29354316
24	0x3ed67e8a	0.41893417
25	0x3eb901ec	0.3613428
26	0x3cf9a458	0.030473873
27	0xbf652549	-0.8951002
28	0xbb90a0e6	-0.004413712
29	0x3f12cd8f	0.5734491
30	0xbdcb1441	-0.099159725
31	0x3e73a8ce	0.23794863
32	0xbeea6e3a	-0.4578722
33	0x3dc7da2c	0.0975841
34	0xbe210302	-0.15723804
35	0xbd3105f8	-0.043218583
36	0x3e4272c4	0.18989092
37	0xbe566bfe	-0.20939633
38	0xbde92d72	-0.11385621
39	0x3f382e0f	0.7194528
40	0x3dd5e759	0.10444517
41	0xbdf8b115	-0.12143151
42	0xbca7f41d	-0.020502144
43	0x3f09ad04	0.53779626
44	0xbe0242db	-0.12720816
45	0xbdd32942	-0.10310604
46	0xbe05e778	-0.1307658
47	0xbdd29748	-0.10282761
48	0x3e13fbbf	0.14451502
49	0x3e8fedf0	0.2811122
50	0x3de14fc3	0.110015415
51	0x3e8ad33b	0.2711428
52	0x3ea2bb3b	0.3178347
53	0x3e07e369	0.13270344
54	0x3d9e1e79	0.07720656
55	0x3e973b37	0.29537365
56	0xbd6318cd	-0.055443574
57	0x3eb15ca8	0.34641004
58	0x3d5f7786	0.054557346
59	0x3e484126	0.19556102
60	0x3dffb658	0.12485951
61	0x3d5efc64	0.054439917
62	0xbdac669d	-0.084180094
63	0xbf26e0a0	-0.651865
64	0x3e9ccd4b	0.30625376
65	0xbd3be349	-0.045871053
66	0x3d00a8ca	0.03141097
67	0x3ef520c5	0.47876564
68	0x3e4a08ef	0.1972997
69	0xbd1049c4	-0.0352266
70	0x3dbae534	0.09125748
71	0xbe74b09f	-0.238955
72	0xbe0d6f03	-0.13811879
73	0xbd86ff26	-0.065916345
74	0xbdfbcf39	-0.12295384
75	0xbededf44	-0.43529713
76	0x3dfb8ddc	0.12282917
77	0x3e8327c0	0.25616264
78	0xbe75121d	-0.23932691
79	0x3ee0d026	0.43908805
80	0xbf04896b	-0.51772183
81	0xbd6412b6	-0.055681907
82	0x3e463064	0.19354397
83	0xbec6c40f	-0.38821456
84	0x3e171ab1	0.14756276
85	0xbcd3762c	-0.025813185
86	0x3dc48b2d	0.09596858
87	0xbe1c5d4d	-0.15269966
88	0x3e643a3d	0.22287841
89	0x3e537f73	0.20654087
90	0x3e9477aa	0.28997546
91	0xbdf38e37	-0.1189236
92	0x3d844b62	0.06459691
93	0x3f4bfea7	0.79685444
94	0xbe16549b	-0.14680712
95	0xbcf82778	-0.030292258
96	0x3d4092d6	0.047015034
97	0x3d8aac1e	0.0677111
98	0xbda2a596	-0.07941739
99	0xbb7fa20f	-0.0039006507
100	0xbe288dcb	-0.1646034
101	0x3df78bf9	0.120872445
102	0x3e079db4	0.13243753
103	0xbf1d11a7	-0.6135506
104	0x3e8639c2	0.2621594
105	0xbeb4f7b8	-0.35345244
106	0xbe70794a	-0.23483768
107	0xbea81b7b	-0.32833466
108	0xbe85f801	-0.26165774
109	0xbeb9ebbd	-0.36312667
110	0x3dcd4770	0.10023391
111	0xbf2a65fd	-0.6656187
112	0xbf04128e	-0.5159081
113	0xbe08fd57	-0.13377891
114	0xbde51b0b	-0.11186799
115	0x3e6aa69d	0.2291512
116	0x3ef9113d	0.48645964
117	0xbeceff68	-0.40429235
118	0xbde10de9	-0.10988981
119	0xbe22ef3b	-0.15911572
120	0xbed48ad6	-0.41512173
121	0x3d9f4142	0.07776119
122	0xbe1b422d	-0.15161963
123	0x3d6c53ac	0.057696983
124	0xbcc28773	-0.023746228
125	0x3de1c185	0.11023239
126	0x3dd5d13f	0.10440301
127	0xbebde664	-0.37089837
128	0x3e61097b	0.21976273
129	0x3edc689f	0.4304857
130	0x3c457b9a	0.012053395
131	0x3f13c88d	0.5772789
132	0x3e5cf66e	0.2157838
133	0x3e2eca9e	0.1706948
134	0x3d837216	0.064182445
135	0x3e963b4e	0.2934212
136	0x3eb9d79b	0.36297306
137	0xbe4436a8	-0.19161475
138	0xbd0eafc8	-0.034835607
139	0xbed7f128	-0.42176175
140	0xbe072b6b	-0.13200156
141	0x3ebd1a8e	0.36934322
142	0x3d77b756	0.060477577
143	0x3e2d984e	0.16952631
144	0xbf25255f	-0.6451015
145	0x3d9ef54b	0.0776163
146	0xbd6b50ee	-0.057450227
147	0x3e10dae1	0.14145996
148	0xbeac3d9a	-0.33640748
149	0xbe67bceb	-0.2263066
150	0xbd303cca	-0.043026723
151	0xbe7bc171	-0.24585511
152	0xbe5b75d9	-0.21431674
153	0x3e1b7d83	0.15184598
154	0x3d984c7a	0.07436462
155	0x3e890dab	0.2676824
156	0x3db27acd	0.08714829
157	0xbdeb37d5	-0.114852585
158	0x3c7d33cd	0.015454245
159	0x3e13e90c	0.14444369
160	0x3e1cc7f6	0.15310654
161	0x3e2bd676	0.16781029
162	0x3de89170	0.11355865
163	0x3ef37ae7	0.47554705
164	0x3d810266	0.062992856
165	0xbeedd7d4	-0.46453726
166	0xbd07fdae	-0.033200912
167	0xbe24b238	-0.1608361
168	0xbe345419	-0.17610206
169	0x3f0459f5	0.51699764
170	0xbd8bb7f1	-0.068221934
171	0xbea44ca7	-0.3208973
172	0x3d9f2059	0.07769842
173	0x3e1e9af5	0.15488799
174	0xbd6acaae	-0.057322197
175	0x3d039f57	0.03213438
176	0x3f44b87a	0.7684399
177	0x3e4c36e9	0.19942822
178	0xbeb181db	-0.34669384
179	0x3f448340	0.7676277
180	0xbd0d9a0c	-0.03457074
181	0x3dbadf7f	0.0912466
182	0xbda63a7e	-0.08116625
183	0xbe5e1dc2	-0.21691039
184	0x3e640b5a	0.22269955
185	0x3decb391	0.11557687
186	0x3e079037	0.13238607
187	0x3cc41d87	0.023939861
188	0x3e02cbe9	0.12773098
189	0x3d9c33ec	0.07627091
190	0xbe05ef99	-0.1307968
191	0x3e313a8e	0.17307493
192	0xbedb604d	-0.4284691
193	0xbedc5eaf	-0.43040988
194	0xbce2ff55	-0.027709642
195	0x3ebfe1f1	0.37477067
196	0xbd190ed9	-0.037367675
197	0xbe294e22	-0.16533712
198	0xbbc2e89d	-0.00594814
199	0x3ecb9d3b	0.39768395
200	0xbd87ee51	-0.06637252
201	0xbe1cb005	-0.15301521
202	0x3d00ef0b	0.03147797
203	0x3e7706e3	0.24123721
204	0x3e468a2a	0.19388643
205	0x3e476e63	0.19475703
206	0xbd0d660e	-0.034521155
207	0x3d56b4a5	0.05241837
208	0x3d914676	0.070935175
209	0x3e54cddc	0.20781654
210	0x3e450528	0.19240248
211	0x3e96b4a1	0.29434684
212	0x3da97f9b	0.08276292
213	0x3defc6ae	0.11707817
214	0x3e11456c	0.14186639
215	0x3e9d92c0	0.30776024
216	0x3e04f229	0.12983002
217	0xbe541a6d	-0.20713206
218	0x3c7fcc80	0.015612721
219	0xbe936b28	-0.2879269
220	0x3c44c358	0.012009464
221	0xbdf048db	-0.11732646
222	0xbe24b11d	-0.16083188
223	0xbe82f228	-0.25575376
224	0x3d7e2b2a	0.062052883
225	0x3eb70829	0.35748413
226	0xbdae79cb	-0.08519324
227	0x3f09e2f3	0.5386192
228	0xbf036773	-0.51329726
229	0x3e3e73e9	0.18598904
230	0xbe12a214	-0.1431964
231	0x3e6f1820	0.23349047
232	0xbd0af6ad	-0.033926655
233	0xbe224246	-0.15845594
234	0xbe0b4d12	-0.13603619
235	0x3ebbbefc	0.36669147
236	0xbe2ef77d	-0.17086597
237	0xbd4c6d35	-0.049908835
238	0xbe40f144	-0.18842036
239	0xbf1e989c	-0.61951613
240	0xbf16c4a7	-0.5889382
241	0x3e4b7fee	0.1987302
242	0xbe148eb4	-0.14507562
243	0xbe420999	-0.18948974
244	0xbec327ba	-0.38116246
245	0xbd377c06	-0.044796012
246	0xbcad6a69	-0.021168904
247	0xbec8c668	-0.39213872
248	0x3db49010	0.0881654
249	0x3d89564a	0.067059115
250	0xbe15341a	-0.14570656
251	0xbe405f24	-0.18786293
252	0xbd2762d3	-0.04086573
253	0x3e214885	0.1575032
254	0xbe257b17	-0.16160236
255	0xbe275d9a	-0.163443

noisy1.mu_b f4 [4]
0	0x3f0628f3	0.52406234
1	0x3f02df4d	0.5112198
2	0xbe52bc86	-0.20579728
3	0x3f12c8bb	0.5733754
