Noisy DQN/noisy_checkpoint_1.pth (torch_old, 40390 bytes, 6 tensors)

linear1.weight f4 [80, 37]
000000 ee fe 19 be f7 ac b1 3d c0 5f 82 be bf da 3e 3e
       -0.15038654 0.086755686 -0.25463676 0.18638133
000010 b7 c9 51 bd de 51 89 3e 18 82 5f be 12 0c 04 bd
       -0.05121776 0.26820272 -0.2182697 -0.032238074
000020 f8 19 cb 3d 28 52 36 be 05 4b 69 3d 7f 3b 19 3d
       0.099170625 -0.17804778 0.05695631 0.037410256
000030 b1 54 9a be 4f cf b9 be f7 66 81 b9 78 da c2 bd
       -0.3014274 -0.36290976 -0.00024681512 -0.09514326
000040 36 ad 83 3d 4c 58 c0 3d 89 ba 49 be 81 70 91 3c
       0.06429522 0.09391841 -0.19700064 0.017753841
000050 95 7d a2 3d ae b0 91 be 7c 6b 28 bd c7 58 f6 3e
       0.07934109 -0.28455108 -0.04111813 0.48114607
000060 98 31 0c be 3f d9 91 3d 84 0c 6f 3e 74 2f 90 be
       -0.13690794 0.071215145 0.23344618 -0.28161204
000070 f8 7a 50 be 08 af d2 3b 3b 5a 90 3d bb 5a 80 be
       -0.20359409 0.0064295568 0.0704846 -0.25069222
000080 fa 1e 7e be 55 9d 0d 3e 20 45 ec be 28 5a 2c be
       -0.24816504 0.13829549 -0.46146488 -0.16831267
000090 9b ca d1 bd 7a 22 d3 3c b3 dc a6 3e 27 c0 10 bd
       -0.10243722 0.025773276 0.32590255 -0.0353395
0000a0 e0 bf 2d be 14 4c be be ab b6 4f 3d b9 ce 16 bf
       -0.16967726 -0.37167418 0.050711315 -0.58909184
0000b0 70 a9 f9 3d ce 3b bd be db b3 77 be 07 b7 1a 3e
       0.12190521 -0.3695969 -0.24189703 0.15108882
0000c0 c8 3b ad be 1e 12 e4 3b dc 57 f2 3d 37 d7 98 be
       -0.33834672 0.0069601675 0.11833164 -0.29851696
0000d0 d1 f7 32 3e c4 ba 0b bd 9f f1 2e bb d4 7b 6b be
       0.17477347 -0.03411366 -0.002669431 -0.22996455
0000e0 e2 46 0e bd 68 56 09 3e 20 7c 0b bf 64 7c 80 bd
       -0.034735568 0.13411868 -0.54486275 -0.06273726
0000f0 ab dc 7a be aa 72 1a be 78 8b b0 bd 18 97 cb 3c
       -0.2449824 -0.15082803 -0.086203516 0.02485232
000100 8d c7 51 3c 56 77 24 3e 59 d2 e1 3e 7d 3a 81 3c
       0.012803924 0.16061148 0.44105795 0.01577496
000110 f7 fa 69 be b3 87 b4 3e a3 2b 96 be b0 34 5b bf
       -0.22849642 0.3525978 -0.29330167 -0.8562727
000120 f2 4b d9 bd a6 9d 99 bc 51 ae d5 3e 20 80 54 bd
       -0.106101885 -0.01875193 0.41734555 -0.051880002
000130 42 49 21 be 83 c7 e0 be ac f9 96 bf 3b 6c 33 be
       -0.15750602 -0.43902215 -1.1794944 -0.17521755
000140 cc 2b 72 be eb 11 38 3e 11 97 88 3d 8d 05 2a 3d
       -0.2364952 0.17975585 0.06669439 0.0415092
000150 ee e8 f3 bd 07 87 ba 3b 66 1a 50 bc 19 89 82 be
       -0.11909662 0.005692366 -0.012701606 -0.25495222
000160 c0 5f 1b 3e c6 bb cd bd 84 0f 9c 3d 04 78 39 3e
       0.15173244 -0.100455806 0.07620147 0.18112189
000170 6e da 72 bc c7 37 18 bd c7 da e2 be c6 c8 09 3d
       -0.0148225855 -0.03716257 -0.4430754 0.033638738
000180 c9 00 55 bc 16 37 cc 3d 1c c4 50 be 8f 52 5d 3d
       -0.0130006755 0.09971444 -0.2038731 0.054033812
000190 40 07 60 3d 82 2b 34 3e 52 fe 08 bf b7 f2 01 be
       0.054694414 0.17594722 -0.5351306 -0.12690245
0001a0 6e 77 cf be 04 6b 9c bd 1d 06 4a be 7c 12 47 bd
       -0.40520805 -0.07637599 -0.19728895 -0.048601612
0001b0 44 99 1f 3d 0b fe 48 bd c6 6f 1f bd d3 56 70 3e
       0.038964525 -0.0490704 -0.038924955 0.23470621
0001c0 66 fa f8 be ba d8 9b 3e 5b 6e cb 3d 5a 75 04 bf
       -0.4862854 0.30438787 0.09933158 -0.51741564
0001d0 ad e2 d1 be 07 ea 3a 3e 0a 95 b6 bd a0 96 e4 3e
       -0.40993252 0.18253337 -0.08915146 0.44646168
0001e0 0b 88 1f 3d 7a dc 02 3e ff db b5 bc 64 96 ce 3d
       0.0389481 0.12779418 -0.022199629 0.100872785
0001f0 a2 bc ca bc de fc 84 be 16 e7 b8 bd fb db 15 bf
       -0.02474815 -0.25974172 -0.09028451 -0.5853879
000200 7d e6 6b 3e 73 f8 48 be 7b 41 53 bd 32 d8 0a 3e
       0.23037143 -0.19626026 -0.05157612 0.13559034
000210 c4 f2 9f 3d 0e 15 1f bd e5 41 03 bd aa 69 07 be
       0.07809976 -0.03883844 -0.032045264 -0.13223901
000220 1c 2e 2c be 4e 5b e0 3c 66 eb 30 3e a2 d3 e5 3d
       -0.16814464 0.027387287 0.17277297 0.112220064
000230 7d 4c 9e 3e c6 27 95 3e 51 c0 05 bd 33 56 df bc
       0.3091773 0.29131907 -0.03265411 -0.027262783
000240 24 09 87 bd 8b c4 25 3e b9 3f 69 3e c7 40 9b bc
       -0.0659354 0.16188256 0.22778215 -0.018951787
000250 fe f5 40 bd a6 06 18 bd 03 55 ae bc 42 aa 90 3c
       -0.047109596 -0.037115715 -0.021280771 0.01765931
000260 69 5c 9e 3d 3e f4 d8 3e cd 75 79 bf 61 05 8d bf
       0.077324696 0.42373842 -0.97445375 -1.1017267
000270 f0 5c 77 bf 63 0b 09 c0 cb 83 91 3d 8e 9c 8d 3c
       -0.96626186 -2.14132 0.07105216 0.017286565
000280 dd d2 c5 3c b0 57 45 3d e9 38 0f ba a4 d3 df bc
       0.024148399 0.04817933 -0.00054634974 -0.027322598
000290 3c 99 50 3d 8c 99 0e 3d 49 c5 85 3d 4e 1e 29 3d
       0.050927386 0.034814402 0.0653177 0.041288666
0002a0 49 59 61 3d 75 06 36 3d 0c 74 13 bc 02 38 98 3d
       0.05501679 0.04443975 -0.008999836 0.07432558
0002b0 c2 7f 35 3d fc ef 22 3e a2 e6 ab 3d 74 a4 c5 3d
       0.044311292 0.1591186 0.08393599 0.096505076
0002c0 3f 21 be 3d c2 ad 9f bc 3e 71 26 3e 5c 88 57 3d
       0.09283685 -0.019492034 0.16254136 0.052620277
0002d0 93 6a ef 3d f8 f8 30 3e 13 b2 96 bb 62 2c 13 be
       0.11690249 0.17282474 -0.004598865 -0.143724
0002e0 b9 4b 13 3d 78 34 21 bc 72 88 92 bd 31 fb a8 bd
       0.035960887 -0.00983917 -0.07154931 -0.08251036
0002f0 16 24 66 3d b9 77 a0 3e 57 4b 6e 3e 89 6a 99 3d
       0.056186758 0.3134134 0.23270927 0.07491023
000300 1c 5e bc be 81 3a f9 be ee 17 99 bf 18 e8 e1 bb
       -0.3679055 -0.48677447 -1.1960428 -0.006894123
000310 3d 2a 48 be 0c aa 39 bd 4c 20 26 3c eb 2c 8a 3d
       -0.19547363 -0.045328185 0.010139536 0.06746849
000320 d7 6d f8 bc 8f e2 18 3e 90 f5 aa be dd 85 3f 3d
       -0.030325813 0.14930175 -0.33390474 0.04675852
000330 65 92 5b 3d 85 ae 4e 3d 1d a0 18 be 38 30 55 3d
       0.05360641 0.050459404 -0.14904828 0.052047938
000340 06 23 27 3e 43 25 af bd 7e f0 dd 3a d1 b6 83 be
       0.16321954 -0.08552029 0.0016932634 -0.25725415
000350 df 4f 56 3e 26 66 5c bd 70 c8 f0 bb 87 8d bd bd
       0.20928906 -0.053808354 -0.0073481128 -0.0925551
000360 f9 90 4e 3d 75 02 f5 bd 60 9f 52 3e 09 bf 40 3c
       0.050431225 -0.11963359 0.20568609 0.011764296
000370 77 80 7f 3d 0b 1d 5c bc 40 03 80 be 3c 80 6c bd
       0.062378373 -0.013434659 -0.2500248 -0.05773948
000380 c5 25 04 be 1a 5d dd 3e bc 7e 00 be 56 29 ad bc
       -0.12905033 0.43235093 -0.12548345 -0.021137875
000390 b3 f1 18 be 4f a3 e9 bd f8 55 0a 3d b7 fb 03 be
       -0.14935951 -0.11408102 0.033773392 -0.1288899
0003a0 c0 31 a2 3d 9f da 55 3e 3e 3f 5e 3d 3d 4e 0e bf
       0.07919645 0.20884179 0.05425953 -0.5558813
0003b0 e6 6a bd 3d 23 89 01 bf 8d 64 e7 bd 20 49 c5 bc
       0.09248905 -0.5059988 -0.112984754 -0.02408272
0003c0 f6 2c aa 3e 5d 4d 0b be 7c 0a 4f be f1 ea 44 be
       0.33237427 -0.1360373 -0.20218843 -0.19230248
0003d0 2f 4b 63 3e a5 3e 8c be e9 46 a2 bd a4 0d 05 3e
       0.22196649 -0.27391544 -0.07923681 0.12993485
0003e0 b7 2d 65 3d 5d 35 42 be a0 d1 b1 bd a0 f4 18 3e
       0.0559518 -0.18965669 -0.08682561 0.14937067
0003f0 fd 1c cd bc e1 fc 00 be db 0f 03 3e bf 96 14 be
       -0.025038237 -0.12596466 0.12799017 -0.1451063

linear1.bias f4 [80]
000000 3e 4b e6 3c c4 1f 8b bd de a6 9b bc 22 08 33 be
       0.02811205 -0.06793168 -0.019000467 -0.17483571
000010 92 05 7b 3e 70 77 9b 3d fc a3 8c 3d de e7 91 bd
       0.24513844 0.0759114 0.06867215 -0.07124303
000020 c1 24 84 bd 97 e2 b8 bb 28 69 02 3c 1d e8 6d 3e
       -0.06452323 -0.005642246 0.0079596415 0.23233075
000030 bc 16 09 be 69 68 8f bd a3 ac 13 be ea 5e 01 be
       -0.13387579 -0.070023365 -0.14421324 -0.12633863
000040 f6 08 31 3c 0b fe d9 3c 8f ce b7 bb b9 23 c1 3d
       0.010805359 0.026610395 -0.0056093405 0.09430642
000050 5f 73 99 bd 96 a8 89 3d 0c 91 c9 bd 05 bd 0a be
       -0.074927084 0.06721608 -0.098421186 -0.13548668
000060 cd aa db bd b8 8c 7b 3d c8 0d 4c bd 82 d1 3e be
       -0.10725937 0.061413497 -0.04981783 -0.18634608
000070 43 5c e9 bb 4e 3f 54 3e 30 ed 42 3e 5a 75 9b bd
       -0.007121594 0.20727274 0.19035792 -0.075907424
000080 94 91 4a bc 13 18 b3 bd b1 22 19 3d c3 7f 99 bd
       -0.01236381 -0.08744826 0.0373866 -0.07495072
000090 61 cf b7 bd 5d 74 a7 bd 2d 9a 44 be 0e f2 44 be
       -0.08975101 -0.081764914 -0.19199438 -0.19232962
0000a0 fd bd df bd 95 be ae bd fa 23 bb 3b 50 23 a4 3d
       -0.10924909 -0.085324444 0.005711076 0.08014548
0000b0 d3 7c df 3d 5a 36 5f be 22 af cd bd 51 3e 76 3d
       0.1091248 -0.21798077 -0.100431696 0.060118023
0000c0 ca 26 72 3c 1f 54 86 be cd aa 9b 3c 44 f6 7e bc
       0.014779756 -0.26236054 0.019002343 -0.015561644
0000d0 d5 73 05 be 53 9c d6 3d c9 7e 1e be 1b ec be 3d
       -0.13032468 0.10479035 -0.15478052 0.09322377
0000e0 ab 8e 03 3e 92 c8 01 bd 13 63 95 3d ca f5 09 3e
       0.12847392 -0.03168542 0.072942875 0.13472667
0000f0 c6 de e9 3d 1f 88 2d 3d 87 b7 5b 3b 3e 1f be bc
       0.11419444 0.042366143 0.003352614 -0.023208257
000100 2a a1 a7 bd 58 d2 5c be d8 c6 ee 3d 8c b5 90 bd
       -0.081850365 -0.21564615 0.1165902 -0.07065877
000110 42 5b 28 bd dd be 45 bc 4a e1 7c 3d 02 79 83 bc
       -0.041102655 -0.012069431 0.06173829 -0.016048912
000120 bf 34 4c 3d b2 6a 0a bd 4d b5 cd bc d6 2f e6 3d
       0.04985499 -0.03379316 -0.025110865 0.11239593
000130 79 d8 c3 bd 48 fb 53 be 74 0f 9c 3b 61 c1 05 be
       -0.09562773 -0.20701325 0.0047625843 -0.1306205

linear2.weight f4 [80, 80]
000000 19 f0 65 bd 32 52 ac be 45 1c 77 bd a7 a5 c5 3c
       -0.056137178 -0.3365646 -0.060329694 0.02412684
000010 37 a9 a9 bd 67 1d 55 be 48 cf b5 3d 2d 1e a8 bd
       -0.08284228 -0.20811997 0.088774264 -0.082088806
000020 49 f7 9d be 78 33 8b 3d fe 2a 3c bd ce 8c 54 3e
       -0.30852726 0.06796926 -0.045939438 0.20756838
000030 ef 96 96 be d7 83 e3 3d 6e 36 b2 bd 3f 3d bf 3c
       -0.29412028 0.11109131 -0.08701788 0.023344634
000040 0b 69 b4 bd ef 14 59 be 5c 43 2f be d6 5f 71 3c
       -0.08809098 -0.21199392 -0.1711554 0.014732322
000050 88 1c eb bc 5b 64 9a bd a9 84 20 bd ba 15 18 be
       -0.028700128 -0.075386725 -0.039189015 -0.14852038
000060 37 ad da be d4 e8 f2 bc 91 70 89 3e 04 b0 f0 bd
       -0.42710277 -0.029652037 0.26843694 -0.11752322
000070 9a c9 9a bd 47 5c 59 3e 9d c9 00 be 45 57 84 be
       -0.07557984 0.21226607 -0.1257691 -0.2584783
000080 8f 3c 1b 3d 01 d3 36 3e 12 ad 10 be 31 6a 21 be
       0.03789955 0.17853929 -0.14128521 -0.15763165
000090 b2 d3 11 be 3b 64 63 be 4a 0c c7 3c 98 0c 37 bd
       -0.14240912 -0.22206204 0.024297852 -0.044689745
0000a0 74 70 33 be 98 34 3a be 3e 19 b0 3e 3a e4 6b 3d
       -0.17523366 -0.18184125 0.34394258 0.0575907
0000b0 52 23 15 be 5a f3 2d 3d d0 f2 74 3d 6d 8d 50 be
       -0.14564255 0.042468406 0.059801877 -0.2036645
0000c0 04 c4 ab be ae be 47 3e 32 27 71 3c ef 6c 81 be
       -0.33547986 0.19506332 0.014718818 -0.25278422
0000d0 0a b6 1b 3d e0 3a 9e be d8 34 b9 bd 94 de 2b 3d
       0.038015403 -0.30904293 -0.09043282 0.041960314
0000e0 19 cf 08 be a1 2d 94 3d 91 7b 65 3d cf 5f 8a bd
       -0.13360251 0.072352655 0.056026045 -0.06756555
0000f0 2a 67 1c be 2c 99 ff 3c 14 02 85 bd bd cd df 3d
       -0.15273729 0.031200968 -0.06494537 0.10927913
000100 2e 0e d8 3d d6 bb 96 3e 89 78 e4 bc 06 3f 67 3e
       0.105495796 0.29440182 -0.027889507 0.22582635
000110 38 53 9e bd 88 e5 3e 3e be 30 9d 3d 12 24 e3 be
       -0.077307165 0.18642247 0.076753125 -0.44363457
000120 63 ee 96 3e b6 f4 96 3e 25 94 a3 3e 0e cc 96 be
       0.2947875 0.29483575 0.31948963 -0.29452556
000130 37 e0 ab bd 3e 56 45 be 5d bc ee 3d 2a e6 79 be
       -0.08392375 -0.1927118 0.11657021 -0.24404207
000140 21 6c 4f 3e a3 06 00 3e 37 f7 67 3e ca 91 99 bd
       0.20256092 0.12502532 0.22652899 -0.0749851
000150 f8 52 81 bd b8 89 83 bc c8 d7 9d be c1 a8 79 be
       -0.06314653 -0.01605688 -0.3082869 -0.24380781
000160 33 9b 5a 3e 11 0d 1a 3b bf cb bb be aa f4 dc 3c
       0.21348266 0.0023506323 -0.36678883 0.026972134
000170 ef 37 d0 be 22 89 16 3e 1b 30 b9 be f2 e2 80 bc
       -0.40667674 0.1470075 -0.36169514 -0.015733216
000180 b2 1f bf bd 76 a0 d5 bd 7f 7c 96 bc fa 40 56 3e
       -0.09332217 -0.10430996 -0.018369911 0.20923224
000190 45 4f 94 be 8e 37 1c 3e 98 36 30 3e c3 1e d2 3e
       -0.28966728 0.15255567 0.17208326 0.41039094
0001a0 43 be cd 3d 46 59 1d be e2 0b 50 be 19 0d 27 be
       0.10046055 -0.15366086 -0.20317033 -0.1631359
0001b0 38 3f 92 be 3f 7b 03 bf 35 49 21 bd 23 d6 9b be
       -0.28563857 -0.51359934 -0.039376456 -0.3043681
0001c0 a3 ec 04 bf f1 82 1e bc 5c 5d 7a be 33 18 80 be
       -0.5192358 -0.009674774 -0.24449676 -0.25018463
0001d0 35 65 1f bd bf 2b 5c 3e d5 c7 d7 bd 04 73 06 bf
       -0.038914878 0.21501063 -0.10536162 -0.5251925
0001e0 f3 3b 67 3d 4c 1d b5 3d cf 38 e1 3d 91 d5 c4 bd
       0.056453656 0.088434786 0.109971635 -0.09611047
0001f0 7d 13 37 bd 4c 29 a3 3e 6a 6a f7 bd 7d 8f 46 3d
       -0.04469632 0.31867445 -0.12080844 0.048476685
000200 29 e3 13 be 9f 01 4d 3e 5b c5 68 be 16 c6 ea 3d
       -0.14442123 0.2002015 -0.22731535 0.11463563
000210 85 bd 50 be d0 c2 7d be fe 8f 0f be 16 95 be be
       -0.20384796 -0.24781346 -0.14019772 -0.3722312
000220 00 fb b1 3d 55 9c b7 bd 9f c8 8b 3c f1 4e d4 3d
       0.086904526 -0.08965365 0.017063437 0.103666194
000230 0b af e3 3c 9e 66 4e 3e f2 5b 0e bc 19 92 ca ba
       0.027793428 0.20156333 -0.008688914 -0.0015454917
000240 cd 2e b4 3e 0f f1 20 bd 9f 64 8d be f3 07 22 3e
       0.35191956 -0.03929239 -0.2761583 0.15823345
000250 52 72 c9 3d 1f de a0 bd f8 b2 27 bc 60 ef e5 be
       0.09836258 -0.07854866 -0.010235541 -0.4490919
000260 e2 1a 20 be 54 a1 6e 3d 2a 5b a3 be cb 53 71 3e
       -0.15635255 0.058259323 -0.3190549 0.2356712
000270 03 72 ce 3d 7b 65 0d be 0a 13 f7 bd 0e af 5b 3b
       0.1008034 -0.13808243 -0.12064178 0.0033521089
000280 f6 46 1e be 15 65 3f bf 1d 7c 8e 3e b1 73 81 be
       -0.15456757 -0.74763614 0.27829066 -0.25283578
000290 9b da 34 bf 5b c9 a7 be 91 21 38 3e aa 59 06 bf
       -0.70646065 -0.3277081 0.17981555 -0.52480567
0002a0 0c 2f 45 3e be 37 1d bd 14 c3 6c be 47 60 d6 3c
       0.19256228 -0.038383238 -0.23121291 0.026168955
0002b0 5c 19 04 bf 55 9d 96 3d a3 8c a0 bd 84 8e 99 bb
       -0.51601195 0.073542275 -0.07839324 -0.0046861786
0002c0 b1 e1 1b 3e 87 eb e8 bd 79 84 df 3c f9 d9 7c bd
       0.15222813 -0.11373048 0.027284848 -0.061731312
0002d0 8d 5c 36 be 66 36 34 bd 6f 77 38 bd 42 1f eb bc
       -0.17808743 -0.04399719 -0.045035776 -0.028701428
0002e0 64 25 13 be c4 a3 36 3e 3f 09 be 3d 6b f0 e2 bd
       -0.14369732 0.17835909 0.09279107 -0.11081012
0002f0 22 ff f4 3d dc 5a 1f be 62 c1 50 bd 66 14 51 3e
       0.11962725 -0.15562004 -0.050965674 0.20417938
000300 7e 59 35 be e2 9b a0 3d cf ee 6f 3d 08 f4 06 be
       -0.1770992 0.07842232 0.058577355 -0.13179028
000310 03 3d bb bd 68 56 3d 3e f4 58 90 bc 51 08 8f 3d
       -0.091424964 0.18489993 -0.017620541 0.06984008
000320 70 84 91 be a6 98 07 be ac 89 c1 be ed 04 29 3c
       -0.28421354 -0.13241825 -0.37800348 0.010316116
000330 a7 0c d7 3b 4e 63 d9 3d 79 cc 38 be 35 6c d6 bd
       0.0065627876 0.10614644 -0.1804675 -0.104698576
000340 cc 9c a8 bd 9f 7c cd bd 1f e2 e7 3d f1 d2 35 3e
       -0.08233032 -0.10033535 0.11322426 0.17756249
000350 59 db d1 bd 31 e9 05 be 11 d5 23 3d 16 d0 30 3e
       -0.10246915 -0.13077237 0.039998118 0.17266878
000360 83 26 79 3e bc 7a 83 bd a7 88 52 bd 77 ae 2a bc
       0.24331097 -0.06419894 -0.051399853 -0.010417572
000370 9a a0 95 3e 22 fe 1b 3d f1 6d 3e be 16 3c 2e be
       0.29224092 0.038084157 -0.18596627 -0.17015108
000380 51 86 3b 3e 52 f5 12 bd a8 0f fb bc dc ac 92 be
       0.18312956 -0.035878487 -0.030647114 -0.28647506
000390 eb a5 b7 bc e1 83 c7 bc 40 76 c5 bd b1 ba c5 3e
       -0.022417983 -0.024354877 -0.09641695 0.38618997
0003a0 9d b1 69 be 57 e6 12 be d1 a2 2d 3e 9a 9f 42 bc
       -0.2282166 -0.1434568 0.16956641 -0.011878872
0003b0 a9 71 42 be c9 f8 65 be 68 9c e0 3d 21 27 7b 3e
       -0.1898867 -0.22458185 0.10967332 0.24526645
0003c0 79 0b 1f be fd f9 a7 3d 3e 16 5f be c8 c8 2f 3d
       -0.1553172 0.08201978 -0.21785828 0.04291609
0003d0 c0 df 5a bf 0c 8c 67 bd 8e 0c 71 bd a2 16 29 bd
       -0.85497665 -0.056530043 -0.058849864 -0.04128135
0003e0 9a ff c4 b9 14 a1 7e be 10 35 51 be 19 37 e0 3e
       -0.0003757447 -0.24866134 -0.20430398 0.43792036
0003f0 2c bf 03 3e b5 23 7e be 05 dc dd 3a 6e 23 3f 3e
       0.12865895 -0.24818309 0.0016926533 0.18665859

linear2.bias f4 [80]
000000 1c e6 1f be 72 9a 0f bb e2 c5 e1 3c 7a 0b 39 3c
       -0.15615124 -0.0021912125 0.027560178 0.01129424
000010 7d cc 8e bd 7d 6f 6a bd fa bc da bd 28 cb d4 bd
       -0.06972597 -0.05723523 -0.10680576 -0.103903115
000020 e6 2a 9c bd d3 c9 28 3d 0a d8 6c bc cf 43 16 be
       -0.0762537 0.0412081 -0.014455805 -0.14674304
000030 a4 7b fc bd 45 67 86 3d c7 b5 9d 3d af 9c 46 bd
       -0.1232827 0.06562666 0.07700687 -0.04848927
000040 6c 4f fe bb 26 9b f0 bd 9f af 87 bd 7d 64 4c be
       -0.0077609327 -0.11748342 -0.06625294 -0.19960208
000050 2b 2c 0a be 8e 21 f8 3d a8 99 63 be 4f 55 30 3d
       -0.13493411 0.12115775 -0.22226584 0.043050107
000060 9e e5 f3 bd 93 5d 9f bd 42 b0 07 be f8 9a 9b bd
       -0.119090304 -0.0778152 -0.13250831 -0.07597917
000070 a1 7b f7 bd f9 d6 00 be 31 22 94 bc 1d bc 9d bc
       -0.12084127 -0.12582006 -0.01808271 -0.019254738
000080 b6 cf 2d bc 0b a0 20 3e 56 a1 b6 bd 1c f8 d4 bc
       -0.010608604 0.15686052 -0.08917491 -0.025997214
000090 9c 0c 28 be b4 48 e7 bd 01 33 1e be 8c f1 81 bd
       -0.1641106 -0.11293164 -0.15449144 -0.063448995
0000a0 c2 c8 50 bd 04 8e af bd 3c 72 3c 3d bd f2 12 3e
       -0.050972708 -0.08572009 0.04600738 0.1435041
0000b0 24 72 0d be 60 9e 8c be 9c 1c 0a 3d 24 aa 27 3e
       -0.13813072 -0.2746458 0.03371869 0.16373497
0000c0 bb 3a 88 bd 1f 04 b1 bd 00 03 17 be 8e 76 4f bd
       -0.06651827 -0.08643364 -0.14747238 -0.050650172
0000d0 11 78 4f bc 71 ad ab bd 66 ed f4 bb 3f 90 49 3b
       -0.012662903 -0.08382691 -0.007474589 0.0030756143
0000e0 28 41 1a 3e c6 39 be 3d 08 35 20 3d 06 f9 82 3d
       0.15063918 0.09288363 0.039113075 0.06395154
0000f0 2b 1f ca 3d 27 00 f1 3b a7 bf 8a bd 8e bf a0 bd
       0.09869226 0.0073547545 -0.06774836 -0.07849036
000100 1c 47 1c be e1 6e 9c 3d 73 dc 0a be 70 33 e5 3d
       -0.15261501 0.07638336 -0.13560657 0.111914515
000110 ec 79 c8 3c 03 39 95 3d b5 91 47 be b3 12 e8 bb
       0.0244722 0.07286265 -0.19489177 -0.0070823072
000120 6d ac bc bc d5 40 2a be d1 10 80 bc 0c 97 a7 3c
       -0.023031438 -0.16626294 -0.015633019 0.020457767
000130 c3 2c 40 bd 44 8b 54 bd c0 89 01 be de 8c af bd
       -0.046917688 -0.051890627 -0.12650204 -0.0857179

noisy1.mu_w f4 [80, 4]
000000 f0 1e 3c be 13 ca 94 be 61 ea 75 3c fa ed 38 be
       -0.18371177 -0.2906042 0.015009494 -0.18059531
000010 97 25 5c 3e 43 c6 83 be 0e c2 f0 bc 7f a9 b5 be
       0.21498714 -0.257372 -0.029389407 -0.35480878
000020 f5 8d 97 bc 79 9d af 3c 11 1b 36 be f9 ab 01 bf
       -0.018500308 0.021437394 -0.17783763 -0.50653034
000030 b6 85 11 bf 59 b1 b4 bc 18 37 f5 3d 4c 18 10 be
       -0.5684465 -0.022057222 0.11973399 -0.14071769
000040 af 96 3f bd c3 55 94 3e 70 bc e7 bd a7 68 f4 3e
       -0.046774562 0.2897168 -0.113152385 0.47736093
000050 bc 34 82 be 91 2c 9b 3e b1 78 4f 3d 98 5d 54 3e
       -0.25430858 0.3030744 0.05065221 0.20738828
000060 c4 04 34 3d 25 84 ab 3d 58 a4 f9 3c 01 ab 7c be
       0.043949857 0.08374814 0.030473873 -0.24674608
000070 a7 12 f1 bc d5 23 5f 3e 41 14 cb bd dd f5 86 3e
       -0.02942784 0.21791013 -0.099159725 0.26359454
000080 08 7e b0 bb 64 f1 e9 3e 02 03 21 be 11 4b 2a 3f
       -0.005386118 0.4569198 -0.15723804 0.6652079
000090 10 90 f7 3e f8 77 9f 3e 72 2d e9 bd 1b c4 a1 3e
       0.48352098 0.31146216 -0.11385621 0.3159493
0000a0 cb 30 74 3e 7e 0d bc 3e 24 1f a4 bc 85 58 a0 3e
       0.23846738 0.36729044 -0.02003438 0.31317535
0000b0 d4 8a f1 bd 20 b5 5f 3d 78 e7 05 be 35 55 b0 be
       -0.117940575 0.054616094 -0.1307658 -0.34440008
0000c0 c6 ff 85 be 2a 34 3d 3f c3 4f e1 3d a3 ae db 3b
       -0.26171702 0.7390772 0.110015415 0.006704168
0000d0 21 c9 bf 3d 66 46 13 3e 79 1e 9e 3d a0 6c af 3e
       0.09364534 0.14382324 0.07720656 0.34262562
0000e0 65 7b 1f 3e 61 61 18 bc 86 77 5f 3d 12 9b 87 be
       0.15574415 -0.009300561 0.054557346 -0.26485497
0000f0 55 b4 93 bd cf 99 99 bd 9d 66 ac bd 08 f3 65 be
       -0.0721213 -0.0750004 -0.084180094 -0.2245599
000100 db e3 a4 3d 3e 8a b4 be b4 00 b3 bd da 55 b9 3e
       0.080512725 -0.3526172 -0.087403685 0.36198312
000110 16 39 cd 3e fc 98 de bd 34 e5 ba 3d 5d cc a1 3e
       0.40082616 -0.10869023 0.09125748 0.3160123
000120 77 c5 68 be 0c 63 4d be 39 cf fb bd 6f f9 4d be
       -0.22731577 -0.20057315 -0.12295384 -0.20114683
000130 2c df 12 be 36 ca d1 3c 9d bf 3c be 3c 60 6c be
       -0.14342946 0.025609117 -0.1843247 -0.23083586
000140 87 b8 ee bd fe 5b 4d bd 64 30 46 3e 1b bc 36 bc
       -0.116562895 -0.05013656 0.19354397 -0.011153246
000150 15 06 22 3e 6c 37 09 3d 2d 8b c4 3d 21 2e ea bc
       0.15822633 0.03350012 0.09596858 -0.02858645
000160 77 f2 d9 3c d7 a4 e4 3e 11 c0 2f 3e 55 72 42 bc
       0.026604874 0.44657013 0.17163111 -0.011868079
000170 d6 97 ed be db 87 be be 9b 54 16 be c8 0f 8c 3e
       -0.46404904 -0.37213024 -0.14680712 0.2735579
000180 34 23 33 bd 02 84 85 3d 96 a5 a2 bd 6d d0 85 bd
       -0.043734744 0.06519319 -0.07941739 -0.06533895
000190 c5 c6 95 be a2 8e b0 bd b4 9d 07 3e 97 24 2d bf
       -0.29253212 -0.08620955 0.13243753 -0.67633957
0001a0 b2 fe b3 3d 6c 99 1d bf e2 b9 23 be dd d0 d5 be
       0.08788814 -0.6156223 -0.15988877 -0.41760913
0001b0 4d 4a 9b be f1 a9 ec bd 85 2e dc 3d 66 61 a5 be
       -0.30330124 -0.11555851 0.107510604 -0.32300872
0001c0 bb 5a 11 3c 7e cc 80 be 21 5a 8c bd 66 82 10 3f
       0.0088717295 -0.25156015 -0.06853128 0.5644897
0001d0 03 b0 01 3e dc 0c e0 3c e9 0d e1 bd 5d 7b fe 3e
       0.126648 0.027349882 -0.10988981 0.49703494
0001e0 73 0b 89 bd 04 5e 50 3e 2d 42 1b be bf 18 cc 3e
       -0.06691637 0.20348364 -0.15161963 0.3986263
0001f0 d1 2d a3 3e f0 e8 e7 3d ce eb 10 3e 61 19 57 3e
       0.31870893 0.11323726 0.14152452 0.21005775
000200 d7 6e ba bd 63 1d 38 3e 9a 7b 45 3c d3 a9 be 3e
       -0.09103172 0.1797996 0.012053395 0.3723894
000210 ce 15 6c 3e aa a5 31 3e 68 8c e3 3d 66 8f 85 3e
       0.23055193 0.17348352 0.11110765 0.26085967
000220 5f 3a 2a be a1 5c ee bd 01 bb 4f bd 0b 9d a2 3e
       -0.1662383 -0.11638761 -0.05071545 0.3176044
000230 01 99 1b be 1a 3c 3b be 56 b7 77 3d 5e 09 a8 3d
       -0.15195085 -0.18284646 0.060477577 0.08204912
000240 b4 02 66 be 74 b5 2c 3e ee 50 6b bd 5e 8e 32 be
       -0.22461969 0.16866094 -0.057450227 -0.17437121
000250 5a b9 4a be ef 6a 82 be b1 af 39 bc f3 61 b0 be
       -0.19797269 -0.2547221 -0.011333392 -0.3444973
000260 3b 60 97 be 33 23 cd 3e 7a 4c 98 3d 35 66 d8 3e
       -0.29565606 0.40065917 0.07436462 0.42265478
000270 9b 97 db 3e 8b 77 a6 3d cd 33 7d 3c e0 65 29 3f
       0.42889103 0.0812827 0.015454245 0.66171074
000280 d6 d0 0a 3d 67 a0 7c 3e 70 91 e8 3d 41 94 1a 3e
       0.033890568 0.24670564 0.11355865 0.15095617
000290 ce ad 8a bd e3 2d 60 be c4 56 07 3d c4 44 bf be
       -0.06771432 -0.21892504 0.03304173 -0.37357152
0002a0 2d 76 df 3e 7e c9 a8 3e f1 b7 8b bd f5 98 7d 3d
       0.43644848 0.32966226 -0.068221934 0.06191345
0002b0 df f0 5c 3e e0 f5 41 3e 64 8a bd bd 2d ac 1c be
       0.2157626 0.1894145 -0.092549115 -0.15300055
0002c0 f4 09 d3 3e ee cf 5a be b8 86 1d be 98 62 7e be
       0.4121853 -0.21368381 -0.15383422 -0.24842298
0002d0 e8 83 d7 bd 89 7f 4d 3e 31 b6 a8 bd e0 a7 20 3d
       -0.10523206 0.20068182 -0.08237875 0.039222598
0002e0 85 36 4a 3e 85 cc 0b 3e 37 90 07 3e 40 37 14 3e
       0.1974736 0.13652237 0.13238607 0.14474201
0002f0 72 e1 a8 3e 12 bc 5a 3e 99 ef 05 be 02 0e 0f 3e
       0.329845 0.21360806 -0.1307968 0.13970187
000300 d1 1d a7 bd 91 25 3a be 55 ff e2 bc 9d d6 2d 3e
       -0.08159984 -0.18178393 -0.027709642 0.169764
000310 23 2e be bb 53 ad 28 be 9d e8 c2 bb 92 2a 87 3e
       -0.00580384 -0.16472368 -0.00594814 0.26399666
000320 b0 40 04 3d 1b 5a 85 3d 0b ef 00 3d 21 83 fd 3e
       0.032288253 0.06511327 0.03147797 0.49514106
000330 44 35 79 3d 2a 88 93 3e 0e 66 0d bd 08 bb e6 3d
       0.060841814 0.28814822 -0.034521155 0.11266142
000340 a1 13 10 3d 4a 7a 33 3e 87 d1 34 3e 24 5b b1 3e
       0.03517497 0.17527118 0.17658053 0.34639847
000350 3d 0e 86 3e 8f a3 92 bd 6c 45 11 3e 8a cc a9 bd
       0.26182738 -0.071601026 0.14186639 -0.08290966
000360 4b 85 cb 3e 8c 99 51 3e 80 cc 7f 3c 5e 54 35 be
       0.39750132 0.2046873 0.015612721 -0.17707965
000370 22 df 3f 3e 6e f4 82 bd b8 f2 34 be f2 92 02 bf
       0.18737462 -0.063942775 -0.17670715 -0.5100547
000380 b5 fd 80 3e f4 85 18 3e 46 f2 9d bd db 6f 55 3e
       0.25193563 0.14894849 -0.077122256 0.2084345
000390 ab 51 1c bf c2 5f 78 be 14 a2 12 be 33 cf ee be
       -0.61062115 -0.24255279 -0.1431964 -0.46642455
0003a0 92 72 85 be 12 91 6e be 12 4d 0b be 39 9a 17 3f
       -0.26063973 -0.23297527 -0.13603619 0.592197
0003b0 dc 8f bf 3d 92 ef a8 bd 44 f1 40 be 1d c0 a7 be
       0.09353611 -0.082488194 -0.18842036 -0.32763758
0003c0 f9 63 45 bf 5d ce d6 bd c2 0a b6 bd 09 8f f6 be
       -0.7710567 -0.104885794 -0.08888771 -0.48156002
0003d0 18 be 19 bf 25 f7 22 be 69 6a ad bc d1 00 3c 3e
       -0.60055685 -0.1591459 -0.021168904 0.18359686
0003e0 d0 6a d2 bd a1 3a 95 bd 1a 34 15 be 67 22 40 bf
       -0.10274279 -0.07286573 -0.14570656 -0.75052494
0003f0 39 8b fc bd bb dd 53 3e 17 7b 25 be af 92 5e be
       -0.12331242 0.20690052 -0.16160236 -0.21735643

noisy1.mu_b f4 [4]
000000 61 d8 1d 3f 2a bc 1a 3f eb 43 21 be 4b 38 29 3f
       0.61658293 0.60443366 -0.15748565 0.6610152
