Prioritized Experience Replay/per_checkpoint_1.pth (torch_old, 40359 bytes, 6 tensors)

fc1.weight f4 [80, 37]
0.08525984 0.084650464 -0.2506477 -0.32726806 -0.2897363 -0.066918895 -0.14199878 0.17642868
0.056119405 -0.048449967 0.08141374 -0.058756042 -0.33737648 -0.071495235 -0.052287634 0.1752438
0.03892663 0.022432117 -0.3351137 -0.22022948 0.19693471 0.08420565 0.013458596 -0.08553194
-0.12208692 -0.07081823 0.17053258 0.056755982 0.13233426 0.2052265 -0.25321546 0.10253562
0.045078464 -0.056399487 0.01580762 -0.035751496 -0.07094112 0.021462528 0.041035365 0.22119349
0.014297235 -0.3348455 -0.13254505 -0.025249932 0.059814338 -0.09082888 -0.20806636 0.22914897
-0.044328116 -0.31383997 0.022474285 0.08459106 0.09183172 -0.22066273 0.29404652 -0.16542289
-0.4296275 -0.112252735 -0.09721749 -0.23355481 -0.0096888 -0.0838401 -0.13511415 0.20222433
-0.033106614 0.034951914 -0.6231761 -0.19129346 0.3753928 0.089760326 -0.03928642 -0.15663822
-0.0075128037 0.03064296 0.02711158 0.3250886 -0.015059093 -0.00912642 -0.022355253 -0.24872544
-0.028638374 0.25730148 0.101733215 -0.21611126 0.24731703 -0.07834069 -0.06655219 -0.16349496
-0.4165198 0.007814754 0.067113705 0.13944097 0.019491078 -0.026637984 -0.26915586 0.058295965
0.031608175 0.13643834 -0.0031713843 -0.3778199 0.25839987 0.27877977 0.22391956 -0.16956268
-0.29128292 0.06007365 0.008400423 -0.15102859 -0.20283213 -0.085950665 0.01487183 0.37572488
-0.75689304 -0.16026536 -0.048990566 -1.2320836 -0.12007911 0.109744124 0.099496484 0.07082252
0.009516429 0.044170335 -0.03409067 -0.042661235 0.047406495 -0.11049479 -0.1388493 0.2283569
0.04760923 -0.06815184 -0.28779706 0.08624647 -0.04074345 -0.00024026 0.06831848 0.015078259
0.031811647 0.11091841 0.103555344 0.27091756 0.2520118 0.08511395 0.17275475 0.03908371
0.09197697 -0.10451823 0.017558739 0.012316169 -0.07229183 -0.06731742 -0.046264675 -0.0585898
0.01818606 0.41950804 -0.5674259 -0.55806303 -0.3106577 -1.720449 -0.015006054 0.032033883
-0.01285498 -0.0577165 -0.022163816 -0.040724225 -0.04155811 0.0030460255 0.011799327 0.06600651
-0.004829627 -0.013934456 0.06201221 0.07792325 0.18790026 0.12157771 0.16152143 0.10784094
0.081163794 -0.13776617 0.03438156 0.15921246 0.13957797 0.13409 0.1253054 0.022523275
0.004395684 0.09684458 -0.053627983 -0.12134414 0.014366242 0.17693555 0.14249645 0.19671701
0.028210027 -0.33685938 -0.21143264 -0.12210349 0.034007136 0.012488517 -0.21621598 -0.095292844
0.16100593 0.11020899 -0.4256892 -0.21741888 -0.41056898 -0.10344384 0.22515534 0.059712555
0.23897514 0.11652985 -0.049732216 0.15594181 0.020167235 -0.108852655 -0.49362245 0.07050753
0.08761637 -0.24238871 0.033586465 -0.13631284 0.104157954 -0.0074166376 0.10498053 0.10051459
0.034979023 -0.12449324 -0.14869544 -0.06879568 -0.082161576 0.07771243 0.16002564 0.23508061
0.18635757 0.168098 -0.033229966 0.017099863 -0.12500079 -0.0015316468 -0.14905274 0.119581625
0.082647376 0.08180103 -0.08250531 0.16715185 -0.03877373 0.045745134 0.27481025 0.07686868
0.045752022 -0.15124765 -0.20154229 -0.18451719 0.2093382 -0.019351475 0.040872686 -0.24799149
00000000: b69c ae3d 395d ad3d e554 80be ae8f a7be
00000010: 5158 94be c60c 89bd 2168 11be b8a9 343e
00000020: 76dd 653d 7973 46bd 3fbc a63d 2daa 70bd
00000030: 9cbc acbe 186c 92bd 8f2b 56bd 1c73 333e
00000040: 8871 1f3d 8fc3 b73c 0694 abbe d683 61be
00000050: 41a9 493e 0374 ac3d 7181 5c3c 5f2b afbd
00000060: b508 fabd 2609 91bd 18a0 2e3e f678 683d
00000070: a282 073e e526 523e 75a5 81be 32fe d13d
00000080: 32a4 383d 2603 67bd fb7e 813c 2970 12bd
00000090: 9449 91bd 2fd2 af3c b314 283d 8c80 623e
000000a0: f33e 6a3c df70 abbe e4b9 07be f2d8 cebc
000000b0: e1ff 743d 7e04 babd 590f 55be 07a6 6a3e
000000c0: 6691 35bd a2af a0be fe1b b83c 143e ad3d
000000d0: 4512 bc3d 69f5 61be 448d 963e 9e64 29be
000000e0: 23f8 dbbe c3e4 e5bd f719 c7bd fe28 6fbe
000000f0: c6bd 1ebc 5cb4 abbd 5d5b 0abe e513 4f3e
00000100: cd9a 07bd bd29 0f3d 7888 1fbf 6fe2 43be
00000110: 7c33 c03e 43d4 b73d ccea 20bd c565 20be
00000120: f72d f6bb f206 fb3c 1b19 de3c 0372 a63e
00000130: 6aba 76bc fb86 15bc 5d22 b7bc e2b1 7ebe
00000140: 069b eabc 05bd 833e 8159 d03d 454c 5dbe
00000150: ad40 7d3e 1571 a0bd 844c 88bd 396b 27be
00000160: 1542 d5be 7409 003c e972 893d 9dc9 0e3e
00000170: c1ab 9f3c e737 dabc ccce 89be c0c7 6e3d
00000180: 9377 013d 7eb6 0b3e 00d7 4fbb 9c71 c1be
00000190: fd4c 843e 39bc 8e3e 2b4b 653e d7a1 2dbe
000001a0: 0923 95be ca0f 763d eea1 093c 3da7 1abe
000001b0: 3ab3 4fbe e706 b0bd faa8 733c 035f c03e
000001c0: bec3 41bf 9a1c 24be 55aa 48bd eab4 9dbf
000001d0: 09ec f5bd 87c1 e03d d0c4 cb3d 660b 913d
000001e0: ccea 1b3c f4eb 343d a9a2 0bbd 8cbd 2ebd
000001f0: 502d 423d 184b e2bd 832e 0ebe 64d6 693e
00000200: e501 433d 3193 8bbd 235a 93be fda1 b03d
00000210: 9be2 26bd 4dee 7bb9 8fea 8b3d cd0a 773c
00000220: ee4c 023d 3129 e33d d314 d43d b5b5 8a3e
00000230: b107 813e 3950 ae3d 9fe6 303e 3e16 203d
00000240: 6c5e bc3d a70d d6bd 58d7 8f3c c2c9 493c
00000250: bd0d 94bd b7dd 89bd 0780 3dbd dcfb 6fbd
00000260: effa 943c c2c9 d63e d342 11bf 38dd 0ebf
00000270: 870e 9fbe ac37 dcbf f4db 75bc f635 033d
00000280: b29d 52bc 2368 6cbd e490 b5bc 72ce 26bd
00000290: d638 2abd d49f 473b f751 413c 6c2e 873d
000002a0: d941 9ebb 584d 64bc 8400 7e3d 3a96 9f3d
000002b0: ed68 403e bcfd f83d e065 253e b6db dc3d
000002c0: 3439 a63d 9312 0dbe aed3 0c3d 9708 233e
000002d0: 87ed 0e3e e44e 093e 0f50 003e bb82 b83c
000002e0: ac09 903b 7356 c63d 04a9 5bbd 4783 f8bd
000002f0: 6360 6b3c 982e 353e 97ea 113e 2f70 493e
00000300: b718 e73c d578 acbe cc81 58be 6511 fabd
00000310: 114b 0b3d a39c 4c3c b967 5dbe e528 c3bd
00000320: bdde 243e 40b5 e13d eff3 d9be 0ea3 5ebe
00000330: 1936 d2be 5dda d3bd 1f8f 663e 2795 743d
00000340: e6b5 743e 34a7 ee3d 02b4 4bbd 36af 1f3e
00000350: c235 a53c 24ee debd 15bc fcbe 4066 903d
00000360: 3670 b33d bf34 78be f691 093d 9895 0bbe
00000370: c450 d53d 4407 f3bb 0800 d73d 98da cd3d
00000380: 2a46 0f3d 50f6 febd 9e43 18be c0e4 8cbd
00000390: 5444 a8bd b227 9f3d c3dd 233e f9b8 703e
000003a0: 85d4 3e3e e221 2c3e 251c 08bd 0315 8c3c
000003b0: 3500 00be 8ac1 c8ba 48a1 18be 36e7 f43d
000003c0: 0743 a93d 4c87 a73d 8bf8 a8bd db29 2b3e
000003d0: 34d1 1ebd 405f 3b3d eeb3 8c3e 546d 9d3d
000003e0: 7966 3b3d aae0 1abe 1a61 4ebe 13f2 3cbe
000003f0: c15c 563e fc86 9ebc 1e6a 273d 7bf1 7dbe

fc1.bias f4 [80]
0.04282247 -0.10425286 0.042730104 -0.13754526 0.15567866 0.10917551 0.15354106 -0.031832922
0.052506045 0.10418782 0.17619583 0.15177947 -0.18610032 0.10939402 -0.030365039 0.012578125
0.20323719 -0.02423848 -0.076892294 0.12098816 0.068987444 -0.025298586 0.025883412 -0.12219966
-0.12997171 0.043054763 0.024589656 -0.030498441 0.081285425 0.14025441 0.07513293 -0.06576761
0.048900403 -0.07705577 -0.055938467 -0.08992994 0.18145938 -0.058774624 -0.06607286 -0.030870505
0.046075635 -0.072002806 -0.11963933 0.21333306 0.11201193 -0.17892808 0.06469953 0.06463332
0.09049611 -0.118027985 0.100745626 -0.012995382 -0.10381895 0.12792228 -0.1634937 0.18776235
0.12852855 -0.06500477 0.12010889 0.22443713 0.08165052 0.12946825 0.04654689 -0.119079985
0.12977037 -0.066062085 0.11548116 -0.081419975 0.03217741 -0.0029434387 0.053380173 0.044880155
0.022779506 -0.059850454 -0.06717166 -0.03331032 -0.07488632 -0.23568776 0.10430386 -0.12658566
00000000: 9d66 2f3d 8682 d5bd c305 2f3d aad8 0cbe
00000010: 3a6a 1f3e 6997 df3d de39 1d3e 3d63 02bd
00000020: 9410 573d 6c60 d53d ae6c 343e 146c 1b3e
00000030: 1591 3ebe f909 e03d 1ac0 f8bc 7b14 4e3c
00000040: 691d 503e c78f c6bc b579 9dbd a4c8 f73d
00000050: 4a49 8d3d fb3e cfbc 7309 d43c d143 fabd
00000060: 4e17 05be 315a 303d 3f70 c93c ded7 f9bc
00000070: f978 a63d da9e 0f3e 4bdf 993d 2bb1 86bd
00000080: ca4b 483d 6acf 9dbd bc1f 65bd 302d b8bd
00000090: 7dd0 393e a9bd 70bd 3551 87bd 24e4 fcbc
000000a0: ceb9 3c3d 3576 93bd 7705 f5bd fb73 5a3e
000000b0: 8366 e53d ec38 37be 3081 843d 795e 843d
000000c0: 0656 b93d a8b8 f1bd b953 ce3d 95ea 54bc
000000d0: 089f d4bd 0ffe 023e e46a 27be c644 403e
000000e0: fd9c 033e 3921 85bd a6fb f53d d9d2 653e
000000f0: 6338 a73d 5393 043e f4a7 3e3d 35e0 f3bd
00000100: 86e2 043e 8f4b 87bd 6381 ec3d 84bf a6bd
00000110: 76cc 033d b5e6 40bb 2ba5 5a3d 41d4 373d
00000120: 169c ba3c c025 75bd 4c91 89bd 6770 08bd
00000130: 005e 99bd 2258 71be 439d d53d ac9f 01be

fc2.weight f4 [80, 80]
0.022914007 -0.051766448 0.07194199 -0.0066590086 -0.06714158 0.022473287 0.11919039 0.014969443
0.0058605177 0.030438622 0.12748867 0.12938325 0.06855733 0.11428389 0.12311466 0.06300772
0.113417014 0.08334053 0.052085042 0.06803402 0.0915176 -0.046165355 0.11521214 0.018981827
-0.0020565665 0.041945226 0.16373152 0.16258971 0.09256353 0.0820284 0.011809612 0.112554096
0.16775467 -0.000625549 -0.051117267 -0.041755103 0.14288557 0.04816112 0.13476284 0.062271804
0.09585031 0.07950557 0.090868175 0.1542559 0.022612931 0.065816514 0.12814963 -0.0005520102
-0.06595397 -0.06568954 -0.019439936 0.023158478 0.1429544 0.19508564 -0.09824265 0.12621036
-0.0690817 0.0708923 -0.004622171 0.16877611 -0.023604762 0.08210168 0.11110739 0.012312891
0.16411042 -0.049722206 -0.018386709 0.10739918 0.010633474 0.081083044 -0.04696734 -0.015662733
0.046411198 -0.025408538 0.06911229 -0.017744916 0.10304437 0.04126828 0.17269757 0.004072161
0.08701595 0.10297976 -0.07783991 -0.016917527 0.00010767315 0.31223738 0.08055782 -0.16283222
-0.061117936 0.03523567 -0.035147097 0.16833238 -0.04676148 -0.08612315 0.052131742 0.06429885
-0.0016404239 0.3012272 -0.38432443 0.058185466 -0.111553825 -0.1923536 0.14275767 0.33216053
-0.25897324 -0.03674653 0.12828128 -0.14640503 -0.16980948 0.015967563 0.019525003 -0.03540487
-0.1125823 -0.47439197 -0.16360734 -0.013280175 9.022533e-05 0.13622268 -0.18080324 -0.057542697
0.09066733 -0.16054663 -0.27146772 -0.07399713 -0.24759264 -0.21348721 0.012597445 -0.10662456
-0.040497683 0.0819935 -0.003090224 0.043647114 -0.03282284 -0.18694447 -0.086026646 0.016136186
0.106422886 -0.44683182 0.12583682 -0.19553714 0.19338608 -0.072257176 -0.0656303 0.055713966
-0.15919633 0.26246595 0.03530286 -0.054153863 -0.07619686 0.09591772 -0.06947108 -0.13543975
-0.025038613 0.28320876 0.13502137 0.01545726 0.30381563 0.26308575 -0.031677227 0.10389467
-0.13138339 0.03333065 -0.28559807 -0.34111798 -0.24666306 0.065680444 -0.03874077 -0.18836701
-0.08105596 0.1274601 0.10099841 0.122511685 -0.17217287 -0.006667949 -0.09076857 0.02395408
0.012373414 0.013355127 0.06694119 0.0023808593 -0.082132734 0.21579939 -0.044028904 -0.053775728
-0.06318563 -0.06922162 -0.24371378 -0.17006627 -0.03693937 0.009873017 -0.027341451 0.22302757
0.24663308 -0.048961557 -0.05829613 -0.098441385 -0.06863927 0.50746286 -0.051450524 -0.0438115
-0.111990385 -0.09073891 -0.0671178 0.038844112 -0.09689529 -0.01958452 -0.24527188 -0.030658457
0.07629498 -0.06552805 -0.0031833202 0.21575129 -0.10070715 0.078658454 -0.052099854 0.048696086
-0.0657465 -0.45070547 -0.1891124 -0.14448221 0.14798911 0.0122858705 0.0043118983 0.09304636
-0.054486476 0.06856459 -0.101911165 0.05882364 0.28039727 0.054125924 -0.05392752 0.33193848
0.048226435 -0.03703321 -0.5619775 -0.0847921 -0.5964826 0.028595133 -0.11103787 0.0023819804
0.0015858548 -0.036094405 -0.17949158 0.06777338 0.16158639 -0.15883733 -0.20086116 -0.3784072
-0.003526387 -0.011954617 -0.018952766 0.14014874 -0.25415194 0.056312766 0.013994944 0.12337541
00000000: 28b6 bb3c 0e09 54bd 5256 933d d033 dabb
00000010: 8681 89bd e619 b83c 171a f43d 6542 753c
00000020: 9609 c03b 6b5a f93c 648c 023e 0b7d 043e
00000030: c967 8c3d ac0d ea3d 8a23 fc3d 310a 813d
00000040: 2e47 e83d 71ae aa3d 2057 553d 6c55 8b3d
00000050: 946d bb3d e217 3dbd 58f4 eb3d c77f 9b3c
00000060: 76c7 06bb c2ce 2b3d 3ca9 273e eb7d 263e
00000070: f391 bd3d 81fe a73d 1a7d 413c c382 e63d
00000080: e1c7 2b3e e2fb 23ba 5760 51bd 6607 2bbd
00000090: 9850 123e 9844 453d 45ff 093e b810 7f3d
000000a0: 2b4d c43d d1d3 a23d 1819 ba3d 42f5 1d3e
000000b0: c13e b93c cfca 863d a839 033e c7b4 10ba
000000c0: e012 87bd 3d88 86bd 8040 9fbc d9b6 bd3c
000000d0: a362 123e 88c4 473e 7133 c9bd 4a3d 013e
000000e0: b57a 8dbd fb2f 913d 9575 97bb a5d3 2c3e
000000f0: c65e c1bc ed24 a83d 458c e33d 02bc 493c
00000100: 900c 283e 83a9 4bbd b99f 96bc 1af4 db3d
00000110: 0638 2e3c de0e a63d d360 40bd 224f 80bc
00000120: ab19 3e3d 9125 d0bc bf8a 8d3d c95d 91bc
00000130: ed08 d33d ee08 293d a2d7 303e c36f 853b
00000140: 6b35 b23d 0de7 d23d 886a 9fbd a096 8abc
00000150: 95ce e138 94dd 9f3e 80fb a43d 7dbd 26be
00000160: cd56 7abd 4753 103d 67f6 0fbd 535f 2c3e
00000170: f788 3fbd 5661 b0bd 1888 553d 1eaf 833d
00000180: 7e03 d7ba 743a 9a3e 2cc6 c4be e253 6e3d
00000190: 5576 e4bd 58f8 44be 112f 123e f210 aa3e
000001a0: 2498 84be 8883 16bd 2b5c 033e 33eb 15be
000001b0: 89e2 2dbe 68ce 823c e6f2 9f3c b204 11bd
000001c0: 8d91 e6bd 81e3 f2be af88 27be 1795 59bc
000001d0: 5b37 bd38 f57d 0b3e 7c24 39be e4b1 6bbd
000001e0: cbaf b93d 5666 24be d1fd 8abe cf8b 97bd
000001f0: ed88 7dbe 649c 5abe 8465 4e3c fa5d dabd
00000200: e6e0 25bd 35ec a73d 5b85 4abb 51c7 323d
00000210: 3e71 06bd 5f6e 3fbe bd2e b0bd 0930 843c
00000220: 3ef4 d93d 24c7 e4be 5edb 003e e33a 48be
00000230: 0007 463e 92fb 93bd 2e69 86bd 5434 643d
00000240: 5d04 23be f061 863e bb99 103d 71d0 5dbd
00000250: 190d 9cbd 8270 c43d db46 8ebd b8b0 0abe
00000260: c71d cdbc bd00 913e 0b43 0a3e 7340 7d3c
00000270: b98d 9b3e 2db3 863e fbbf 01bd bbc6 d43d
00000280: 5e89 06be b885 083d e939 92be 04a7 aebe
00000290: 3e95 7cbe 7883 863d a4ae 1ebd 48e3 40be
000002a0: ab00 a6bd e784 023e 41d8 ce3d 68e7 fa3d
000002b0: 164e 30be cf7e dabb dfe4 b9bd 593b c43c
000002c0: dcb9 4a3c 76cf 5a3c 7618 893d 3108 1c3b
000002d0: 3535 a8bd 84fa 5c3e a757 34bd f043 5cbd
000002e0: 7867 81bd 11c4 8dbd 1b90 79be da25 2ebe
000002f0: bd4d 17bd 6fc2 213c 2efb dfbc 5761 643e
00000300: 628d 7c3e ea8b 48bd ecc7 6ebd a39b c9bd
00000310: bf92 8cbd 16e9 013f c9bd 52bd b073 33bd
00000320: 375b e5bd 52d5 b9bd 0f75 89bd 011b 1f3d
00000330: 0a71 c6bd b76f a0bc 8d28 7bbe 7227 fbbc
00000340: 8b40 9c3d 9233 86bd 409f 50bb e8ed 5c3e
00000350: 8d3f cebd af17 a13d a866 55bd 8c75 473d
00000360: 1aa6 86bd dec2 e6be aea6 41be 25f3 13be
00000370: 758a 173e ad4a 493c d34a 8d3b 178f be3d
00000380: 362d 5fbd 976b 8c3d cdb6 d0bd 0ff1 703d
00000390: 3b90 8f3e 25b3 5d3d 1ae3 5cbd d7f3 a93e
000003a0: 1589 453d 23b0 17bd c2dd 0fbf 7ba7 adbd
000003b0: 15b3 18bf 5740 ea3c d367 e3bd 001b 1c3b
000003c0: 75dc cf3a bad7 13bd a4cc 37be c5cc 8a3d
000003d0: e776 253e 41a6 22be 8cae 4dbe 97be c1be
000003e0: f51a 67bb 4cdd 43bc d542 9bbc 2783 0f3e
000003f0: 3420 82be 37a8 663d 0d4b 653c 3fac fc3d

fc2.bias f4 [80]
0.2931735 -0.10298655 -0.013424385 0.074771106 -0.11487188 -0.09200942 -0.03190013 -0.06470935
-0.036248557 0.07856265 -0.0019775452 0.09034871 -0.07088579 -0.06850353 0.1368036 0.06822839
-0.070441045 -0.04518431 -0.016976085 -0.088858455 -0.09322923 -0.019742128 -0.16877472 -0.0017940961
-0.07668304 0.038923066 0.044576198 0.061551325 -0.04685151 0.15591732 0.3477039 -0.13230275
0.04833392 0.31903818 -0.01200448 0.06085958 -0.04066993 -0.043074105 -0.060502145 -0.060952585
-0.08295211 0.012866969 0.18836762 -0.036236648 -0.13597406 0.13894527 -0.13627566 0.042580478
0.16734515 -0.122960575 0.03434524 -0.07421585 -0.0136393225 0.17694561 -0.045698423 0.17050838
0.09868872 0.00070519163 0.2718581 0.07630603 -0.0010843494 0.2896845 0.16772942 -0.040922765
-0.046863608 0.13125658 0.13346782 0.12162404 0.20132042 0.017211555 -0.09608918 -0.018263398
-0.001113044 0.16947305 0.1312372 -0.028157176 -0.029444763 -0.08391571 -0.07091058 0.2381332
00000000: d61a 963e 9dea d2bd f4f1 5bbc 9821 993d
00000010: f341 ebbd 6f6f bcbd b6a9 02bd 5686 84bd
00000020: 5e79 14bd 74e5 a03d b499 01bb bf08 b93d
00000030: 922c 91bd 944b 8cbd 3e16 0c3e 53bb 8b3d
00000040: 6543 90bd 2f13 39bd 6e11 8bbc 6cfb b5bd
00000050: f7ee bebd 3eba a1bc 48d3 2cbe e027 ebba
00000060: ff0b 9dbd cb6d 1f3d 8895 363d 3e1d 7c3d
00000070: 5ee7 3fbd caa8 1f3e 3f06 b23e 5f7a 07be
00000080: caf9 453d f958 a33e 70ae 44bc e547 793d
00000090: 8395 26bd 796e 30bd 19d1 77bd 6ba9 79bd
000000a0: cce2 a9bd fbcf 523c 71e3 403e e16c 14bd
000000b0: c93c 0bbe ab47 0e3e d98b 0bbe de68 2e3d
000000c0: 875c 2b3e c1d2 fbbd 98ad 0c3d 7bfe 97bd
000000d0: 7777 5fbc 3b31 353e 452e 3bbd c099 2e3e
000000e0: 501d ca3d 9cdc 383a fc30 8b3e 5646 9c3d
000000f0: ba20 8eba 8751 943e 43c1 2b3e a19e 27bd
00000100: 0ef4 3fbd 2068 063e caab 083e 0616 f93d
00000110: f126 4e3e 3fff 8c3c 67ca c4bd 1f9d 95bc
00000120: 8fe3 91ba 588a 2d3e 0b63 063e e1a9 e6bc
00000130: 2536 f1bc 00dc abbd 9139 91bd 31d9 733e

fc3.weight f4 [4, 80]
0.0655442 -0.02536336 0.43439615 0.10335628 0.41571578 -0.07011038 0.19149987 -0.1538491
0.09765806 0.19799715 0.13117486 0.048866685 0.2862028 -0.12630107 0.24648853 0.18062696
-0.15518716 0.033579744 -0.26040944 -0.02188834 -0.41171536 0.093633816 -0.122463316 0.044197977
-0.05780161 0.21705928 0.0910064 -0.2775491 0.10970585 0.09110026 0.10301884 0.16568124
-0.33191395 0.13862567 0.16774409 0.058156826 0.06398056 0.0491928 0.09345713 0.08233428
0.2404802 0.11092009 0.19324793 -0.15384337 0.13396165 0.14703542 0.07330175 0.14427668
0.25852442 -0.17303152 0.20340842 0.300953 0.012683222 0.048837304 -0.14927904 0.094717845
0.02991525 0.6279448 0.17305364 -0.25819677 -0.18930423 0.15428342 0.09368372 0.05982056
0.17794931 0.070664614 0.074442506 0.30276212 0.02950509 0.1153651 -0.8824563 -0.018130923
0.03341355 0.019897051 0.02192715 -0.08253 0.2186576 -0.17160201 0.29054838 0.16629612
0.14562474 0.009242334 0.32916895 0.082842946 0.3647733 -0.0020671636 0.21474487 -0.30406436
0.13167794 0.035187192 0.06873679 0.1037852 0.31174237 -0.16875185 0.21286356 0.2491798
-0.20157737 0.10369422 -0.110902704 0.03681824 0.16093688 0.041042384 -0.052685693 -0.006918615
-0.11959233 0.06178849 0.016395947 -0.14431031 0.2684493 0.084028885 0.13656545 0.09409635
0.12177821 0.14358339 0.118224904 0.07159632 -0.17534815 -0.028759604 0.011646973 -0.07837142
0.15096773 0.00027390543 0.15697351 -0.04599506 0.23860024 0.13068205 0.11764628 0.3496632
0.44975883 -0.1393735 0.30869022 0.21309605 0.162863 0.16666749 -0.23980536 0.045558818
-0.0044150464 0.5738989 0.13243136 -0.013925968 -0.41953763 0.15498118 0.08503877 -0.012526215
-0.055304784 0.042526316 0.09883049 0.1972292 0.08567177 0.10478978 -0.12124568 -0.092194006
0.113292456 0.04273573 -0.002759117 0.36845067 0.37492755 -0.22004953 0.19473131 0.11284937
0.16632128 0.14247814 0.19255319 -0.091597795 0.275695 -0.07266145 0.21757257 -0.21150832
-0.21880907 0.35767096 0.11279729 0.21976711 0.54404324 -0.2906237 0.07303588 0.038120292
-0.22344787 -0.037442435 -0.07312658 0.4175577 0.48298007 -0.20297647 -0.31381416 0.32756752
0.06559226 -0.013663456 -0.046922874 -0.22327428 0.11921418 0.058293324 0.0849139 -0.16611814
0.11146344 0.14714606 -0.11378863 0.08269414 -0.39478818 -0.21748088 0.1914709 0.09621728
0.4704481 0.068942934 0.19320688 -0.1020203 -0.35699934 0.138626 0.49021754 0.079204045
0.27394825 0.06328573 0.16778752 0.062075388 0.37517053 0.25493962 0.16518568 0.061963204
0.073583595 0.6526782 0.17700374 -0.29231977 -0.32445663 0.047530405 0.13349481 -0.029750131
-0.29887193 0.26907498 0.015257109 -0.034385588 0.05773989 0.1507596 -0.29827327 -0.2624338
0.15870664 0.16249013 0.13767366 -0.38512558 -0.20330828 -0.15675874 -0.1200522 0.13386078
0.1685315 -0.31024912 0.47377843 -0.07317864 0.17100966 -0.010757603 0.23516048 0.2138405
-0.05221655 -0.19657129 -0.106582195 0.1729994 0.23254608 0.123813696 0.12819873 0.35549945
00000000: 0a3c 863d d2c6 cfbc 2c69 de3e 75ac d33d
00000010: b3d8 d43e 0896 8fbd 8b18 443e 9e8a 1dbe
00000020: f300 c83d c4bf 4a3e b452 063e 6f28 483d
00000030: 2c89 923e 1155 01be 7d67 7c3e 46f6 383e
00000040: 62e9 1ebe ea8a 093d 6354 85be 2d4f b3bc
00000050: 5bcc d2be 16c3 bf3d 0cce fabd f008 353d
00000060: 62c1 6cbd ca44 5e3e 9061 ba3d ea1a 8ebe
00000070: 76ad e03d c692 ba3d 8bfb d23d 58a8 293e
00000080: a0f0 a9be e3f3 0d3e 1bc5 2b3e da35 6e3d
00000090: 3d08 833d 647e 493d 7466 bf3d e09e a83d
000000a0: 7140 763e 122a e33d c9e2 453e 1e89 1dbe
000000b0: 3e2d 093e 7490 163e 3a1f 963d 44bd 133e
000000c0: 505d 843e 2d2f 31be 4c4a 503e 8316 9a3e
000000d0: 4acd 4f3c a009 483d 9bdc 18be 6efb c13d
000000e0: d410 f53c fec0 203f f934 313e 5e32 84be
000000f0: f8d8 41be 79fc 1d3e 40dd bf3d 6706 753d
00000100: 5838 363e 9cb8 903d 5075 983d a303 9b3e
00000110: a9b4 f13c 8a44 ec3d a8e8 61bf 4d87 94bc
00000120: a6dc 083d 24ff a23c 91a0 b33c 7d05 a9bd
00000130: c7e7 5f3e 70b8 2fbe c2c2 943e 8849 2a3e
00000140: a71e 153e 296d 173c d588 a83e 90a9 a93d
00000150: 91c3 ba3e 4079 07bb 14e6 5b3e 53ae 9bbe
00000160: 95d6 063e 7220 103d e0c5 8c3d 568d d43d
00000170: b29c 9f3e 49cd 2cbe e8f8 593e fd28 7f3e
00000180: 4c6a 4ebe a35d d43d f520 e3bd b9ce 163d
00000190: a3cc 243e 0f1c 283d f4cc 57bd 8db5 e2bb
000001a0: d3ec f4bd ed15 7d3d cb50 863c 15c6 13be
000001b0: 3072 893e 5617 ac3d d0d7 0b3e 96b5 c03d
000001c0: db66 f93d 8607 133e e61f f23d 17a1 923d
000001d0: 778e 33be 4399 ebbc f2d2 3e3c 3281 a0bd
000001e0: 4997 1a3e f79a 8f39 aabd 203e 5165 3cbd
000001f0: 9f53 743e 84d1 053e 88f0 f03d 0e07 b33e
00000200: ca46 e63e edb7 0ebe a50c 9e3e da35 5a3e
00000210: 8fc5 263e e2aa 2a3e 898f 75be e29b 3a3d
00000220: 18ac 90bb 0aeb 123f 169c 073e be29 64bc
00000230: a3cd d6be 63b3 1e3e cf28 ae3d c13a 4dbc
00000240: 4587 62bd 1330 2e3d a467 ca3d 74f6 493e
00000250: ae74 af3d 069c d63d a84f f8bd 36d0 bcbd
00000260: e005 e83d a90b 2f3d 4dd2 34bb 91a5 bc3e
00000270: 81f6 bf3e aa54 61be a567 473e 921d e73d
00000280: 2050 2a3e cae5 113e aa2c 453e a097 bbbd
00000290: e527 8d3e 87cf 94bd 58cb 5e3e a395 58be
000002a0: 7c0f 60be a620 b73e 4402 e73d a10a 613e
000002b0: 6b46 0b3f a1cc 94be d693 953d 0624 1c3d
000002c0: 85cf 64be 3d5d 19bd 63c3 95bd 1fca d53e
000002d0: 2a49 f73e 10d9 4fbe 40ac a0be eeb6 a73e
000002e0: 3c55 863d b0dc 5fbc 3332 40bd 03a2 64be
000002f0: 9026 f43d fbc4 6e3d 57e7 ad3d e01a 2abe
00000300: f246 e43d 75ad 163e 030a e9bd 8c5b a93d
00000310: ad21 cabe 4fb3 5ebe f310 443e 910d c53d
00000320: 93de f03e f431 8d3d 06d8 453e 05f0 d0bd
00000330: 9ec8 b6be f9f3 0d3e cbfd fa3e bb35 a23d
00000340: f242 8c3e f39b 813d 7ed0 2b3e c342 7e3d
00000350: 5a16 c03e 7287 823e 6f26 293e 21cd 7d3d
00000360: ffb2 963d eb15 273f 7840 353e f0aa 95be
00000370: 2e1f a6be 3eaf 423d ddb2 083e 8cb6 f3bc
00000380: be05 99be 32c4 893e f4f8 793c e7d7 0cbd
00000390: aa80 6c3d b960 1a3e 46b7 98be b95d 86be
000003a0: fe83 223e d063 263e 53fa 0c3e 2e2f c5be
000003b0: 0c30 50be 5d85 20be eedd f5bd cd12 093e
000003c0: 8693 2c3e f9d8 9ebe 1693 f23e afde 95bd
000003d0: 281d 2f3e a840 30bc e9cd 703e 01f9 5a3e
000003e0: 05e1 55bd fc49 49be c447 dabd c126 313e
000003f0: 8f20 6e3e 0992 fd3d 8746 033e 0604 b63e

fc3.bias f4 [4]
0.22607158 0.16161473 0.15170442 0.11987251
00000000: 4f7f 673e 557e 253e 6758 1b3e b87f f53d
