Prioritized Experience Replay/per_checkpoint_3.pth (torch_old, 40359 bytes, 6 tensors)

fc1.weight f4 [80, 37]
-0.08882188 0.1630715 -0.4080064 -0.5725518 -0.37093404 -0.63399816 -0.14550723 0.44395658
-0.64024633 -0.17946272 0.20305608 -0.03180017 -0.5492728 -0.16089916 0.08658055 -0.16485426
0.055548444 0.17518224 -0.79526293 -0.5975175 -0.14898199 0.30938026 0.113660164 -0.01815217
-0.35873723 -0.5261893 -0.026813243 -0.0939748 0.42489767 -0.45135522 0.103102356 0.10393417
-0.38952196 -0.27176228 -0.04374034 -0.07479685 -0.12901257 0.028035382 0.11640341 0.13714345
-0.27721858 -1.3399805 -0.09854718 -0.5012456 0.06358542 -0.7292358 -1.5161669 -0.21301982
-0.07174076 -0.059658505 -0.5810116 -0.18892892 -0.087083 -0.20102014 0.32764468 -0.53032255
-2.0165823 -0.09083242 -0.20325471 -0.18155222 -0.36509907 -0.16567524 -0.45879063 -0.36369124
0.24633142 -0.65292037 -2.749052 -0.1646178 -0.0525513 0.026300553 -0.3192941 -0.82589513
0.15768576 -0.010848407 0.062855095 -0.124963835 -0.010431843 0.28494883 -0.022734802 -0.5627115
-0.23199518 0.20547004 0.09892875 -0.5398348 -0.08492055 0.35671398 -0.5729441 -0.44788143
-1.1916616 0.36320755 -0.42448714 -0.18989028 -0.2769851 0.10421381 -0.090399705 -0.25434744
0.053103894 -0.02813457 -0.27298453 -0.23866887 -0.33631364 0.3800933 -0.119853094 -0.36622378
-0.351494 -0.046340115 -0.13401511 -0.007331683 -0.0889658 0.07276666 0.010081864 0.514787
-0.760297 -0.5236262 -0.49333605 -2.4718823 -0.00087205914 0.0892306 0.019450236 0.15579851
0.044692766 0.010056432 0.029368035 0.013990581 -0.003449659 -0.060481675 0.04503423 0.030860908
0.04702536 0.057945784 -0.023997676 0.014425707 0.068465844 0.059735455 0.10039005 0.060577206
0.044409245 0.100917496 0.21722966 0.2834331 0.21772258 0.14151433 0.15748514 0.13800389
0.1890771 -0.05310852 -0.01834773 -0.009738042 -0.01814873 -0.00715389 -0.0012591877 0.0062847934
-0.03146372 0.52853334 -0.6934787 -0.53486526 -0.9741358 -2.3580751 0.0144760795 0.06504078
0.041079856 0.048142094 -0.016376263 0.007037132 0.039202973 0.032236557 0.06775257 0.07514423
-0.020158859 0.12434706 0.155404 0.15952733 0.1495267 0.17090578 0.14804278 0.14658512
0.23939219 0.065073125 0.116377056 0.20322995 0.17891532 0.24994794 0.14591804 -0.019433461
0.0019784612 -0.26266515 0.024014255 -0.03448361 -0.079770744 -0.17023934 -0.16773266 0.27399552
-0.07712549 -0.4096166 -0.6482566 0.22094962 -0.14097956 -0.12701127 -0.40521747 -0.30394074
-0.18810399 0.27023104 -0.41617388 -0.16407718 -1.0092621 0.11564403 0.18876082 -0.3168261
-0.12192933 -0.09068362 -0.30650076 0.24910782 -0.0024404768 -0.24324808 -0.49963486 -0.37339774
0.18919201 -0.17406505 -0.18848456 -0.3288809 0.29916063 -0.0024119753 0.053754296 0.11181471
0.09531711 -0.11618892 -0.18243583 -0.108055875 0.025500448 0.009966992 0.3440049 0.3244385
0.014768565 0.19497296 0.15436073 0.17716506 -0.14025927 -0.09335754 -0.09345324 0.04118346
0.12887733 0.07440242 -0.11258666 0.023733594 -0.0053475285 0.24634741 0.3973042 -0.06763182
-0.047640286 -0.05595856 0.039601516 -0.26134554 0.30210713 -0.34545922 0.025410485 -0.22515674
00000000: 3fe8 b5bd 37fc 263e 37e6 d0be c192 12bf
00000010: 11eb bdbe b44d 22bf d9ff 14be 474e e33e
00000020: 2fe7 23bf 13c5 37be efed 4f3e e540 02bd
00000030: 249d 0cbf c0c2 24be 2551 b13d 8ecf 28be
00000040: c486 633d f962 333e 5a96 4bbf e8f6 18bf
00000050: bc8e 18be 1767 9e3e a9c6 e83d dcb3 94bc
00000060: 68ac b7be 58b4 06bf 72a7 dbbc dc75 c0bd
00000070: 308c d93e 0818 e7be 5427 d33d 70db d43d
00000080: 6c6f c7be 6d24 8bbe 1229 33bd 172f 99bd
00000090: df1b 04be 75aa e53c e964 ee3d 556f 0c3e
000000a0: 98ef 8dbe 7b84 abbf 1bd3 c9bd a251 00bf
000000b0: 1339 823d 33af 3abf c211 c2bf de21 5abe
000000c0: d2ec 92bd 7a5c 74bd 2dbd 14bf 9576 41be
000000d0: 9258 b2bd 39d8 4dbe 0bc1 a73e 38c3 07bf
000000e0: af0f 01c0 5906 babd 0122 50be d3e8 39be
000000f0: 44ee babe c5a6 29be 9be6 eabe bd35 babe
00000100: 4e3e 7c3e ca25 27bf 78f0 2fc0 9291 28be
00000110: 0840 57bd 4274 d73c 847a a3be dd6d 53bf
00000120: 6078 213e 84bd 31bc 2cba 803d 0aed ffbd
00000130: 52ea 2abc d0e4 913e 563e babc dc0d 10bf
00000140: 2590 6dbe bd66 523e 289b ca3d 9d32 0abf
00000150: d3ea adbd 37a3 b63e 77ac 12bf b750 e5be
00000160: 5e88 98bf 57f6 b93e 6156 d9be 9972 42be
00000170: fed0 8dbe 0d6e d53d 7b23 b9bd d439 82be
00000180: 7883 593d 787a e6bc a1c4 8bbe 9d65 74be
00000190: 4d31 acbe 979b c23e 8a75 f5bd af81 bbbe
000001a0: 06f7 b3be 22cf 3dbd 423b 09be 9d3e f0bb
000001b0: b433 b6bd b006 953d 672e 253c 15c9 033f
000001c0: d3a2 42bf 5e0c 06bf 8b96 fcbe 5233 1ec0
000001d0: e69a 64ba 88be b63d 1a56 9f3c a589 1f3e
000001e0: c30f 373d bcc3 243c 3c95 f03c c038 653c
000001f0: ad13 62bb a2bb 77bd d075 383d 04d0 fc3c
00000200: aa9d 403d 8f58 6d3d c696 c4bc cd59 6c3c
00000210: d237 8c3d 2aad 743d 4c99 cd3d ce1f 783d
00000220: 78e6 353d d5ad ce3d 7471 5e3e 251e 913e
00000230: abf2 5e3e 22e9 103e c943 213e e450 0d3e
00000240: 6d9d 413e 5288 59bd fb4d 96bc 4f8c 1fbc
00000250: a5ac 94bc 2e6b eabb 540b a5ba abf0 cd3b
00000260: 1ae0 00bd f64d 073f d287 31bf eeec 08bf
00000270: f760 79bf b4ea 16c0 142d 6d3c 1a34 853d
00000280: 5a43 283d a530 453d 8327 86bc be97 e63b
00000290: 4c93 203d 7b0a 043d dcc1 8a3d 38e5 993d
000002a0: 3124 a5bc aca9 fe3d 3a22 1f3e 225b 233e
000002b0: 871d 193e ed01 2f3e 8798 173e 691a 163e
000002c0: 3a23 753e 0f45 853d 1857 ee3d 831b 503e
000002d0: 9435 373e 5af2 7f3e 8a6b 153e ec32 9fbc
000002e0: 12a9 013b 0c7c 86be 8bb9 c43c b03e 0dbd
000002f0: d85e a3bd 3953 2ebe 1cc2 2bbe 2449 8c3e
00000300: f8f3 9dbd 44b9 d1be 25f4 25bf 9e40 623e
00000310: f25c 10be 3e0f 02be aa78 cfbe 1f9e 9bbe
00000320: 559e 40be b95b 8a3e be14 d5be d903 28be
00000330: 802f 81bf c7d6 ec3d 844a 413e 0837 a2be
00000340: 16b6 f9bd 55b8 b9bd abed 9cbe 1f16 7f3e
00000350: 68f0 1fbb 0616 79be 24d0 ffbe fd2d bfbe
00000360: 8dbb 413e 1c3e 32be 1902 41be 1463 a8be
00000370: 952b 993e 3b12 1ebb 772d 5c3d 1cff e43d
00000380: 9e35 c33d 75f4 edbd 75d0 3abe 664c ddbd
00000390: 51e6 d03c 984c 233c 6921 b03e ce1c a63e
000003a0: daf7 713c fea6 473e bd10 1e3e c26a 353e
000003b0: 20a0 0fbe 3d32 bfbd 6a64 bfbd fdaf 283d
000003c0: 6bf8 033e 4c60 983d d693 e6bd f46c c23c
000003d0: 523a afbb 7f42 7c3e 756b cb3e 8d82 8abd
000003e0: 7622 43bd ce34 65bd 3335 223d 15cf 85be
000003f0: c9ad 9a3e 08e0 b0be a629 d03c 7d8f 66be

fc1.bias f4 [80]
0.0069883815 -0.17939831 -0.029389933 -0.20807362 0.16858558 0.08793874 0.044320453 -0.06531548
-0.036593556 -0.0020433273 0.27679035 0.12312569 -0.25582868 0.20391817 -0.12288847 -0.18983282
0.19307105 -0.053860098 -0.21179771 -0.02393816 0.047444917 -0.0961827 -0.21622257 -0.16458255
-0.24905266 -0.09552086 -0.04547262 -0.016235577 -0.08938221 0.002747353 0.0055973865 -0.28150517
-0.054262925 -0.13917781 -0.22637941 -0.19664955 0.064024605 -0.046225976 -0.13621119 -0.09070338
0.08237015 -0.2535296 -0.09268528 0.23556708 -0.066302285 -0.28736073 0.033984438 0.05747397
0.004190079 -0.30853385 0.039896626 0.030561803 -0.22263339 0.05032534 -0.272601 0.1581392
0.053698584 -0.14658664 0.045435864 0.12479749 -0.011598973 0.20179714 0.01834724 -0.1779857
0.02299134 -0.06982026 0.12773745 -0.1952751 -0.060820937 -0.15527439 0.087037005 0.02187336
0.05597347 -0.2953456 -0.021867238 -0.082803704 -0.08705396 -0.22721289 0.091040686 -0.16924281
00000000: cbfe e43b 31b4 37be 28c3 f0bc 4011 55be
00000010: b3a1 2c3e 3a19 b43d 5d89 353d 1fc4 85bd
00000020: 20e3 15bd 58e9 05bb 77b7 8d3e 5229 fc3d
00000030: fafb 82be edcf 503e f3ac fbbd 8963 42be
00000040: 6bb4 453e 689c 5cbd 80e1 58be f619 c4bc
00000050: 9a55 423d 6ffb c4bd 7369 5dbe 5488 28be
00000060: a907 7fbe 71a0 c3bd 7f41 3abd 7900 85bc
00000070: 050e b7bd ef0c 343b 486a b73b 7221 90be
00000080: cd42 5ebd a184 0ebe 01d0 67be 805e 49be
00000090: 551f 833d 7357 3dbd f27a 0bbe b2c2 b9bd
000000a0: aeb1 a83d a2ce 81be c8d1 bdbd 7f38 713e
000000b0: 7ec9 87bd f220 93be 4433 0b3d d369 6b3d
000000c0: ee4c 893b 26f8 9dbe a56a 233d bf5c fa3c
000000d0: 02fa 63be f221 4e3d 5c92 8bbe 3eef 213e
000000e0: 0cf3 5b3d cf1a 16be f51a 3a3d d495 ff3d
000000f0: 9e09 3ebc e9a3 4e3e f34c 963c e241 36be
00000100: 5658 bc3c edfd 8ebd 9bcd 023e 32f6 47be
00000110: 601f 79bd 4000 1fbe 7540 b23d c32f b33c
00000120: 7044 653d 8a37 97be ec22 b3bc fd94 a9bd
00000130: 5949 b2bd 7faa 68be 8a73 ba3d fd4d 2dbe

fc2.weight f4 [80, 80]
-0.06497223 -0.2539809 -0.04706595 -0.04087497 -0.17147215 -0.1618835 -0.051974576 -0.1423755
-0.09167215 -5.427165e-05 0.22271316 0.07068378 -0.20778209 0.20559296 0.06121758 -0.14025788
0.11025202 -0.00012162988 0.024966948 0.010877244 -0.005488121 -0.118192635 -0.12777048 -0.065239035
-0.038719773 -0.092848115 0.08258809 0.14483356 0.039592177 0.13325381 0.10199295 -0.0985528
-0.02534522 0.100794315 0.100188196 -0.06802653 0.13488004 0.012518548 -0.0060195965 0.0030242528
0.088032 0.048164047 0.02234814 0.13319005 -0.06841855 -0.021126803 0.15758653 -0.15945426
0.024828006 -0.14288141 -0.087801956 0.09314157 0.043352272 0.08357931 -0.24805826 0.09059612
-0.07473662 -0.18557712 -0.02633424 0.21580657 -0.08065357 0.102958195 0.16764487 -0.056052078
0.17004123 -0.19320694 -0.036540885 0.13702682 0.13343826 -0.29414877 -0.05786337 -0.21163635
0.062935375 -0.0053472617 0.026428958 -0.061007936 -0.052942377 0.20113224 0.15103944 -0.064165406
0.00779907 0.24236222 -0.018699232 0.2142791 0.040587354 0.41153106 0.12472488 -0.3766061
-0.08848687 -0.07198782 -0.17065349 0.09694953 -0.08533497 -0.1458097 -0.32554626 -0.12628019
-0.19621715 0.22967012 -0.5544234 -0.23126534 -0.15437491 -0.055732727 0.2423147 0.3524322
-0.3121555 -0.048446912 0.14205445 -0.21970525 -0.23550558 0.006459067 -0.094649635 -0.104378894
-0.25313947 -0.49524143 -0.25681823 -0.17846632 -0.09955418 0.1682567 -0.18807897 -0.25058705
0.18271753 -0.43088067 0.012749847 -0.12057794 -0.3553593 -0.45456007 -0.028397027 -0.19531636
-0.09349497 -0.03890892 0.054599915 0.029248156 0.089743674 -0.39076737 -0.058262125 -0.08057695
0.16032411 -0.534976 -0.068449594 -0.29706275 0.061998736 -0.12860228 -0.23451944 0.04239742
-0.20241833 0.41513368 -0.12814401 -0.070154496 -0.09013331 -0.02079809 -0.13209374 -0.09724904
-0.116354555 0.1704129 0.10587896 0.098076336 0.20733319 0.19161996 -0.09067838 0.0028379017
-0.08378768 0.3249709 -0.22217503 -0.5378347 -0.41204616 -0.083334714 0.0463742 0.08207296
-0.12179707 -0.17897356 0.084662795 0.012766142 -0.1866241 -0.02645747 0.15809885 0.26648852
-0.053112686 0.032262392 0.166755 0.16502771 0.20787036 0.042599756 0.0061682076 0.12093176
-0.02279336 -0.029647605 -0.12750162 -0.10313121 0.09334152 0.07759965 0.24382909 0.1328116
0.08303823 -0.06486232 0.36859354 0.22721529 -0.10074843 0.61322117 -0.36364383 0.014832873
-0.16420421 0.44040093 0.4280328 -0.029440627 0.40046158 0.15490746 -0.29072073 -0.033299126
0.0569656 0.2782046 0.24854457 0.21221189 0.26949987 0.2714009 0.072300434 0.12934712
0.13117169 -0.35388798 -0.063245334 -0.22862676 0.07117528 -0.022699025 -0.038326517 0.2956062
-0.06427979 -0.07101093 -0.14065388 0.077865146 0.16893543 0.12426481 -0.3357881 0.39233914
0.056475908 -0.0492222 -0.7557072 0.07388415 -0.5325117 0.15862451 -0.17268974 -0.111465156
-0.43981472 0.6706769 -0.20713836 -0.33501372 0.03966437 -0.38977078 -0.22250442 0.089686885
-0.14405118 0.0220455 -0.03614022 0.13649443 -0.3817076 0.12230455 -0.60006195 0.2585094
00000000: 2910 85bd c909 82be 3ac8 40bd 836c 27bd
00000010: 6596 2fbe cac4 25be 4be3 54bd e2ca 11be
00000020: 9cbe bbbd bea1 63b8 eb0e 643e a8c2 903d
00000030: d4c4 54be f686 523e 49bf 7a3d c39f 0fbe
00000040: d0cb e13d 8b13 ffb8 7c87 cc3c 7836 323c
00000050: b2d5 b3bb fb0e f2bd 44d6 02be 0b9c 85bd
00000060: a098 1ebd 2727 bebd f223 a93d 404f 143e
00000070: 682b 223d b073 083e aee1 d03d 0dd6 c9bd
00000080: c7a0 cfbc 406d ce3d 782f cd3d 7e51 8bbd
00000090: fe1d 0a3e 991a 4d3c 0940 c5bb 8b32 463b
000000a0: 1f4a b43d aa47 453d 7213 b73c f962 083e
000000b0: 061f 8cbd 1e12 adbc 5d5e 213e fa47 23be
000000c0: 1a64 cb3c 814f 12be 83d1 b3bd 02c1 be3d
000000d0: 2792 313d a12b ab3d fc02 7ebe 758a b93d
000000e0: 830f 99bd ee07 3ebe e7ba d7bc 66fc 5c3e
000000f0: b32d a5bd bfdb d23d 19ab 2b3e dd96 65bd
00000100: 4a1f 2e3e 0ad8 45be e5ab 15bd c250 0c3e
00000110: 0aa4 083e ab9a 96be 2402 6dbd 33b7 58be
00000120: 43e4 803d 1538 afbb 8b81 d83c 75e3 79bd
00000130: 1bda 58bd 9cf5 4d3e 15aa 1a3e 2769 83bd
00000140: 578f ff3b cd2d 783e 222f 99bc fb6b 5b3e
00000150: ed3e 263d 33b4 d23e c26f ff3d 84d2 c0be
00000160: 9b38 b5bd 5a6e 93bd cabf 2ebe 7a8d c63d
00000170: 1ac4 aebd 234f 15be 00ae a6be 984f 01be
00000180: 26ed 48be a52e 6b3e b1ee 0dbf d2d0 6cbe
00000190: 7514 1ebe 0048 64bd 5821 783e fe71 b43e
000001a0: d8d2 9fbe 4570 46bd b976 113e 6afa 60be
000001b0: 6028 71be 95a6 d33b abd7 c1bd 9ac4 d5bd
000001c0: 7f9b 81be 4990 fdbe ae7d 83be e0bf 36be
000001d0: 10e3 cbbd 7c4b 2c3e c697 40be f24c 80be
000001e0: 4e1a 3b3e 649c dcbe bce4 503c 91f1 f6bd
000001f0: a7f1 b5be 19bc e8be e2a0 e8bc 0301 48be
00000200: 4a7a bfbd f65e 1fbd 29a4 5f3d d499 ef3c
00000210: 88cb b73d a912 c8be 44a4 6ebd 8705 a5bd
00000220: 012c 243e 30f4 08bf 4d2f 8cbd 9c18 98be
00000230: 63f2 7d3d 51b0 03be dd25 70be eba8 2d3d
00000240: c046 4fbe 678c d43e 2f38 03be 29ad 8fbd
00000250: d097 b8bd c260 aabc 9543 07be 812a c7bd
00000260: 4c4b eebd b880 2e3e 11d7 d83d 3fdc c83d
00000270: 274f 543e 0638 443e 96b5 b9bd 17fc 393b
00000280: e098 abbd 9662 a63e da81 63be 89af 09bf
00000290: b7f7 d2be 64ab aabd e0f2 3d3d de15 a83d
000002a0: be70 f9bd d844 37be b063 ad3d 1529 513c
000002b0: 631a 3fbe 56bd d8bc aae4 213e 2f71 883e
000002c0: b08c 59bd 9225 043d d3c1 2a3e 06fd 283e
000002d0: f8db 543e 157d 2e3d ad1e ca3b 12ab f73d
000002e0: 24b9 babc 89df f2bc c98f 02be 7536 d3bd
000002f0: d729 bf3d 91ec 9e3d 55ae 793e c4ff 073e
00000300: f30f aa3d 89d6 84bd 4bb8 bc3e 20ab 683e
00000310: 3155 cebd 10fc 1c3f 862f babe 9405 733c
00000320: 2625 28be 3b7c e13e 1d27 db3e 782d f1bc
00000330: 4d09 cd3e 10a0 1e3e 59d9 94be aa64 08bd
00000340: c354 693d d570 8e3e 7882 7e3e 134e 593e
00000350: e3fb 893e 0ff5 8a3e 4012 943d 9273 043e
00000360: df51 063e ce30 b5be c586 81bd 221d 6abe
00000370: 58c4 913d 4ef3 b9bc 44fc 1cbd b259 973e
00000380: 1fa5 83bd 2e6e 91bd 9207 10be c377 9f3d
00000390: 69fd 2c3e 8c7e fe3d 6bec abbe ade0 c83e
000003a0: 4853 673d 389d 49bd 0776 41bf 9350 973d
000003b0: b052 08bf 776e 223e 94d5 30be d847 e4bd
000003c0: 652f e1be 7bb1 2b3f 141c 54be eb86 abbe
000003d0: 1b77 223d 0990 c7be 33d8 63be c2ad b73d
000003e0: 2782 13be c498 b43c c407 14bd 32c5 0b3e
000003f0: 2e6f c3be cf7a fa3d a99d 19bf 585b 843e

fc2.bias f4 [80]
0.5597088 -0.18270834 -0.0031063454 0.16387115 -0.024486285 -0.09200942 0.030840194 -0.069539875
-0.12142854 -0.01323991 -0.0958163 0.31000727 0.0644612 -0.121762365 0.33922315 0.12870868
-0.12590472 0.024260653 -0.032424428 -0.103626885 -0.13930646 -0.089646555 -0.22247608 -0.0077313934
-0.07668304 -0.03416613 -0.05918079 -0.027164474 0.07819173 0.32174307 0.59966016 -0.13230275
0.04833392 0.59081745 -0.082163684 0.21480066 -0.087849244 -0.09258856 0.06652536 -0.0653329
-0.0057400023 0.109492466 0.4357018 -0.14652753 -0.059263557 0.37936887 -0.061492447 0.16510524
0.23696508 -0.19931835 0.11423245 -0.041609634 0.029413873 0.381905 -0.123259716 0.3816638
0.16028967 0.017657755 0.50244063 0.029619379 -0.07603542 0.5165454 0.32712397 -0.005665807
-0.062463444 0.21024705 0.21856701 0.24165572 0.42340446 0.14439595 -0.11403757 -0.040198877
0.14836828 0.33625886 0.1326918 0.060187567 -0.06183754 -0.06433985 0.086934134 0.49840558
00000000: 1349 0f3f e517 3bbe d493 4bbb d7cd 273e
00000010: 7697 c8bc 6f6f bcbd 93a4 fc3c ec6a 8ebd
00000020: 87af f8bd 35ec 58bc 563b c4bd 46b9 9e3e
00000030: 3c04 843d 8c5e f9bd a8ae ad3e 35cc 033e
00000040: 2bed 00be 47be c63c 7acf 04bd 553a d4bd
00000050: 5aa6 0ebe 9d98 b7bd c5d0 63be a157 fdbb
00000060: ff0b 9dbd c9f1 0bbd 8e67 72bd 0888 debc
00000070: fc22 a03d 82bb a43e 5483 193f 5f7a 07be
00000080: caf9 453d d03f 173f 6f45 a8bd b4f4 5b3e
00000090: 4eea b3bd 129f bdbd 733e 883d 41cd 85bd
000000a0: a116 bcbb 963d e03d 4e14 df3e 500b 16be
000000b0: 58be 72bd a33c c23e 81df 7bbd 5911 293e
000000c0: f9a6 723e 1c1a 4cbe b4f2 e93d dd6e 2abd
000000d0: 5df5 f03c 0d89 c33e 976f fcbd 7069 c33e
000000e0: fa22 243e ffa6 903c f39f 003f 57a4 f23c
000000f0: 75b8 9bbd 523c 043f cb7c a73e 3ca8 b9bb
00000100: abd9 7fbd 014b 573e 08d0 5f3e 9974 773e
00000110: 78c8 d83e 88dc 133e 888c e9bd 94a7 24bd
00000120: dbed 173e 1f2a ac3e 5ce0 073e 3d87 763d
00000130: 5c49 7dbd 9cc4 83bd 860a b23d 042f ff3e

fc3.weight f4 [4, 80]
0.11285894 -0.2269971 0.35031295 0.1709709 0.22510466 -0.07011038 0.28408515 -0.21336988
-0.21565892 -0.10083258 0.12433159 0.11301197 0.29179367 -0.2623108 0.21116433 0.22950254
-0.23114516 -0.12227774 -0.24945574 0.6698876 -0.34791902 0.09876786 -0.2793275 0.364565
-0.05780161 -0.086904354 0.14733632 -0.28946477 0.25169954 0.10186835 0.15055922 0.16568124
-0.33191395 0.19741932 0.102582596 0.24473259 0.024513612 -0.3351297 0.15436786 0.076538816
0.1373298 0.16178857 0.22839491 -0.27602306 0.1674656 0.19224904 0.40245813 0.050904922
0.36483988 -0.120124124 0.13458939 0.034623716 0.18574876 0.19664353 -0.48000702 0.13943708
0.23794045 0.3624798 0.22299355 -0.13341632 -0.356094 0.18618977 0.054142866 0.2121571
0.17794931 0.03061627 0.05388556 0.25764608 0.091593385 0.08437486 -0.61951184 -0.30902946
0.024176061 0.109036945 -0.56487274 0.37129942 0.037742592 -0.1753034 0.31387973 0.21486142
0.17108151 0.03980365 0.25772363 0.22400999 0.18120973 -0.0020671636 0.33838835 -0.19466455
-0.05693147 -0.22103164 -0.012257976 0.13456257 0.13965593 -0.13199724 0.28281337 0.17020589
-0.19701055 0.052316587 -0.110902704 0.84082115 0.00080169685 0.09963828 0.06744255 0.2525264
-0.11959233 -0.36913517 -0.06699683 -0.00092635327 0.26552615 0.18487513 0.17480727 0.09409635
0.12177821 0.17724743 -0.011214642 0.18915288 -0.17526586 -0.15224113 0.15186003 -0.07837142
0.15777071 0.19732496 0.16277146 0.18286431 0.3116184 0.1700658 0.3603878 0.18178405
0.5457129 -0.123520724 0.090951644 0.18433267 0.2541533 0.25956622 -0.109341376 0.1417443
0.21182291 0.41080225 0.19230534 -0.049512617 -0.38504466 0.17366606 0.086955905 0.164734
-0.040678047 -0.003062361 0.14252657 0.3003066 0.13181713 0.17759843 -0.22921836 -0.34337693
-0.08593292 0.15537384 0.242802 0.4436162 0.17597343 -0.07621972 0.33430824 0.1635841
0.2182666 0.18262249 0.35902393 -0.19398567 0.19786179 -0.07266145 0.18004234 -0.37820733
0.06575214 0.056566875 0.6174314 0.19635496 0.24269445 -0.19952792 0.11578717 0.09105572
-0.19165815 -0.0942957 -0.07312658 0.9065399 0.5296478 -0.42772362 -0.15945123 0.2155676
0.06559226 -0.3624586 -0.4340729 -0.08114599 0.1993552 0.033853814 0.15664984 -0.16611814
0.11146344 0.18959348 -0.27066836 0.1560893 -0.3967766 -0.2600342 0.21680062 0.088064805
0.2672589 0.035978958 0.2023417 -0.7890611 -0.5612051 0.18074939 0.29946163 0.14538495
0.30003396 -0.41232908 0.29521292 -0.22950704 0.3562316 0.42071593 0.12915578 0.090219826
-0.038396865 0.46213594 0.21114297 0.25044185 -0.35359034 0.093956895 0.17058845 0.18686257
-0.29887193 0.17338163 0.2221282 0.19365227 0.082516976 0.12871717 -0.5156793 0.20861244
0.13222872 0.19098267 0.3419062 -0.46574798 -0.32542908 -0.27613124 0.14664641 0.16852063
0.23994447 -0.4186508 0.34016708 -0.17052774 0.06119756 -0.010757603 0.057749733 0.06076102
0.41047382 -0.46556905 -0.44129628 0.03155971 0.061620224 -0.1776071 0.15142085 0.17475224
00000000: 9722 e73d ee71 68be 385c b33e ff12 2f3e
00000010: d681 663e 0896 8fbd 9c73 913e a27d 5abe
00000020: b1d5 5cbe 5081 cebd 90a1 fe3d d272 e73d
00000030: fb65 953e 9a4d 86be 763b 583e b702 6b3e
00000040: 51b1 6cbe c06c fabd 5371 7fbe c17d 2b3f
00000050: 7122 b2be ce46 ca3d 0404 8fbe 44a8 ba3e
00000060: 62c1 6cbd e9fa b1bd 55df 163e ba34 94be
00000070: c3de 803e 5aa0 d03d 322c 1a3e 58a8 293e
00000080: a0f0 a9be 4a28 4a3e d316 d23d 2e9b 7a3e
00000090: c5d0 c83c 1f96 abbe 9c12 1e3e 62c0 9c3d
000000a0: 2fa0 0c3e e7ab 253e 5be0 693e e552 8dbe
000000b0: 1a7c 2b3e efdc 443e fe0e ce3e ae81 503d
000000c0: 4bcc ba3e a303 f6bd cdd1 093e 99d1 0d3d
000000d0: ec34 3e3e ec5c 493e 7bc3 f5be 98c8 0e3e
000000e0: a9a6 733e f496 b93e 6c58 643e 4a9e 08be
000000f0: f451 b6be 88a8 3e3e e9c4 5d3d b63f 593e
00000100: 5838 363e f9ce fa3c 1bb7 5c3d 30ea 833e
00000110: 5095 bb3d bacc ac3d 5498 1ebf 1c39 9ebe
00000120: e00c c63c c34e df3d 809b 10bf f51a be3e
00000130: fa97 1a3d bc82 33be d8b4 a03e a204 5c3e
00000140: fe2f 2f3e 2709 233d 5af4 833e e062 653e
00000150: 0b8f 393e 4079 07bb 3d41 ad3e 2556 47be
00000160: f930 69bd 1e56 62be aed5 48bc c5ca 093e
00000170: f701 0f3e 492a 07be eacc 903e 744a 2e3e
00000180: 22bd 49be eb49 563d f520 e3bd 0e40 573f
00000190: f728 523a 280f cc3d 521f 8a3d 244b 813e
000001a0: d3ec f4bd 49ff bcbe a235 89bd 84d6 72ba
000001b0: 0bf3 873e e84f 3d3e ad00 333e 96b5 c03d
000001c0: db66 f93d 5a80 353e 9ebd 37bc 4bb1 413e
000001d0: e578 33be 19e5 1bbe 3281 1b3e 3281 a0bd
000001e0: a58e 213e 8e0f 4a3e 90ad 263e c840 3b3e
000001f0: 728c 9f3e bb25 2e3e c084 b83e 9925 3a3e
00000200: d7b3 0b3f 6ff8 fcbd db44 ba3d b4c1 3c3e
00000210: 6220 823e dde5 843e 5fee dfbd 6b25 113e
00000220: 1be8 583e ac54 d23e b1eb 443e becd 4abd
00000230: 9324 c5be 84d5 313e f015 b23d 08b0 283e
00000240: 069e 26bd e4b1 48bb 7cf2 113e c9c1 993e
00000250: 12fb 063e 5ddc 353e 38b8 6abe 1acf afbe
00000260: 99fd afbd 521a 1f3e 16a1 783e aa21 e33e
00000270: 6132 343e 1619 9cbd 732a ab3e 9782 273e
00000280: 4881 5f3e 6401 3b3e fcd1 b73e 2ea4 46be
00000290: 489c 4a3e 87cf 94bd 055d 383e 64a4 c1be
000002a0: 0fa9 863d abb2 673d fc0f 1e3f 4611 493e
000002b0: e584 783e 0c51 4cbe d321 ed3d 6c7b ba3d
000002c0: 0942 44be 1b1e c1bd 63c3 95bd 0013 683f
000002d0: 0097 073f 97fe dabe 2f47 23be c1bd 5c3e
000002e0: 3c55 863d 2c94 b9be ce3e debe de2f a6bd
000002f0: c523 4c3e 4caa 0a3d d168 203e e01a 2abe
00000300: f246 e43d cb24 423e 0b95 8abe e0d5 1f3e
00000310: 4d26 cbbe 3423 85be fb00 5e3e 525b b43d
00000320: 29d6 883e ac5e 133d aa32 4f3e e9ff 49bf
00000330: 23ab 0fbf 5e16 393e 0953 993e cbdf 143e
00000340: 0d9e 993e cc1c d3be 2626 973e e503 6bbe
00000350: fd63 b63e 1468 d73e 6a41 043e 2cc5 b83d
00000360: 0846 1dbd 159d ec3e dd35 583e ea39 803e
00000370: cb09 b5be 796c c03d bdae 2e3e e758 3f3e
00000380: be05 99be f48a 313e 9375 633e c84c 463e
00000390: a9fe a83d 6fce 033e 8f03 04bf 809e 553e
000003a0: f766 073e f690 433e 540e af3e 8576 eebe
000003b0: a49e a6be 1361 8dbe 7a2a 163e ac90 2c3e
000003c0: 01b4 753e 6659 d6be 612a ae3e d39e 2ebe
000003d0: 4baa 7a3d a840 30bc fc8a 6c3d 8ce0 783d
000003e0: a029 d23e 115f eebe 96f1 e1be c144 013d
000003f0: 7d65 7c3d a3de 35be 110e 1b3e 40f2 323e

fc3.bias f4 [4]
0.41429892 0.27425092 0.381986 0.36660597
00000000: fd1e d43e 9e6a 8c3e ab93 c33e c7b3 bb3e
