Prioritized Experience Replay/per_checkpoint_2.pth (torch_old, 40359 bytes, 6 tensors)

fc1.weight f4 [80, 37]
-0.054712422 0.13903733 -0.21307662 -0.2434125 -0.3782879 -0.06351259 -0.012692628 0.32939318
-0.61919296 -0.22967288 0.14329372 -0.07239272 -0.15288499 -0.27544728 0.015247915 -0.014996257
0.16926219 0.0007967896 -0.23409973 -0.50083995 0.21413118 0.24113174 -0.21091403 0.01180356
-0.33869815 0.038500745 0.026285274 -0.10673154 0.12068122 -0.15261061 -0.20206277 0.12482112
0.11673211 -0.22199641 0.088176794 -0.12860645 0.016358852 -0.04802321 0.018009545 0.3473864
-0.47592983 -0.69433606 -0.07415156 -0.2205868 0.09526689 -0.6237676 -0.7477677 0.13743342
0.059588656 -0.2888635 -0.22946496 -0.3000777 0.09676977 -0.18927461 0.38720575 -0.31212693
-1.3744987 -0.18362847 0.043565616 -0.50296474 -0.018490238 -0.23008445 -0.18552068 -0.33882013
0.2374174 -0.43995807 -1.5691601 -0.14447096 0.24954355 0.033981714 -0.2476965 -0.39458236
0.27939633 -0.002693424 0.18054254 -0.0569257 0.08119955 0.16962627 -0.004662 -0.25483707
-0.20060872 0.13011865 0.30695426 -0.38047495 0.25955263 0.030979352 -0.46581528 -0.25325197
-1.1821423 0.21720053 -0.03145498 0.048663143 -0.02503595 -0.014458305 -0.23868182 -0.11813407
-0.06820637 0.38769105 0.077727675 -0.28592372 0.038841847 0.29823026 0.2523338 -0.32831907
-0.27461088 -0.084657304 -0.06172901 -0.09065568 -0.1202859 -0.033326156 0.07672365 0.492632
-0.75689304 -0.18102753 -0.48138726 -1.9814663 -0.017631272 0.06342906 0.071578115 0.17649692
-0.008321713 0.0009711447 0.051824857 0.009462732 -0.028902419 -0.021330006 -0.02563174 0.021349201
0.08717564 0.009196437 0.0045002587 0.055553436 0.07583468 -0.0043919925 0.0759385 -0.007574785
-0.050479755 0.22060482 0.16913296 0.26772654 0.23806061 0.07142032 0.174504 0.062720515
0.1110398 0.019155152 0.04798827 0.003126168 -0.02949606 0.0031285302 -0.051598612 -0.06673674
-0.039265536 0.47928062 -0.6882241 -0.5900376 -0.5180948 -2.092063 -0.01656308 0.011674613
0.044017863 0.017652888 0.028417518 -0.0022047241 -0.0018099245 0.025105301 0.024303414 0.031518668
0.0021127805 0.06750587 0.072806835 0.12439454 0.14644837 0.1501199 0.15879689 0.12753113
0.14593318 -0.04636034 0.110620216 0.10316917 0.18189247 0.14823055 0.085415326 0.010804539
0.003798443 0.13769251 -0.1269711 -0.06345345 -0.13870369 0.007988637 -0.10608739 0.12838309
0.33663487 -0.2960455 -0.46399853 -0.09652252 -0.07877382 -0.032343313 -0.21484034 -0.18523978
-0.10323748 0.33013922 -0.5127955 -0.20358007 -0.6922494 0.012029286 0.23028976 -0.0814002
0.044736847 0.0907355 -0.23538323 0.09310369 0.07830262 0.19810875 -0.3918859 0.06273484
0.07005096 -0.15085377 -0.0796211 -0.19465517 0.063779674 -0.045094363 0.021142986 0.26203096
-0.07969613 -0.07109699 -0.25790375 -0.08723018 -0.09620392 0.08113401 0.33977795 0.14741495
0.18579094 0.22480531 0.039066803 -0.010279144 -0.2669077 -0.06549814 -0.15408722 0.075036936
0.20259646 0.011077983 0.05389891 0.03923883 -0.13475223 0.14759755 0.2258741 0.048399594
-0.15097149 -0.08240977 -0.059381798 -0.20918426 0.2142019 -0.079650044 0.0118273245 -0.29105103
00000000: 221a 60bd cd5f 0e3e c230 5abe 2041 79be
00000010: f4ae c1be e412 82bd bef4 4fbc 39a6 a83e
00000020: 6e83 1ebf 5e2f 6bbe 97bb 123e a242 94bd
00000030: e28d 1cbe 6d07 8dbe 64d2 793c dcb2 75bc
00000040: 1153 2d3e a5df 503a d7b7 6fbe 0c37 00bf
00000050: 3445 5b3e 3deb 763e d9f9 57be b863 413c
00000060: d869 adbe f5b2 1d3d 3754 d73c 1196 dabd
00000070: b727 f73d f545 1cbe 8be9 4ebe 37a2 ff3d
00000080: 3f11 ef3d 0753 63be 0996 b43d 69b1 03be
00000090: 0003 863c fcb3 44bd c188 933c a1dc b13e
000000a0: 13ad f3be 02c0 31bf c6dc 97bd 82e1 61be
000000b0: 4a1b c33d 3caf 1fbf b46d 3fbf 59bb 0c3e
000000c0: 3c13 743d ebe5 93be ddf8 6abe c9a3 99be
000000d0: 3b2f c63d 34d1 41be d53f c63e 1acf 9fbe
000000e0: 93ef afbf 1a09 3cbe dc71 323d 4cc2 00bf
000000f0: d778 97bc 429b 6bbe 22f9 3dbe d579 adbe
00000100: 8c1d 733e 2f42 e1be 3dda c8bf 32f0 13be
00000110: 5888 7f3e 6930 0b3d 27a4 7dbe b306 cabe
00000120: 090d 8f3e 2884 30bb 25e0 383e ec2a 69bd
00000130: f34b a63d 82b2 2d3e b1c3 98bb 017a 82be
00000140: 5f6c 4dbe d33d 053e 1c29 9d3e 9dcd c2be
00000150: 15e4 843e 69c8 fd3c 577f eebe 3eaa 81be
00000160: 7050 97bf d169 5e3e f0d6 00bd 0153 473d
00000170: 3118 cdbc 87e2 6cbc 0269 74be 46f0 f1bd
00000180: c8af 8bbd 717f c63e b02f 9f3d 9864 92be
00000190: a118 1f3d a3b1 983e e531 813e 7019 a8be
000001a0: cc99 8cbe cf60 adbd 8fd7 7cbd afa9 b9bd
000001b0: 7458 f6bd 0281 08bd 4a21 9d3d 433a fc3e
000001c0: bec3 41bf 485f 39be 6478 f6be b0a0 fdbf
000001d0: 756f 90bc 18e7 813d 8c97 923d 9cbb 343e
000001e0: cb57 08bc 6b94 7e3a 4d46 543d 9309 1b3c
000001f0: c4c4 ecbc 44bc aebc a8f9 d1bc 85e4 ae3c
00000200: 2489 b23d a7ac 163c e876 933b 008c 633d
00000210: 364f 9b3d b4ea 8fbb a585 9b3d e735 f8bb
00000220: dcc3 4ebd 3be6 613e 3131 2d3e 7413 893e
00000230: 29c6 733e d144 923d 2db1 323e 9d73 803d
00000240: d668 e33d 44eb 9c3c 598f 443d 65e0 4c3b
00000250: b9a1 f1bc 0708 4d3b 1159 53bd 46ad 88bd
00000260: e6d4 20bd 4564 f53e 742f 30bf b40c 17bf
00000270: dca1 04bf 5ce4 05c0 4caf 87bc e046 3f3c
00000280: 134c 343d ca9c 903c dbcb e83c 227d 10bb
00000290: fd3a edba a2a9 cd3c f417 c73c b819 013d
000002a0: 9376 0a3b 8440 8a3d c01b 953d 91c2 fe3d
000002b0: 90f6 153e 08b9 193e a79b 223e 8597 023e
000002c0: 826f 153e 57e4 3dbd da8c e23d 5c4a d33d
000002d0: 0542 3a3e c0c9 173e 3bee ae3d 8505 313c
000002e0: 4cef 783b 44ff 0c3e b604 02be e2f3 81bd
000002f0: 5708 0ebe c6e2 023c 5844 d9bd db76 033e
00000300: 685b ac3e 4793 97be 3791 edbe 99ad c5bd
00000310: 2b54 a1bd 6c7a 04bd 1bff 5bbe 7faf 3dbe
00000320: 2c6e d3bd 0208 a93e 9146 03bf 4b77 50be
00000330: 4237 31bf 7b16 453c 14d1 6b3e 26b5 a6bd
00000340: fc3d 373d 89d3 b93d 4d08 71be 26ad be3d
00000350: 205d a03d 05dd 4a3e 45a5 c8be 207b 803d
00000360: e176 8f3d 6979 1abe 6310 a3bd af53 47be
00000370: eb9e 823d deb4 38bd 0e34 ad3c ec28 863e
00000380: b937 a3bd 4c9b 91bd f60b 84be bda5 b2bd
00000390: 9006 c5bd 9629 a63d 60f7 ad3e f2f3 163e
000003a0: fb3f 3e3e 5d33 663e 8304 203d db69 28bc
000003b0: 20a8 88be e423 86bd 0ac9 1dbe f7ac 993d
000003c0: 7275 4f3e 6e80 353c 1ac5 5c3d e5b8 203d
000003d0: 7dfc 09be d023 173e 8a4b 673e a73e 463d
000003e0: 4598 1abe 74c6 a8bd 543a 73bd 6634 56be
000003f0: be57 5b3e 901f a3bd 65c7 413c a404 95be

fc1.bias f4 [80]
0.006895374 -0.08367647 0.019700982 -0.16595937 0.17241752 0.058885068 0.08426423 -0.035356943
0.05676226 0.08560362 0.24260148 0.15064579 -0.29213867 0.17314832 -0.025293777 -0.041995186
0.21558732 -0.03989094 -0.059438262 0.08318086 -0.0037775792 -0.022356816 -0.08114743 -0.13739859
-0.15941931 0.073351 -0.011845035 -0.0110618435 -0.007319575 0.09413941 0.10708883 -0.18125147
0.025449332 -0.13731907 -0.12880307 -0.13839649 0.14297512 -0.06249028 -0.049801417 -0.03974433
0.085873224 -0.14541174 -0.09428022 0.23376955 0.034930423 -0.20218827 0.040452264 0.02230675
0.07585212 -0.21236376 0.047257606 0.040569175 -0.08461719 0.08593353 -0.20489372 0.20786265
0.15924084 -0.079167075 0.09435917 0.23136441 0.072005495 0.16240092 0.022654928 -0.06828551
0.10765519 -0.062693596 0.10433633 -0.1831563 0.023738772 -0.068200454 0.07878855 0.034386437
0.07214533 -0.19470203 -0.09337128 -0.048992604 -0.074760854 -0.29070157 0.14348294 -0.17504959
00000000: 97f2 e13b 925e abbd f463 a13c 41f1 29be
00000010: 388e 303e 7831 713d ba92 ac3d 71d2 10bd
00000020: 8b7f 683d f350 af3d 866c 783e e442 1a3e
00000030: 3393 95be cb4d 313e e534 cfbc 2503 2cbd
00000040: ecc2 5c3e af64 23bd 8975 73bd ba5a aa3d
00000050: 4391 77bb a425 b7bc a030 a6bd 37b2 0cbe
00000060: d13e 23be 0d39 963d ad11 42bc bc3c 35bc
00000070: 0cd9 efbb 2acc c03d 6351 db3d fc99 39be
00000080: 1e7b d03c 5f9d 0cbe f4e4 03be cfb7 0dbe
00000090: 1268 123e cff5 7fbd 92fc 4bbd f3ca 22bd
000000a0: 4dde af3d d1e6 14be fd15 c1bd 4961 6f3e
000000b0: 3413 0f3d 710a 4fbe 46b1 253d a5bc b63c
000000c0: 5b58 9b3d e375 59be 3191 413d dd2b 263d
000000d0: c74b adbd ebfd af3d a9cf 51be f2d9 543e
000000e0: 0810 233e 5922 a2bd 613f c13d cbea 6c3e
000000f0: 9e77 933d 6d4c 263e d496 b93c 46d9 8bbd
00000100: 537a dc3d 8065 80bd 49ae d53d 538d 3bbe
00000110: d077 c23c aeac 8bbd e45b a13d cbd8 0c3d
00000120: eec0 933d f85f 47be 7139 bfbd 78ac 48bd
00000130: 381c 99bd d6d6 94be 31ed 123e 3340 33be

fc2.weight f4 [80, 80]
-0.0027172745 -0.19125766 0.03488541 -0.04703771 -0.13384645 -0.02077981 -0.0094176 -0.09672431
-0.032212496 0.047392063 0.18919998 0.13469246 0.060750373 0.17914638 0.07609244 0.08599066
0.13158445 0.064093985 -0.1605494 0.031721927 0.050032094 -0.038804296 0.07012177 -0.008847066
-0.022430928 -0.17893995 0.11568699 0.16330862 0.061523717 0.05479528 0.1390701 0.031519294
0.114658795 0.081846826 0.050334606 -0.03962346 0.14287484 0.058072682 0.008628413 0.07806211
0.0826698 0.007328028 0.10034902 0.18477297 0.004091419 0.0031407 0.12470407 -0.008401422
-0.075174056 0.06612112 -0.007305452 0.12147769 0.112237394 0.16677925 -0.20245495 0.093467265
-0.10723173 -0.16183189 -0.016483814 0.22521926 -0.02591263 0.10750351 0.08241472 0.049926344
0.18162979 -0.081577405 0.05074935 0.18434355 0.1819833 -0.10738335 -0.08964222 -0.099758536
0.0880764 0.07219713 0.03896571 -0.014475345 0.01751722 0.11554532 0.19203182 -0.044489514
0.00779907 0.24236222 -0.018699232 0.2142791 0.040587354 0.41153106 0.12472488 -0.3766061
-0.08848687 -0.07198782 -0.17065349 0.09694953 -0.08533497 -0.1458097 -0.32554626 -0.12628019
-0.19621715 0.22967012 -0.5544234 -0.23126534 -0.15437491 -0.055732727 0.2423147 0.3524322
-0.3121555 -0.048446912 0.14205445 -0.21970525 -0.23550558 0.006459067 -0.094649635 -0.104378894
-0.25313947 -0.49524143 -0.25681823 -0.17846632 -0.09955418 0.1682567 -0.18807897 -0.25058705
0.18271753 -0.43088067 0.012749847 -0.12057794 -0.3553593 -0.45456007 -0.028397027 -0.19531636
-0.09349497 -0.03890892 0.054599915 0.029248156 0.089743674 -0.39076737 -0.058262125 -0.08057695
0.16032411 -0.534976 -0.068449594 -0.29706275 0.061998736 -0.12860228 -0.23451944 0.04239742
-0.20241833 0.41513368 -0.12814401 -0.070154496 -0.09013331 -0.02079809 -0.13209374 -0.09724904
-0.116354555 0.1704129 0.10587896 0.098076336 0.20733319 0.19161996 -0.09067838 0.0028379017
-0.08300216 0.3159897 -0.20246138 -0.43439883 -0.4222243 0.05585197 -0.10018772 -0.1569079
0.0014149981 -0.009228524 0.1148961 0.10256123 -0.31659067 0.02072242 -0.13522753 -0.027017009
-0.0055824183 -0.14712311 0.1271528 0.0037632948 0.28358635 0.11966704 0.089593105 0.038527038
-0.09999081 -0.02296421 -0.16855048 -0.2165857 0.09855745 0.009995658 -0.14831342 0.23519486
0.30449277 0.060912896 -0.065642565 -0.017158045 -0.09635403 0.5825026 -0.30224603 -0.025906973
-0.15297948 0.3117697 0.113876164 0.021534756 -0.18210454 0.14237165 -0.27868652 -0.050563768
-0.097009785 0.20286933 -0.028681103 0.29693422 -0.008961017 0.31944153 -0.12649666 0.014166988
0.28303418 -0.21275662 -0.03456796 -0.14388813 0.17443685 0.012197585 -0.11993452 0.05022746
-0.08852768 0.057971295 -0.1649403 -0.016340163 0.083682984 0.031817812 -0.09308629 0.4041249
-0.08575054 0.21194269 -0.5608724 0.010156456 -0.5457022 0.09865622 -0.1324034 -0.054402962
0.14297304 0.37688762 -0.06766881 -0.11360403 0.13644187 -0.2960084 -0.10422741 -0.24730283
0.12277214 -0.052097328 -0.016380806 0.13592093 -0.4335455 0.09525033 -0.4561928 0.0017457412
00000000: 4d14 32bb 0cd9 43be 01e4 0e3d 9daa 40bd
00000010: 0b0f 09be 6c3a aabc 474c 1abc 6517 c6bd
00000020: 40f1 03bd 2e1e 423d a4bd 413e d2ec 093e
00000030: 62d5 783d 2672 373e 5ad6 9b3d df1b b03d
00000040: 13be 063e b543 833d 1067 24be daee 013d
00000050: 74ee 4c3d 41f1 1ebd 019c 8f3d 49f3 10bc
00000060: 11c1 b7bc 093c 37be 4ded ec3d 603a 273e
00000070: 4b00 7c3d 0471 603d 6468 0e3e 601a 013d
00000080: 3bd2 ea3d 4f9f a73d a92b 4e3d 364c 22bd
00000090: c84d 123e 9fdd 6d3d 305e 0d3c 07df 9f3d
000000a0: c94e a93d f41f f03b c983 cd3d 2035 3d3e
000000b0: 4f11 863b 34d4 4d3b d964 ff3d 1ea6 09bc
000000c0: dbf4 99bd 826a 873d 9362 efbb 4cc9 f83d
000000d0: b8dc e53d 2ec8 2a3e 5a50 4fbe c46b bf3d
000000e0: 4f9c dbbd 42b7 25be 1009 87bc e19f 663e
000000f0: b946 d4bc cd2a dc3d 0cc9 a83d 917f 4c3d
00000100: 29fd 393e 0e12 a7bd 8dde 4f3d 8ec4 3c3e
00000110: d559 3a3e cdeb dbbd 5796 b7bd 344e ccbd
00000120: 6661 b43d 17dc 933d 829a 1f3d ff29 6dbc
00000130: 4680 8f3c 06a3 ec3d fda3 443e a33a 36bd
00000140: 578f ff3b cd2d 783e 222f 99bc fb6b 5b3e
00000150: ed3e 263d 33b4 d23e c26f ff3d 84d2 c0be
00000160: 9b38 b5bd 5a6e 93bd cabf 2ebe 7a8d c63d
00000170: 1ac4 aebd 234f 15be 00ae a6be 984f 01be
00000180: 26ed 48be a52e 6b3e b1ee 0dbf d2d0 6cbe
00000190: 7514 1ebe 0048 64bd 5821 783e fe71 b43e
000001a0: d8d2 9fbe 4570 46bd b976 113e 6afa 60be
000001b0: 6028 71be 95a6 d33b abd7 c1bd 9ac4 d5bd
000001c0: 7f9b 81be 4990 fdbe ae7d 83be e0bf 36be
000001d0: 10e3 cbbd 7c4b 2c3e c697 40be f24c 80be
000001e0: 4e1a 3b3e 649c dcbe bce4 503c 91f1 f6bd
000001f0: a7f1 b5be 19bc e8be e2a0 e8bc 0301 48be
00000200: 4a7a bfbd f65e 1fbd 29a4 5f3d d499 ef3c
00000210: 88cb b73d a912 c8be 44a4 6ebd 8705 a5bd
00000220: 012c 243e 30f4 08bf 4d2f 8cbd 9c18 98be
00000230: 63f2 7d3d 51b0 03be dd25 70be eba8 2d3d
00000240: c046 4fbe 678c d43e 2f38 03be 29ad 8fbd
00000250: d097 b8bd c260 aabc 9543 07be 812a c7bd
00000260: 4c4b eebd b880 2e3e 11d7 d83d 3fdc c83d
00000270: 274f 543e 0638 443e 96b5 b9bd 17fc 393b
00000280: 09fd a9bd 67c9 a13e 0952 4fbe 8669 debe
00000290: c92d d8be 09c5 643d 382f cdbd 77ac 20be
000002a0: 7577 b93a 3c33 17bc a54e eb3d 9f0b d23d
000002b0: 2c18 a2be 11c2 a93c 1679 0abe c652 ddbc
000002c0: b8ec b6bb 71a7 16be 5834 023e 9ca1 763b
000002d0: 3b32 913e fe13 f53d 977c b73d 87ce 1d3d
000002e0: fbc7 ccbd 701f bcbc 7f98 2cbe a4c8 5dbe
000002f0: 7dd8 c93d d4c4 233c 79df 17be ecd6 703e
00000300: 7ae6 9b3e cd7f 793d 9c6f 86bd 078f 8cbc
00000310: 4355 c5bd e41e 153f febf 9abe dc3a d4bc
00000320: a7a6 1cbe 47a0 9f3e e837 e93d a869 b03c
00000330: 9d79 3abe e0c9 113e 00b0 8ebe f41b 4fbd
00000340: 11ad c6bd fabc 4f3e a2f4 eabc c307 983e
00000350: 3bd1 12bc d78d a33e 5788 01be a81c 683c
00000360: dbe9 903e dfdc 59be 2297 0dbd 6957 13be
00000370: 939f 323e 61d8 473c 3ba0 f5bd 4fbb 4d3d
00000380: 004e b5bd 4f73 6d3d 1ce6 28be cedb 85bc
00000390: fc61 ab3d 6553 023d 06a4 bebd 75e9 ce3e
000003a0: fb9d afbd 8107 593e 5595 0fbf 4467 263c
000003b0: 24b3 0bbf 460c ca3d c294 07be a4d5 5ebd
000003c0: 8667 123e 6af7 c03e f295 8abd 3ba9 e8bd
000003d0: 6bb7 0b3e 6a8e 97be 2e75 d5bd f43c 7dbe
000003e0: f66f fb3d 0264 55bd 0a31 86bc db2e 0b3e
000003f0: adf9 ddbe 9b12 c33d 1a92 e9be 5bd1 e43a

fc2.bias f4 [80]
0.446065 -0.18270834 0.017495044 0.12879169 -0.08189194 -0.09200942 -0.009177532 -0.069539875
-0.036485523 0.058158103 -0.020100791 0.21181712 -0.0043556835 -0.07753182 0.24674474 0.09216361
-0.12590472 0.04428049 -0.016976085 -0.08487529 -0.13930646 -0.08220224 -0.22188526 0.0094675375
-0.07668304 0.03432972 0.012632851 -0.026199866 0.02821451 0.24968976 0.49166664 -0.13230275
0.04833392 0.4759149 -0.09097949 0.15552892 -0.06627311 -0.09258856 -0.016046748 -0.060952585
-0.060673818 0.050873227 0.31599918 -0.07645299 -0.13597406 0.282937 -0.092159405 0.13281667
0.19414501 -0.1681854 0.12296025 -0.029173376 0.02201419 0.29375428 -0.08047413 0.29532045
0.14493412 0.0077237934 0.41041037 0.026071103 -0.06458466 0.42093706 0.20313838 -0.003230117
-0.062463444 0.19847657 0.16644695 0.19479278 0.3156479 0.05597833 -0.1103136 -0.047524188
0.07672116 0.26660252 0.15903395 0.03598065 -0.04175597 -0.08246904 -0.0010544123 0.3895227
00000000: a262 e43e e517 3bbe c451 8f3c f8e1 033e
00000010: f6b6 a7bd 6f6f bcbd 5c5d 16bc ec6a 8ebd
00000020: d871 15bd 3137 6e3d 6aaa a4bc 96e6 583e
00000030: 1fba 8ebb 01c9 9ebd a7aa 7c3e 46c0 bc3d
00000040: 2bed 00be 765f 353d 6e11 8bbc 19d3 adbd
00000050: 5aa6 0ebe a659 a8bd e435 63be bb1d 1b3c
00000060: ff0b 9dbd 529d 0c3d 04fa 4e3c 1aa1 d6bc
00000070: 1e22 e73c acae 7f3e bbbb fb3e 5f7a 07be
00000080: caf9 453d 1eab f33e 7453 babd f942 1f3e
00000090: 32ba 87bd 129f bdbd 7874 83bc 6ba9 79bd
000000a0: 1c85 78bd 7260 503d a5ca a13e 6393 9cbd
000000b0: c93c 0bbe 1edd 903e 12be bcbd 1801 083e
000000c0: f3cd 463e cb38 2cbe 95d2 fb3d 01fd eebc
000000d0: 1a57 b43c f666 963e 9fcf a4bd 3e34 973e
000000e0: 9c69 143e e017 fd3b 4f21 d23e 1193 d53c
000000f0: f644 84bd 1085 d73e 8203 503e 5fb0 53bb
00000100: abd9 7fbd 713d 4b3e 1271 2a3e c277 473e
00000110: 9a9c a13e 8949 653d 19ec e1bd b9a8 42bd
00000120: fc1f 9d3d 2080 883e ccd9 223e 7260 133d
00000130: 4f08 2bbd 87e5 a8bd 3534 8aba 856f c73e

fc3.weight f4 [4, 80]
0.09427919 -0.2269971 0.4119905 0.13451427 0.36821204 -0.07011038 0.27128512 -0.21336988
-0.2560883 0.09482187 0.110379964 0.10758407 0.34027022 -0.3338093 0.20086856 0.2057471
-0.23114516 0.017866183 -0.26040944 0.29427418 -0.34791902 0.113357864 -0.68659043 0.22577626
-0.05780161 -0.15688142 0.14529099 -0.26181424 0.23863249 0.084828086 0.13470499 0.16568124
-0.33191395 0.17214032 0.102582596 0.07775151 0.0435822 -0.3351297 0.1891857 0.08233428
0.21061854 0.11882392 0.21042183 0.033927847 0.13396165 0.17824255 0.24440217 0.2021323
0.35734814 -0.09638386 0.22837251 0.29244527 0.29599333 0.18236025 -0.5650001 0.114878125
0.27169627 0.5552276 0.20091152 -0.14486516 -0.356094 0.17100607 0.11809141 0.12781459
0.17794931 0.041211747 0.025987908 0.27995637 0.057327308 0.07584471 -0.67565936 -0.074845955
-0.021078564 0.07188861 -0.061135087 0.380484 0.083290435 -0.21118553 0.58313274 0.18939869
0.15619908 0.03980365 0.5933302 0.046196558 0.22880545 -0.0020671636 0.21537602 -0.19466455
-0.02524605 0.05202815 0.04236663 0.12993579 0.29179943 -0.303142 0.2189004 0.31496036
-0.19701055 -0.041886665 -0.110902704 0.7972498 0.00080169685 0.07078072 -0.2488953 0.12741072
-0.11959233 -0.1743449 -0.37198162 -0.23514366 0.21408276 0.15061556 0.14127097 0.09409635
0.12177821 0.15852745 -0.011214642 0.12835535 -0.17526586 -0.15224113 0.29480737 -0.07837142
0.37697878 0.08878178 0.12201958 0.10643866 0.23860024 0.15697716 0.23778597 0.2754697
0.40631142 -0.25057757 0.2062718 0.19704033 0.17269303 0.24842303 -0.003910514 0.08904317
0.20956402 0.6605649 0.18421592 -0.1474293 -0.38504466 0.16526586 0.12560217 0.103391595
-0.040678047 0.15133664 0.13623247 0.21469189 0.11655936 0.1502574 -0.17246814 -0.14047793
0.06367168 -0.032078993 0.02780038 0.2232344 0.20008166 -0.17873968 0.55300355 0.15075508
0.21249363 0.18262249 0.3607978 -0.29354408 0.17943344 -0.07266145 0.18809775 -0.37820733
-0.25637802 0.28186095 0.445647 0.17740831 0.45787346 -0.104882024 0.095859155 0.19409049
-0.19165815 0.042309564 -0.07312658 0.6283641 0.5296478 -0.49566653 -0.38781127 0.30420896
0.06559226 -0.38128883 -0.16281974 -0.2040059 0.26161796 0.062099025 0.12582901 -0.16611814
0.11146344 0.18882506 -0.24837062 0.12614836 -0.3967766 -0.2600342 0.14823228 0.09621728
0.34087396 0.09594393 0.18607491 -0.13008435 -0.35699934 0.16465458 0.5049062 -0.007042743
0.14918007 -0.14638501 0.26343215 -0.08864561 0.53269315 0.30759275 0.3466278 0.06590971
-0.0533508 0.5299397 0.18927506 -0.16867833 -0.35359034 0.09144557 0.10352329 0.2212441
-0.29887193 0.16405365 -0.021906316 0.12564842 0.09825444 0.18074532 -0.4684934 -0.22243099
0.17178088 0.20212196 0.30349138 -0.41926438 -0.3844672 -0.23602337 0.0708517 0.1611366
0.18843003 -0.4186508 0.4342141 0.046156585 0.07586148 -0.010757603 0.122356154 0.06076102
0.28903008 -0.41066483 -0.3688715 0.04027648 0.14828202 0.052323986 0.14303535 0.38421252
00000000: 7315 c13d ee71 68be 6bf0 d23e 1cbe 093e
00000010: 4a86 bc3e 0896 8fbd e2e5 8a3e a27d 5abe
00000020: 011e 83be f831 c23d e40e e23d 0955 dc3d
00000030: e637 ae3e 0de9 aabe 7db0 4d3e 5eaf 523e
00000040: 51b1 6cbe 1a5c 923c 6354 85be 1bab 963e
00000050: 7122 b2be 2b28 e83d 64c4 2fbf e431 673e
00000060: 62c1 6cbd 86a5 20be 29c7 143e 840c 86be
00000070: 135c 743e 59ba ad3d 1bf0 093e 58a8 293e
00000080: a0f0 a9be 8d45 303e d316 d23d 2f3c 9f3d
00000090: 4083 323d 1f96 abbe e5b9 413e e09e a83d
000000a0: 63ac 573e f559 f33d d278 573e edf7 0a3d
000000b0: 3e2d 093e 3785 363e 9044 7a3e c5fb 4e3e
000000c0: 56f6 b63e e764 c5bd 7cda 693e 63bb 953e
000000d0: 708c 973e a5bc 3a3e d9a3 10bf 3945 eb3d
000000e0: c61b 8b3e 6523 0e3f c0bb 4d3e 8857 14be
000000f0: f451 b6be 371c 2f3e e9d9 f13d d4e1 023e
00000100: 5838 363e a6cd 283d 98e4 d43c 7156 8f3e
00000110: 0ad0 6a3d 7954 9b3d 03f8 2cbf d648 99bd
00000120: f4ac acbc 563a 933d c968 7abd cdce c23e
00000130: 2d94 aa3d 0541 58be 3048 153f bbf1 413e
00000140: a7f2 1f3e 2709 233d 7de4 173f 9a38 3d3d
00000150: fa4b 6a3e 4079 07bb 888b 5c3e 2556 47be
00000160: ced0 cebc 781b 553d a288 2d3d e30d 053e
00000170: bc66 953e 6e35 9bbe 6d27 603e 7c42 a13e
00000180: 22bd 49be 5a91 2bbd f520 e3bd 9018 4c3f
00000190: f728 523a 7bf5 903d 69de 7ebe f577 023e
000001a0: d3ec f4bd 7887 32be 6074 bebe 80c9 70be
000001b0: 8338 5b3e f73a 1a3e 56a9 103e 96b5 c03d
000001c0: db66 f93d 0555 223e 9ebd 37bc 966f 033e
000001d0: e578 33be 19e5 1bbe fef0 963e 3281 a0bd
000001e0: 5d03 c13e 39d3 b53d 67e5 f93d 83fc d93d
000001f0: 9f53 743e 9fbe 203e 2a7e 733e 5d0a 8d3e
00000200: 0d08 d03e b44b 80be ea38 533e f1c4 493e
00000210: 71d6 303e 9b62 7e3e c523 80bb 445c b63d
00000220: f397 563e c81a 293f 19a3 3c3e b5f7 16be
00000230: 9324 c5be 743b 293e db9d 003e f9be d33d
00000240: 069e 26bd fef7 1a3e 8680 0b3e 31d8 5b3e
00000250: acb6 ee3d 13dd 193e 7d9b 30be 72d9 0fbe
00000260: 4c66 823d 4365 03bd 9fbd e33c 8f97 643e
00000270: 35e2 4c3e 8907 37be a491 0d3f 8a5f 1a3e
00000280: ee97 593e 6401 3b3e 7dba b83e 694b 96be
00000290: 66bd 373e 87cf 94bd b29c 403e 64a4 c1be
000002a0: fb43 83be 1450 903e d82b e43e 86aa 353e
000002b0: 646e ea3e 63cc d6bd ce51 c43d a8bf 463e
000002c0: 0942 44be cb4c 2d3d 63c3 95bd 78dc 203f
000002d0: 0097 073f 01c8 fdbe 338f c6be 47c1 9b3e
000002e0: 3c55 863d 4a38 c3be 38ba 26be ece6 50be
000002f0: caf2 853e 8c5b 7e3d 52d9 003e e01a 2abe
00000300: f246 e43d 5b5b 413e de54 7ebe 092d 013e
00000310: 4d26 cbbe 3423 85be 34ca 173e 910d c53d
00000320: 0887 ae3e 407e c43d 6c8a 3e3e d534 05be
00000330: 9ec8 b6be 369b 283e 8841 013f cfc6 e6bb
00000340: a9c2 183e f4e5 15be 94e0 863e d48b b5bd
00000350: 945e 083f cc7c 9d3e 3379 b13e acfb 863d
00000360: 5e86 5abd 21aa 073f 52d1 413e 03ba 2cbe
00000370: cb09 b5be d147 bb3d 0504 d43d d08d 623e
00000380: be05 99be aefd 273e e074 b3bc fba9 003e
00000390: a039 c93d 4d15 393e 5ede efbe f3c4 63be
000003a0: 54e7 2f3e 0ff9 4e3e 3963 9b3e d2a9 d6be
000003b0: e3d8 c4be 1cb0 71be b21a 913d fe00 253e
000003c0: cdf3 403e 6659 d6be 4f51 de3e b00e 3d3d
000003d0: 435d 9b3d a840 30bc dd95 fa3d 8ce0 783d
000003e0: c0fb 933e a942 d2be badc bcbe f3f8 243d
000003f0: 3ed7 173e ad51 563d dc77 123e 81b7 c43e

fc3.bias f4 [4]
0.3360799 0.23016271 0.29101846 0.24027501
00000000: aa12 ac3e c6af 6b3e 5f00 953e a70a 763e
