Double DQN/ddqn_checkpoint_1.pth (torch_old, 40359 bytes, 6 tensors)

fc1.weight f4 [80, 37]
00000000: 8231 f13d f0c1 85be 9aab b8be fc75 2e3d
00000010: 4419 613e f41f ad3d 3fa2 ecbd df46 bc3d
00000020: 6253 2ebe 1e0d 2c3d 3eb4 bbbd 8a86 ef3c
00000030: d1fe 0fbf 0f11 a6be 4ccf 91bd be45 153d
00000040: 6e8d a33d 1572 94bd 50af 1ebe d8c4 163e
00000050: 40d7 5a3d 05a3 593d 9227 7cbe 6b66 6e3e
00000060: dfb0 acbe 82c4 82bd 2d16 0c3d fbd4 dcbd
00000070: 6993 67be 8cfa 0aba c91f 21be 4533 043e
00000080: 7c27 18be 40b2 84bd bad3 10be ca22 25be
00000090: 9307 2bbd a4cf 673e dcd5 a23c 7d05 61bc
000000a0: 21f3 053e 8605 10be 2da5 4f3e eb55 37be
000000b0: b1c3 51be f5f6 85be 916c c4bd 942b 0c3e
000000c0: 472e 3bbe 5cae ce3d 969b b63d f5e1 a03d
000000d0: 7381 0c3e a739 8e3c 273b c83d d72c ecbd
000000e0: 8a55 a9be cbe5 e8bd 125a 04be a3a8 03bd
000000f0: cc36 913d b06f 473d b074 f5bd 7d62 ae3d
00000100: 50da 653e 42a6 3abd b221 42bc 1003 f9bd
00000110: 4729 4c3e a7d3 533e 5773 073e bca6 f03d
00000120: 60df ddbc 9793 943c a5de 5f3d 6a75 083e
00000130: dfa5 0c3e bb57 68bd 5848 983c 810a 39bc
00000140: b7ca 86bc ed04 a93d 5151 fc3c 3f3d 16be
00000150: b887 aa3e 18e7 39bf 9da0 abbd 4955 72be
00000160: 6780 d9bf b104 6d3d d7c2 2e3d 2360 d03d
00000170: a9eb b53d 9cb9 323e 1518 2bbe 470f c13c
00000180: a904 cd3d 1fa5 783d 0152 063e 725d 39ba
00000190: 49e1 073e a6ef 8a3d 205f 923d 9ff6 6dbd
000001a0: 5432 0ebe 8d64 1bbd d356 c7bd 34c5 76bd
000001b0: 034e b03c 43fc eabc f7a7 433c 709a 0b3d
000001c0: d0f8 b43d 5923 013e d3c9 1c3e ae2e dfbc
000001d0: 9d44 cebc 2713 463d aad8 533d b927 303e
000001e0: fc35 8b3d 93ad 203c f37f 683b 0f42 3a3d
000001f0: 4435 23bd f393 3abd babb b8bd 01d4 903c
00000200: f7b9 1abc a1b9 8ebd 8649 143c b4ae bb3e
00000210: fc3d d8be 46de a7be f9ba 2abe e594 c6bf
00000220: 2bf4 a2bc 5f43 3b3d 85b3 e03d eab9 373e
00000230: 72be 413e f4b8 133e 1602 313e 0219 383c
00000240: 470c af3b a0bd 8abd b4a0 653d cd08 0fbb
00000250: 0fe6 69be 5f2c 89be d757 34be 1183 e63c
00000260: f3eb 3d3d 3d75 a1bd 1e30 67be 7af0 823d
00000270: 5f95 d5bc fef8 cdbd 91a5 8abe 8895 c1be
00000280: f9a6 623e fd73 05bc 649f 26be 2e88 08be
00000290: b3da e8bd b1a3 babd 2445 99bd 6298 12be
000002a0: d16e a5be 0856 f43d 27c2 ed3d 1a51 b3be
000002b0: 97cc 94bd 86fb 6abc f91d 84be e829 193e
000002c0: 840d 36b9 b8b5 3c3d 417d 163e 8549 2dbf
000002d0: 3b2d 64bc ec99 76bd d063 823e fed6 81bd
000002e0: 2861 c0bc 1799 533c 1530 c5bd dfc2 a53d
000002f0: bfc0 82bd dcf8 83bd 3cd0 a63e 278e 813d
00000300: 68bf 94be 2a19 cbbd 7e72 eabe 1285 19be
00000310: 8d52 a3bd 834a a83d 1815 3dbd ec31 873d
00000320: 0bed a13d d17e 6f3d 331d c2bc 7045 1fbe
00000330: 744d febd 8f1e f2bc 805a e53d 03ee ab3d
00000340: 398f 3b3e 3a58 f8bd b729 a73d fb18 c0bd
00000350: 1da2 733c f5ec b73d 7018 243e 754f 273e
00000360: 14ea 5dbd d724 89bd cf0d aabe 563a 2fbf
00000370: 9837 013d fccb 003c a774 213e 407a fe3c
00000380: aee7 4c3d 67b7 9b3d f765 26be 95c1 ca3c
00000390: 2c35 6cbd fe7d 8a3d c3bf 553e ad99 df3d
000003a0: 1c20 113e 8cf3 d53d fe07 803e 3a31 d33d
000003b0: 35ac 923d daa6 7cbc 5bf4 283c c83c 0c3e
000003c0: 4714 0d3e 2747 a33d 2743 63bd 3e22 143e
000003d0: 0f98 1b3e 1003 ad3c 1671 5e3e 7205 1fbd
000003e0: 2137 a53d 1aa6 c93c 4bd1 c33c 6cff 21bd
000003f0: 313f 533e 72f8 f83c 1064 103e e1f6 11be
0.11777021 -0.26124525 -0.36068422 0.042592987 0.21982294 0.0845336 -0.115543835 0.09193205
-0.17023996 0.042004697 -0.09165238 0.029238958 -0.56248194 -0.3243489 -0.07119617 0.036443464
0.0798596 -0.07248322 -0.15496564 0.14723527 0.053427935 0.053133983 -0.2462447 0.23281257
-0.33728692 -0.06385137 0.034200836 -0.1078281 -0.22614826 -0.00053016166 -0.15734781 0.12910183
-0.14858812 -0.06479311 -0.14143267 -0.16126552 -0.04175527 0.22637802 0.019877367 -0.013734219
0.13081028 -0.14064607 0.20277853 -0.17903869 -0.20484807 -0.26164976 -0.0959102 0.13688499
-0.18279372 0.1009185 0.089163944 0.07855598 0.13721256 0.017361475 0.097769074 -0.1153199
-0.33073074 -0.113719545 -0.12924984 -0.032143246 0.0709053 0.048690498 -0.11985147 0.08514879
0.22446561 -0.045568712 -0.011848854 -0.12158787 0.19937621 0.20686208 0.13227592 0.11750552
-0.027084053 0.018136783 0.05465569 0.1332604 0.1373515 -0.05672429 0.018589184 -0.011294008
-0.016454084 0.08252893 0.030800493 -0.14671801 0.3330667 -0.72618246 -0.08380244 -0.23665346
-1.699231 0.057865802 0.042666283 0.101745866 0.08882839 0.17453617 -0.16708405 0.023566855
0.100106545 0.060704347 0.1311722 -0.00070711144 0.13269533 0.067839906 0.0714705 -0.058096524
-0.13886386 -0.03793769 -0.09733357 -0.06024666 0.021521574 -0.02868474 0.011941901 0.03408283
0.0883652 0.1261114 0.15311365 -0.027243938 -0.025179202 0.04835811 0.0517203 0.17202653
0.06797406 0.009807008 0.0035476654 0.045473155 -0.03984572 -0.04555125 -0.09020181 0.017679216
-0.009443752 -0.06969 0.0090507325 0.36656725 -0.4223479 -0.3278677 -0.16672887 -1.5514189
-0.019891819 0.045718547 0.10971741 0.17942014 0.18920305 0.14426023 0.17285952 0.011236431
0.0053420397 -0.06774449 0.05606146 -0.0021825314 -0.22841667 -0.26791665 -0.17611633 0.02813867
0.046367597 -0.078836896 -0.22576949 0.063935235 -0.026072202 -0.10057257 -0.27079442 -0.37809396
0.22134008 -0.00814533 -0.1627174 -0.13333198 -0.113698386 -0.09113253 -0.07483891 -0.14315942
-0.3231111 0.11930472 0.11609297 -0.35022813 -0.07265585 -0.014342194 -0.25804117 0.14957392
-0.00017361908 0.046071738 0.14696218 -0.67690307 -0.013926799 -0.060205385 0.25466776 -0.06339835
-0.023483828 0.012914917 -0.096283115 0.08093809 -0.0638442 -0.064439505 0.32580745 0.063259415
-0.2905228 -0.09916909 -0.45790476 -0.14992169 -0.0797473 0.08217337 -0.046162695 0.06601319
0.079065405 0.05847055 -0.023695564 -0.15553832 -0.12417117 -0.029555587 0.11198902 0.083950065
0.18316354 -0.12126203 0.08162253 -0.09379765 0.014870194 0.08980743 0.16024947 0.16338904
-0.054178312 -0.0669648 -0.3321366 -0.6844839 0.03154716 0.007861134 0.15767156 0.031064153
0.050025634 0.076033406 -0.16249834 0.02475051 -0.057667896 0.06762312 0.20873933 0.10917983
0.14172405 0.104468435 0.25006098 0.103121236 0.07161752 -0.01542064 0.010312165 0.13695061
0.13777266 0.079725556 -0.055483963 0.14466187 0.15194725 0.021119624 0.21722826 -0.038823552
0.08067156 0.024615336 0.02390351 -0.03955023 0.20629574 0.030391905 0.14100671 -0.14254333

fc1.bias f4 [80]
00000000: ef81 313a 60c3 a7bd 40ad 5a3d aba1 d0bd
00000010: db31 febb 03f1 0a3e d37a 8a3e e973 5d3d
00000020: eb94 e33d d266 433d 9697 713e cff6 d83d
00000030: 56c3 7fbe 8f0a 343c 57c8 cfbc 935c e93c
00000040: e194 483e f1c7 4c3d b164 243b 38cc 633e
00000050: 91aa b53d 9373 dcbb 9aba 003e c2c2 58be
00000060: 770f 52be 7268 153e ca54 113d 6fed bcbc
00000070: 4221 e33d de88 1a3e c474 ff3d d531 a3bd
00000080: c5d5 79bd 7ffa 03be f48f 3d3c c436 80bd
00000090: ce78 de3d 5dcb e4bd 27a2 98bd cd7a 28be
000000a0: 2f15 073d 0369 93bd 0ccd f3bd 923c cf3d
000000b0: 68d0 203d 427b 6dbe c360 4abd 0c2f 343d
000000c0: 7360 f73d ea12 263d 4c0b bc3d 42af a3bc
000000d0: 9253 25be 8086 f43d 5b1f 09be 846c 733d
000000e0: 4a90 003e 4b05 abbd 2444 f93d 7d4c 003e
000000f0: 67d0 193d 98b0 463e d185 893d 968c cdbd
00000100: c668 623d 4824 7c3b 0d95 c13d dbd2 cebd
00000110: d393 8bbc 0202 d73c fc8d 0b3e 6c47 af3d
00000120: c804 633d 66f6 febd 83a6 80bd 54f9 7c3d
00000130: df40 6dbd 15a6 73be f089 e4bc c2f7 f9bd
0.0006771376 -0.08191562 0.05338788 -0.10187086 -0.007757408 0.13568501 0.27046832 0.05406562
0.11112388 0.04770548 0.23592982 0.1059395 -0.24976858 0.0109888455 -0.025364084 0.028486526
0.19588043 0.049995366 0.002508443 0.22245872 0.088704236 -0.0067276447 0.12571183 -0.21168044
-0.20513712 0.14590624 0.03548125 -0.023062436 0.11090328 0.15091273 0.12473443 -0.07968489
-0.060994882 -0.12888525 0.011569966 -0.06260446 0.108628854 -0.11171601 -0.07452803 -0.16453095
0.032979187 -0.07197764 -0.11904344 0.10118975 0.03926125 -0.2319155 -0.049408685 0.04399018
0.12078943 0.04054538 0.09181842 -0.01998103 -0.16145161 0.11939716 -0.13390867 0.05942966
0.12555042 -0.08350619 0.121712 0.12529178 0.037552264 0.19403303 0.067149766 -0.1003658
0.0552757 0.0038473774 0.09452257 -0.10098811 -0.017038262 0.026246075 0.13628381 0.085585445
0.05542448 -0.124493405 -0.062817596 0.061761215 -0.057923194 -0.23793824 -0.027897805 -0.12205459

fc2.weight f4 [80, 80]
00000000: 0475 35bd 6e4a acbb 112d f03d 72d1 a53d
00000010: 7663 b8bc 565c e43c 3d60 473e 03d9 7c3d
00000020: c1f5 1e3d 388b ab3c a283 393e a07a 233e
00000030: a0a7 f23b 927b b03d fd4e 263e 2e1e f83d
00000040: 2dde 333e 5385 1c3e 5215 74bc de74 013e
00000050: 56a6 073e 28db 29bc 1fb4 623e ae06 fdbc
00000060: ccc7 3d3a 3a64 1f3e 344b 2d3e 56bc 88bd
00000070: 1b43 183e fda3 1c3e d419 2a3e 8763 df3d
00000080: 36b5 bb3d faf4 de3d 36f5 a3bd 8279 37bc
00000090: 21d9 fc3d 4403 063d 96e8 a93c d440 9cbc
000000a0: 2208 e43d 6f27 1f3e febb 073e ce13 003e
000000b0: 808a c63c d23c e93d fca6 e13d b8c5 a7bc
000000c0: 6d33 be3a 4c0d a23d 10ff 073b ba7c 063e
000000d0: 735d e43d 9a38 0f3e d465 38bd f038 7f3d
000000e0: 839b 71bc 00d7 9b3d 07cd 95bc 1244 e83d
000000f0: 2cfa 093e 0614 af3d 9263 183d 5135 133c
00000100: 24e8 533e 6469 1e3e 605e d6bc 5eb4 1e3e
00000110: e8e0 4f3d 19c7 583e d189 30ba 91e2 92bd
00000120: 25db 2d3c 317b ca3c ad62 ae3d bcc2 f53c
00000130: 42c4 b13d dcf3 873d 2da4 1c3e 1833 ecbc
00000140: 13ec 703d a310 053d 8da7 0cbf 655a 5abc
00000150: d8f2 4b3e ede1 98bc 32cc 8f3d 6cad 87bd
00000160: 8d76 073e 0455 afbc d991 63bd d3f5 a83c
00000170: e350 45bd 4992 15be b325 c7bd 3ff4 1b3d
00000180: ec45 c53d 76ed 2f3c b747 513d fb57 063e
00000190: 297d 9a3d d36d 303e 2245 e93d 302d 14be
000001a0: 7038 723b 4fd4 94bc 44a9 06be abba 263e
000001b0: 4282 263d 6708 5c3e 8bab b6bd fdb0 9d3c
000001c0: 8ed6 83bd b8d2 98be 3a57 2abe 5a29 f4bd
000001d0: af8e 9c3d b125 523e d315 e2bd 3c57 8ebe
000001e0: 3766 3a3e f29c ac3d 39fb 45be 59e9 0bbe
000001f0: 1b0a f7bd d009 c2bd 9bb9 6d3b e6f3 f23c
00000200: f5e4 28be a20b 3f3e 94d2 77bd a732 973d
00000210: f254 43bd c1b7 223d a756 45bc e7ba eebd
00000220: bad7 493d 0429 be3d f3c2 a0bc fe15 5dbd
00000230: 3f19 af3e 7fd3 223d 71bc 823b 100e 57bd
00000240: 381e cebd dce5 ca3d 6acb 6a3d 3687 71be
00000250: 81da f43c 5fe4 f2bd 82a0 0abe 8007 e6bd
00000260: 8844 5a3e 6c4c 083d 911b 14bd b00b da3d
00000270: b6e7 8ebd aede 493d 96db 38bd 8bd0 debc
00000280: 4036 10be 4118 8fbd 0900 1f3e 67c4 41be
00000290: 2eca 4dbe a65c 383c 9fb2 d339 fb71 67be
000002a0: 50ff edbd 7534 b53d 8d81 673d cdb6 a03e
000002b0: 8d96 0dbe 9242 243c 3d67 cbbc d08d cabd
000002c0: 3ed3 013d 9bba 11be a46c 6d3d 4c1d 4e3d
000002d0: 27d7 4eb9 11bd 603d 035f c83d 8e10 bd3d
000002e0: cdfc 013e 3727 a7bd 3fa0 483d 57ae 413e
000002f0: b533 28bc 6e67 923e 743c e6bd 06f8 f2bd
00000300: 9abd 1d3e 42f3 e7bd 7137 0c3d 7c42 3abe
00000310: 45ae a23d a65b ca3e e7da 9d3d 022d 25be
00000320: 39c4 84bd 703a 893d 1e3f ec3c 3d48 0e3d
00000330: 1e36 e93d ad88 20be bce0 31be f490 0e3e
00000340: 606d b2bd 18f8 8abe 7178 2b3e 69f3 f1bd
00000350: 252a c6bd 3e67 babe ad67 a0bd 9679 3ebc
00000360: 731f 35be eb79 73bd d0dd a6bd 6342 45bd
00000370: 75c7 b1bc 8292 79bd c930 a5bd 1ce8 97bc
00000380: f11b d2bb c703 903e f7a0 c8bd 7227 50bd
00000390: 9364 35be 3923 7c3e b3ae 52bd 4fe1 33be
000003a0: e093 b13d b62d 50bd 7fb1 35be ca5c 93bd
000003b0: 71cb 47be fc81 6fbd 2fe2 91bd a6fc cf3d
000003c0: 240e c73d 7243 a6bc 4743 99be ea57 983d
000003d0: aba0 2bbd 73eb b4bd 1cff 21bd d58d b9be
000003e0: 5af0 b23d 84c8 30be 2596 973d b612 243e
000003f0: 4def af3c 0598 0c3d 3a4f 63bc beb0 233d
-0.044301048 -0.005257896 0.11727346 0.08096589 -0.022508364 0.02787606 0.19470306 0.061730396
0.038808588 0.020940408 0.1811662 0.15964746 0.0074052364 0.08617319 0.16241069 0.12115131
0.17565222 0.15285234 -0.014897661 0.12642238 0.13247046 -0.010367192 0.22139023 -0.030886974
0.000723955 0.15565577 0.16923219 -0.06676547 0.14869349 0.15296932 0.16611415 0.10907655
0.091654226 0.10886569 -0.08005755 -0.011198403 0.123461016 0.032717958 0.020740788 -0.019073881
0.11134364 0.15542386 0.13255307 0.12507555 0.024235964 0.11388554 0.11018178 -0.020480022
0.0014511176 0.079126924 0.0020751394 0.13133517 0.111506365 0.13986436 -0.045018986 0.06231016
-0.01474655 0.07609367 -0.018286241 0.113411084 0.13474339 0.08548741 0.037204333 0.00898488
0.20694023 0.15469891 -0.026168048 0.15498492 0.050751597 0.211697 -0.00067344034 -0.0717212
0.01061133 0.024716945 0.08514915 0.030000083 0.08680011 0.06638309 0.15297003 -0.028832957
0.058818888 0.03248657 -0.5494316 -0.013327216 0.19916856 -0.018662417 0.07021369 -0.066248745
0.13228817 -0.021402843 -0.055559013 0.02062503 -0.048172843 -0.14606585 -0.097239874 0.038074728
0.09632477 0.010737767 0.051093783 0.131195 0.07543404 0.17229395 0.11390139 -0.14470363
0.003695991 -0.018167643 -0.13150507 0.16282146 0.040651567 0.2148758 -0.08919438 0.019249434
-0.064374074 -0.29848266 -0.16634837 -0.1192195 0.07644402 0.2052219 -0.11039319 -0.2780093
0.18203054 0.084283724 -0.19334115 -0.13663234 -0.12062474 -0.09474528 0.003627396 0.029657315
-0.1649359 0.18656781 -0.060503557 0.07382708 -0.047688432 0.039726023 -0.012044585 -0.116567425
0.049278 0.09285167 -0.019624209 -0.05397605 0.3419895 0.03975248 0.003989749 -0.052503645
-0.100643575 0.099071234 0.057322897 -0.23586735 0.029889347 -0.118599646 -0.13537791 -0.11231899
0.21315205 0.033276007 -0.036159102 0.106467605 -0.06977789 0.04928463 -0.04513129 -0.02719905
-0.14083195 -0.06987048 0.15527357 -0.18922578 -0.20096657 0.011252558 0.0004037814 -0.22602074
-0.116209626 0.08847896 0.056520034 0.31389466 -0.13826962 0.010025637 -0.024829501 -0.0989033
0.031695597 -0.1423134 0.057964936 0.05032091 -0.00019725841 0.054867808 0.09783747 0.09231673
0.12694092 -0.081617765 0.048980948 0.18914162 -0.010266234 0.28594536 -0.11241999 -0.11863713
0.15404359 -0.113256946 0.03423256 -0.18189424 0.079433955 0.39523047 0.07707768 -0.1613045
-0.06482739 0.06700599 0.02883869 0.03473686 0.11387275 -0.15677138 -0.17370886 0.13922483
-0.08712268 -0.27142406 0.16745164 -0.11814005 -0.09676007 -0.36406893 -0.078322746 -0.011625668
-0.17687778 -0.059442442 -0.08147776 -0.048159014 -0.021701554 -0.060930736 -0.08065946 -0.018543296
-0.0064120223 0.28127882 -0.097963266 -0.050818868 -0.17714147 0.24622811 -0.051436137 -0.17566417
0.08670783 -0.050824843 -0.1774349 -0.071954325 -0.195112 -0.058473572 -0.07123219 0.10155611
0.09719494 -0.020295832 -0.2993414 0.07438643 -0.04190127 -0.08833971 -0.039549932 -0.36241022
0.0873725 -0.1726399 0.07401685 0.16022763 0.021476412 0.034324665 -0.01387387 0.039963476

fc2.bias f4 [80]
00000000: e4c7 da3e 5521 2a3e 20c9 b23d e57c 2a3e
00000010: 51b2 b0bd bd4d bebd 27e4 7d3d 33fb f8bc
00000020: 62a7 8abd 2d4e 1e3d 01cf e53c e6b9 f1bc
00000030: 00de 5cbd e4af 693c 3d7e 053e 1959 363d
00000040: c0b3 fcbd e5a8 f5bd a550 1ebd 24c2 f8bd
00000050: e9f1 e1bd 2c4a 393c 73c1 47be 75e0 6f3d
00000060: 1ffd d3bd 07a6 b03d d553 4f3d 58c7 c93e
00000070: 60f4 00be e6dd e5bc 912b e53e ca0b d4bd
00000080: ed43 a23d 5a23 e83e 33ec db3b ed48 0c3e
00000090: ab65 693c 2a96 d3bc 088c bcbd d1c6 5ebd
000000a0: 1ae6 09bd d6ef 5b3e 63a8 343e 8121 dc3c
000000b0: 1bb5 ebbd 0fa3 023e 243b f4bd cd38 263e
000000c0: fc16 603e 3f22 b2bd 5eed 42bd 633b 20be
000000d0: f6a5 8c3c 6ad4 be3e 6dc9 b93c f457 3a3d
000000e0: f998 293e 04db 803c 4a11 5d3e 4bdf a73d
000000f0: a303 f0bc 7b4e d53e 8ef1 003e 939b 423b
00000100: a4e8 243c b66a bc3d 6eaf b03d 59da 323e
00000110: da6f 7d3e 9d3a 10be bcfb 40be 2298 e53d
00000120: 2091 b1bb a6e1 6c3d 5705 843e 953d 793d
00000130: ec16 c3bd b18f 16bd 935d 92bb 81e5 6c3d
0.4273063 0.16614278 0.08729768 0.16649206 -0.08627761 -0.09292171 0.06198516 -0.030393219
-0.06770207 0.038648773 0.028052809 -0.029507589 -0.053922653 0.014263127 0.13036437 0.044518564
-0.12338972 -0.11995105 -0.038651127 -0.121464044 -0.11032469 0.011309188 -0.19507389 0.05856367
-0.103510134 0.08625417 0.050617058 0.394099 -0.12593222 -0.028059911 0.447598 -0.10353811
0.07923112 0.4533947 0.0067115068 0.13699694 0.014245431 -0.02582844 -0.09206396 -0.054388825
-0.033666708 0.21478209 0.1764236 0.026871445 -0.115091525 0.12757514 -0.11925343 0.16232605
0.21883768 -0.08697938 -0.047589652 -0.15647654 0.01716898 0.37271434 0.022679055 0.045494035
0.1656226 0.015729435 0.21588627 0.08196887 -0.02929861 0.41661438 0.12592146 0.002969478
0.0100652315 0.09200041 0.086272106 0.17466106 0.24749699 -0.14084859 -0.18846029 0.11210658
-0.0054189116 0.057832383 0.25785324 0.060849745 -0.095258564 -0.03675813 -0.0044667213 0.05783606

fc3.weight f4 [4, 80]
00000000: 5274 083e a28a f03d 1d91 363e 9c8d 893d
00000010: 930b c93e 0896 8fbd 38b5 ae3d 3e5c a93b
00000020: 1fc3 30bd 2de1 113e 8531 cb3d 3dfd 993d
00000030: 082b 193e 1471 b43e 533b 9f3e cb26 4e3e
00000040: d7ab 243d 2fbc 96be 5b6a e9bd cbea 62be
00000050: 892a 65be f480 d4be 3498 95bd 8847 443d
00000060: 744a bfbd 0fa5 383e 02c7 ff3d e2ba 113e
00000070: ae0e a5be 0c8c 3b3e 133f 0a3e f970 1d3c
00000080: 578c 9f3e a4ce 523e 43b3 47be 3aaa a83d
00000090: 1d30 2f3e 2aa9 06bf df28 e13c adad bf3d
000000a0: 14f9 833e d43c 0d3e 2f5c 8d3e e3bf b0bd
000000b0: ceab c83e eba7 da3d 215b 49be 32e1 8c3d
000000c0: e354 123e f81b a23c 3cc4 9dbd 6603 56be
000000d0: b8eb fd3d ff7c be3d 6ef9 b23d 3008 d43d
000000e0: f187 a53d 12db 92bd 1ccd 8b3e 4cca a03e
000000f0: 6e28 54be de98 543e ac67 153f 869f bd3e
00000100: 7ac8 803e d4c5 1bbe ecf8 8d3d eebe b0be
00000110: 9940 0a3d 9522 2dbe 79f0 89be 9d60 d4bd
00000120: 25af 2f3e 98ca 8e3d 5467 d83d 3410 2bbe
00000130: 7378 543d 8198 09be 0999 da3d bb02 833e
00000140: 3af0 303e e773 cd3d acea bf3d d065 ec3d
00000150: fb89 8d3e 4079 07bb 2895 083e f1a6 f8be
00000160: 685b c63d 18a4 7abe 4d49 423e 062c f9bd
00000170: 44fd c03d 395b 6e3e 6b3a 7b3e c863 ab3e
00000180: 28f4 803d ac6c 67bd b567 41be 4a2c 24be
00000190: 076e 05be 58b9 ef3d 6c13 06be ba2b 173e
000001a0: a554 debd 0544 4f3e 8f6d 8d3c 6ce3 6a3e
000001b0: 3280 ecbd f645 b7bd 2f0e 3e3e d10c 3a3e
000001c0: 9883 e83e 629c 3b3e 2e63 813e 1c9c 563e
000001d0: 3db9 353e 5994 8cbe a22e dc3c f887 2fbd
000001e0: 8f26 363e 7df3 3c3d 5ae6 533e 2a8b 68bd
000001f0: 6a04 223f 239f ee3d ef02 25bd f571 ee3d
00000200: 9ca0 823e e497 0f3c 505e cabd 031f 5cbe
00000210: 89a6 8f3e dcd1 d53d 5bd6 89be 0a89 af3d
00000220: bd0e bdbc 5fcb 073d 6565 2a3e d1d6 963e
00000230: 0420 0abe 3194 3c3e 8c32 0f3f 83ae bc3e
00000240: 786b c23e a20a 683e b828 9d3d 9137 943e
00000250: 1f93 c43d 7bf5 27be 24a0 2abe 66db f3be
00000260: 4c0d 683e 1734 cb3c 834a 203d f9a8 883d
00000270: 5d27 92bc 8f8d 9cbd b914 fb3d 9e96 a23e
00000280: 6521 533e 0bc9 053e 3357 ba3d 9d06 bc3d
00000290: b2b0 883e aa78 a0bd 4564 fe3d 93fb 2ebe
000002a0: 1d96 ddbe 5f4d 5e3e aa4f 943d dd8e 573d
000002b0: 27df fdbd f828 ce3b 712c 2a3e afba 833e
000002c0: a157 61be 8754 c6be 5316 3c3d 3457 b7be
000002d0: eb5a 5a3d 3add 9abe aa93 f3bc b44f 933e
000002e0: 5421 e03c ffec 533e 204a 573e f9c8 0e3e
000002f0: ad6a cdbe a6b3 2f3e 4bf7 003e 14bc d33d
00000300: ab37 50bd 6a9c 363e 95f0 26be a758 293e
00000310: 7420 6abd e308 bdbd 4ef3 223e 8828 c73d
00000320: 8249 a93e 0948 d73d 4cf4 133e 72da 823d
00000330: e4f4 373f fbe3 133e 6106 293d 5835 943d
00000340: 8c84 223e 3941 093d 7440 843e c0e6 dcbd
00000350: f433 4c3e 3104 293e e8ac d13d d7c9 243e
00000360: 218e 993d 8b6d 423e 7920 1b3e 5821 9d3d
00000370: 22b1 1bbe 04cb e03d a23c 9e3e 3873 e13e
00000380: 2241 aa3e fac3 ab3e 6e76 8c3d 7254 293e
00000390: 5b3f a93d ebb1 c1bd d2c9 88be 1a86 71bc
000003a0: 3339 7f3e 7217 6d3e b457 3d3e d760 bb3d
000003b0: 9d28 44be 10b6 963d fd07 3fbc f240 8b3e
000003c0: 3171 373e 76c9 b73c b56a 683e 80c5 2f3e
000003d0: 4854 373e aff9 8c3b 562d 9a3e 96e1 7b3d
000003e0: ddb2 d2bd a7ff 243e a3a9 7d3d cbd0 69be
000003f0: d780 be3d 0dba a13e 0379 493e 6e5a c93e
0.13325623 0.11745192 0.17828794 0.06716463 0.39266643 -0.07011038 0.085306585 0.005168467
-0.043154832 0.14246054 0.099215545 0.075190045 0.14957821 0.35242522 0.31099948 0.20131986
0.04020294 -0.29440448 -0.11397239 -0.22159879 -0.22379507 -0.41504633 -0.07304421 0.04791978
-0.09340373 0.18031715 0.124891296 0.14231446 -0.32237762 0.18315142 0.13500623 0.009609454
0.31161758 0.2058664 -0.19501977 0.08235593 0.17108198 -0.52601874 0.02748531 0.09359298
0.2577597 0.13792735 0.27609393 -0.086303495 0.39193577 0.10676559 -0.19663669 0.0687889
0.14290194 0.019788727 -0.07703444 -0.20899734 0.123984754 0.09301185 0.08738981 0.10353124
0.080825694 -0.071706906 0.27304924 0.3140434 -0.20718548 0.20761439 0.58361316 0.3703577
0.2515295 -0.15212184 0.06932244 -0.34520668 0.03375301 -0.16907723 -0.2694128 -0.1036999
0.17156656 0.069722354 0.10566583 -0.167054 0.05187268 -0.13437082 0.106737204 0.2558802
0.17279139 0.10031872 0.09370932 0.11542857 0.27644333 -0.0020671636 0.13338149 -0.48564866
0.09685403 -0.2447666 0.18973275 -0.121666 0.094233066 0.23276986 0.24534003 0.33474565
0.06296569 -0.056500122 -0.18887217 -0.1603252 -0.13030253 0.117052734 -0.13093346 0.14762774
-0.108559884 0.20240791 0.017264156 0.22938317 -0.11547889 -0.08948891 0.18560098 0.18168952
0.45412898 0.18321374 0.2527098 0.20957989 0.17746444 -0.2745693 0.026877705 -0.04285428
0.17788146 0.046130646 0.20693341 -0.056773342 0.63287985 0.11651447 -0.040286 0.11642829
0.2551316 0.008764241 -0.0988127 -0.21496205 0.28056744 0.10440418 -0.26921353 0.0857106
-0.023078317 0.033152934 0.16640241 0.29460767 -0.13488775 0.18415906 0.55936503 0.36851892
0.37972617 0.22660306 0.07673782 0.28948644 0.095983736 -0.16402237 -0.16662651 -0.47628325
0.22661322 0.024805112 0.03913356 0.06672854 -0.017841036 -0.07644188 0.12259812 0.31755537
0.20618208 0.13064973 0.09098663 0.09180949 0.26697308 -0.07835515 0.12421469 -0.17088155
-0.4327859 0.21709202 0.07241757 0.05262648 -0.123960786 0.006291505 0.16618516 0.25728366
-0.22006084 -0.38736364 0.045919728 -0.35808718 0.053309362 -0.30246907 -0.029733498 0.28771746
0.027359642 0.20695876 0.2102437 0.13943852 -0.4012045 0.17158374 0.12594335 0.103386074
-0.05083434 0.17833105 -0.16302712 0.16537724 -0.057159856 -0.09230211 0.15913126 0.097245276
0.33063895 0.105117865 0.1444866 0.063893214 0.7185805 0.14442436 0.04126585 0.07236737
0.15870875 0.033509467 0.25830424 -0.107861996 0.19941694 0.16505505 0.102380574 0.16092621
0.07497812 0.189871 0.15149106 0.076723754 -0.1520429 0.10976222 0.30905634 0.44033217
0.33252817 0.33547956 0.06858526 0.1653612 0.08264037 -0.09457763 -0.26716477 -0.014741445
0.24924164 0.23153475 0.18490487 0.0914933 -0.19156118 0.073589444 -0.011659619 0.27197987
0.17914273 0.022434931 0.22696956 0.17165184 0.17903244 0.0043022255 0.30112714 0.061494432
-0.10288022 0.16113149 0.061929356 -0.22833554 0.09301918 0.31587258 0.19675069 0.39326805

fc3.bias f4 [4]
00000000: 7fae 993e 4830 6e3e 67bd 833e ed0b 3c3e
0.30015942 0.23260605 0.2573044 0.18363924
