Double DQN/ddqn_checkpoint_2.pth (torch_old, 40359 bytes, 6 tensors)

fc1.weight f4 [80, 37]
000000 30 70 6c 3e 7c f3 d9 be 9c e5 b5 be 75 14 05 bd
       0.23089671 -0.42568576 -0.3552674 -0.032490212
000010 de 40 af 3e 3c 66 61 3d c5 6a 85 bd c3 25 32 3d
       0.34229177 0.05502914 -0.06514505 0.043493044
000020 6c a0 d1 bc 83 93 a3 3d 43 7a 6b be 96 ce 90 3b
       -0.02558919 0.0798712 -0.22995858 0.004419158
000030 1a 20 20 bf 36 09 22 bd 28 d9 8a be f8 6c e4 3d
       -0.62548983 -0.039559565 -0.27118802 0.11153597
000040 68 71 16 3e 76 e7 90 be 76 28 1e be 92 28 16 3e
       0.14691699 -0.2830159 -0.15445122 0.14663914
000050 42 69 32 3e 9c 2d 3e 3e fd 88 e6 be 41 30 4d bd
       0.17422965 0.18572086 -0.4502639 -0.050094847
000060 bd 0e da bd b0 0b 29 bd 02 84 47 bc c8 c8 0a bd
       -0.10647342 -0.04127091 -0.012177469 -0.033882886
000070 19 b2 34 be 2e 26 8d 3c 2b 35 54 be 0c c6 0d 3e
       -0.17646064 0.01723012 -0.20723407 0.1384508
000080 3d b3 0a be c6 b4 82 bd 3f 35 8b be 89 85 ae bd
       -0.13544936 -0.06382136 -0.2718906 -0.085215636
000090 30 3b a9 bc 2e 3a 36 3e 98 a4 cc 3c 63 78 9d 3b
       -0.020658106 0.17795631 0.024980828 0.004805611
0000a0 11 4c 7f 3e d4 1b 0f be 1b d3 4e 3e 91 50 0f be
       0.24931361 -0.1397546 0.20197718 -0.13995577
0000b0 71 d5 0a be 20 82 87 be 79 77 12 be 6d 68 41 3e
       -0.13557984 -0.26466465 -0.14303388 0.18887492
0000c0 2e 8c 21 be a1 cc a6 3d da a5 ea 3d b2 02 b7 3c
       -0.1577613 0.081444986 0.11457415 0.022340152
0000d0 c6 fc 3f 3e 26 e8 0e 3e 1d 92 5b 3d 9a c4 2e be
       0.18748769 0.13955745 0.05360614 -0.17067185
0000e0 11 a9 a9 be 23 99 52 bd 48 1e c6 bd ff ea 13 be
       -0.331368 -0.051415574 -0.096737444 -0.14445113
0000f0 e9 bc 48 3e 74 a2 f5 3d e8 90 28 be ea 4c 87 3d
       0.19603314 0.11993876 -0.16461527 0.06606467
000100 0b f1 80 3e a3 65 e4 3d 03 c2 98 bd 8e 01 9b 3b
       0.251839 0.11152198 -0.0745888 0.00473041
000110 0b 28 82 3d 85 06 82 3e dc f1 c8 3d 60 ca 3e 3e
       0.06355294 0.253956 0.09811756 0.18631887
000120 f4 5e 49 bd 33 dd e5 bc 82 de 51 3d a9 26 0d 3e
       -0.04916282 -0.028059578 0.05123759 0.13784279
000130 fc f5 24 3e 89 ed 49 3c d9 b9 f8 3b 77 32 0b bd
       0.1610946 0.012324699 0.007590514 -0.033983674
000140 a6 41 12 3d b1 50 91 3d c0 bc b4 3d 3b 1b 5b be
       0.03570714 0.07095469 0.08825064 -0.21397106
000150 27 44 d8 3e 6b 05 2b bf cb 15 9b be 0c e0 b7 be
       0.42239496 -0.6680514 -0.30290064 -0.35913122
000160 90 67 01 c0 82 c1 ad 3d 14 09 9b 3d b6 39 be 3d
       -2.021946 0.08484174 0.07570091 0.09288351
000170 c8 32 1f 3e ac 7a f6 3d 32 7b f1 bd 96 2a 1b bd
       0.15546715 0.120351166 -0.11791076 -0.03788241
000180 22 a4 2f 3e 63 0c 16 3d ba d7 30 3e 55 7b 1f 3d
       0.17152455 0.036632907 0.17269793 0.038935978
000190 b8 74 9d 3d 4d af bc 3d ac 15 26 3e c0 ab 86 bd
       0.07688278 0.092131235 0.16219205 -0.065757275
0001a0 54 9b aa bd e7 75 93 bd 76 58 50 bd e9 99 20 bd
       -0.08330408 -0.072002225 -0.050865613 -0.03920928
0001b0 0a 0e 39 3d f0 56 61 3c e8 ea e5 3b 3c 6a 88 3d
       0.045179404 0.013753638 0.0070165284 0.066608876
0001c0 ec ae fa 3d 50 ca 83 3d 3e 73 f8 3d 06 76 da 3b
       0.12240395 0.064350724 0.12131356 0.0066669015
0001d0 20 31 f5 bd 59 6c f5 bc 4f 4d f3 3d f5 cc 86 3e
       -0.119722605 -0.02995889 0.1187998 0.26328245
0001e0 ff ec bd 3d 95 b5 aa 3c f5 16 72 bc a9 c2 51 3c
       0.09273719 0.020838538 -0.014775981 0.012802758
0001f0 66 85 33 3c 7b 2e 7f bd b0 9a 08 be 45 57 4a 3c
       0.010957098 -0.062300187 -0.13340259 0.012349908
000200 75 b0 84 3c 4a 13 88 bd 4c d4 1a 3d a5 4a c7 3e
       0.016197423 -0.06644304 0.03780012 0.38924137
000210 79 80 c2 be 46 d2 eb be c9 30 88 be dc a8 f6 bf
       -0.37988642 -0.46058863 -0.2659972 -1.9270282
000220 1e 00 71 bc 38 49 2f 3d 1f 19 09 3e 7e 15 17 3e
       -0.014709501 0.042794436 0.13388489 0.14754292
000230 76 0f 36 3e 37 dd 16 3e 47 f3 05 3e 16 6c a9 3c
       0.17779335 0.14732824 0.13081084 0.020681422
000240 d7 08 68 3d 6b a4 38 3d f9 3c 85 3b 89 5f 4b bb
       0.056649055 0.045078676 0.0040661064 -0.0031032285
000250 14 15 ef be 43 1e 99 be 8a b2 35 bd 04 4d ff 3b
       -0.4669577 -0.299059 -0.04435972 0.0077911634
000260 a6 88 22 bc 55 b1 b9 be a9 82 81 be 94 86 fd 3d
       -0.009920275 -0.36268106 -0.25294998 0.12379184
000270 28 1f d1 3c 29 99 05 3c bf 1a 40 be 96 cc fe be
       0.025527552 0.008154192 -0.18760203 -0.49765462
000280 49 3e 11 3e 85 7a 50 3d 0c 68 a4 be 7a 55 66 bd
       0.14183916 0.050898094 -0.3211063 -0.05623386
000290 d6 0d 40 be 7f 65 87 bc d8 b4 40 be 55 8f 74 be
       -0.18755278 -0.01652789 -0.18818986 -0.23882802
0002a0 1d ec 0c be 4e 4c a0 3d 23 10 b8 3d 4f 84 35 bf
       -0.13761945 0.07827054 0.08987453 -0.7090501
0002b0 d5 ab 92 bc 2a 14 45 be db 62 95 be c2 77 7b 3e
       -0.017904202 -0.19245973 -0.29176983 0.24557403
0002c0 e9 3d 8d 3d eb 13 8f 3e a1 60 11 3e b4 31 1c bf
       0.06896574 0.27944884 0.14197017 -0.6101334
0002d0 67 c8 51 bd b5 b9 77 3c 03 3b 1a 3e 30 7b 27 bd
       -0.05121651 0.01511996 0.15061574 -0.040888965
0002e0 a3 6d 87 bc 2d bb 7b 3d 8f 07 fd bd 3e b5 68 bc
       -0.016531771 0.0614578 -0.12354957 -0.014203368
0002f0 e3 e5 d9 bd 97 6c 44 be 7e 46 82 3e af 91 a2 3d
       -0.106395505 -0.19182049 0.25444406 0.07937943
000300 7b c1 91 be 3e 8b b8 bd d8 80 c3 be 1e d4 c6 be
       -0.28467926 -0.09010933 -0.38184237 -0.38833708
000310 73 3c 33 bd 56 e3 d5 3d c9 7c ce bd 84 bb 4a 3d
       -0.04375882 0.104437515 -0.10082395 0.049495235
000320 86 97 ca bd 3f c5 2b 3e 67 50 05 3c a8 a0 85 be
       -0.09892182 0.16774462 0.008136845 -0.26099133
000330 5a 89 c8 bd c8 3b 97 bd 0d 53 01 3e c7 6a c0 bd
       -0.09791823 -0.07384449 0.12629338 -0.09395366
000340 fd 69 9d 3e 8d 7d 22 be 9f ba 38 bd 74 a9 26 3d
       0.30744925 -0.15868206 -0.04509985 0.040688947
000350 cc f5 34 bb de fb e3 bc c6 6c 17 3e 2d 49 80 3d
       -0.0027612327 -0.02783006 0.14787588 0.06263957
000360 8c c7 29 bd 7f 72 d7 bd 45 f6 29 be 43 34 57 bf
       -0.04145007 -0.10519885 -0.1659785 -0.8406412
000370 77 38 37 3e e7 f9 b8 bc d4 9a 4d 3e 02 dc 53 3d
       0.17892633 -0.0225801 0.20078593 0.051723488
000380 14 e9 a7 3d 78 d7 c7 3d 05 29 05 be 50 18 25 3d
       0.08198753 0.09757894 -0.13003929 0.04030639
000390 6a 0a 41 bd 69 3b ee 3d 80 dd 80 3e 51 f4 d6 3d
       -0.047129072 0.11632425 0.2516899 0.104958184
0003a0 b3 ce 56 3e 86 c1 18 3e 2c 62 69 3e 23 69 16 3e
       0.20977287 0.14917573 0.22791356 0.14688544
0003b0 47 23 51 3d 9b b9 ae 3c a8 8f 08 bb 77 a0 44 3e
       0.051059034 0.021328738 -0.002083758 0.19201837
0003c0 19 5e 36 3e eb 0b 4c 3d a5 3b 1b bb f2 84 11 3e
       0.17809333 0.049816053 -0.0023686674 0.14210871
0003d0 b8 78 3c 3e 35 07 84 3d 24 7d 71 3e 11 92 59 bc
       0.18405426 0.06446687 0.23582894 -0.013279454
0003e0 82 35 fb 3d 71 c9 94 3d 50 14 05 3c 61 15 b9 bd
       0.12266065 0.072649844 0.008122519 -0.09037281
0003f0 f6 ff 4c 3e 71 32 8c 3d 1c fd 43 3e f1 52 a3 bd
       0.20019516 0.068455584 0.19139522 -0.07974804

fc1.bias f4 [80]
000000 2d 5f d5 3c 74 f2 e4 bd 61 66 71 3d c6 19 f3 bd
       0.02604636 -0.11179057 0.058935527 -0.1187015
000010 33 95 c7 3c 5e c4 80 3d c6 5e a3 3e 7e 9b ea 3c
       0.024363136 0.06287454 0.31908244 0.028638598
000020 7b 4b 04 3e 69 0e ae 3c 3d 54 94 3e 9c 8b db 3d
       0.12919419 0.021247106 0.2897052 0.10719988
000030 0b d8 93 be fa a7 70 bd 7d 56 68 bc 83 ec 89 3b
       -0.28875765 -0.058753945 -0.014180777 0.0042091026
000040 55 90 6d 3e 2c da 3c 3d b5 62 c6 3c f4 d9 86 3e
       0.2319959 0.046106502 0.024216989 0.2633816
000050 de 39 6f 3d 7f e3 a8 bd f1 7e 3f 3e 6f d0 6a be
       0.058404796 -0.082465164 0.18700768 -0.22931074
000060 de 1b 5c be 8e c5 b8 3d 4d 7a d1 3b dd 8c a0 bd
       -0.21495005 0.090220556 0.006392753 -0.078393675
000070 b1 b3 f9 3d 75 aa 2a 3e bc b2 2a 3e 9f d4 fe bd
       0.121924765 0.16666587 0.16669744 -0.12442898
000080 a3 35 a5 bd 7b 1d 24 be 17 26 2a 3d 8b a4 f7 bd
       -0.08066871 -0.16026871 0.04154023 -0.12091931
000090 95 2e b3 3d bd a3 da bd d2 c2 b7 bd 0b 54 5f be
       0.08749119 -0.10675762 -0.08972706 -0.21809404
0000a0 bb 63 2b 3d 1e 4e 1f be 8e dc fd bd bc 35 aa 3d
       0.041843157 -0.15557143 -0.12395583 0.0831103
0000b0 54 62 ff 3c dc 04 6d be 81 11 f8 bd 5f 71 02 3e
       0.031174816 -0.23146385 -0.121127136 0.1273856
0000c0 8a ab c6 3d 1f 36 43 3d 77 1e a7 3d d8 60 18 bd
       0.09700687 0.047659036 0.081601076 -0.037201732
0000d0 06 93 11 be a1 47 f8 3d 35 94 37 be 8a e0 46 3c
       -0.14216241 0.12123037 -0.1792763 0.012138495
0000e0 2d e3 0c 3e b6 75 b3 bd 7e 49 04 3e 50 8c 08 3e
       0.13758536 -0.08762686 0.1291866 0.13334775
0000f0 17 79 6a 3d 74 88 5b 3e 47 2e 58 3d 8b 0d 2c be
       0.057244387 0.21438771 0.05277851 -0.16802041
000100 7f 2d 5f bc ae cb 22 3b c1 cb 91 3d f9 9a 09 be
       -0.013621687 0.002484064 0.07118941 -0.13438024
000110 27 79 4f bd 5b 04 43 3d e2 b6 e2 3d e1 f6 9b 3d
       -0.05065265 0.047611576 0.110700384 0.07615448
000120 2d a3 6f 3d 67 20 fa bd 22 d5 d5 bd bc 2f 21 3c
       0.058505226 -0.122132115 -0.104410425 0.009838041
000130 b7 c8 f5 bd 33 fd 71 be f0 a9 79 bd 72 6f 28 be
       -0.12001174 -0.23631744 -0.06095308 -0.16448763

fc2.weight f4 [80, 80]
000000 51 47 8e bd f9 66 94 bc 56 b4 cf 3d 95 c5 90 3d
       -0.06947196 -0.018115507 0.10141818 0.07068936
000010 5f c1 c9 bd 2d 8a 19 3c 03 2b 5c 3e 7f 9c cd 3b
       -0.09851336 0.009371323 0.21500783 0.0062747593
000020 19 48 4d 3d e4 a9 95 3c c4 78 74 3e 23 97 11 3e
       0.050117586 0.018269487 0.23874193 0.1421781
000030 cb 79 98 bd c3 c5 85 3d fa 00 dd 3d 02 47 02 3e
       -0.07445105 0.06531861 0.10791202 0.127224
000040 dc c8 3e 3e a5 5e 1e 3e 90 66 5e 3b aa 75 22 3e
       0.1863131 0.15465792 0.0033935644 0.15865198
000050 f5 8e 09 3e c7 b1 10 3c 7f 84 8b 3e 5e 18 7c bd
       0.1343344 0.008831448 0.27249524 -0.061546676
000060 24 b6 4d 3c 2f 1c 14 3e de 34 02 3e e4 57 ac bd
       0.012555633 0.14463876 0.1271548 -0.08415201
000070 fb 84 15 3e c0 80 20 3e 14 da 03 3d eb 71 e9 3d
       0.1460151 0.15674114 0.032190397 0.11398681
000080 54 26 f7 3d 86 4c 92 3d 92 40 9f bd a1 b9 41 bc
       0.120678574 0.07143502 -0.07775988 -0.011824043
000090 a0 11 f2 3d d5 0f b7 bb 0c e1 2c bd 9c 56 8d bc
       0.11819768 -0.005586604 -0.04220681 -0.017253213
0000a0 60 42 ed 3d 52 b2 0a 3e 6e e3 0e 3e 49 69 c1 3d
       0.11584926 0.13544586 0.13953945 0.0944391
0000b0 be 07 63 3c aa 09 f8 3d c7 f5 1c 3e d7 4c 79 bb
       0.013856826 0.12111218 0.15328132 -0.0038040185
0000c0 8b 7f 5a bc 52 25 f7 3d 31 a8 db bc 44 87 09 3e
       -0.013336073 0.12067665 -0.026813598 0.13430506
0000d0 35 ca b2 3d db a4 cb 3d 6e a4 f8 bc ff 00 87 3d
       0.08729974 0.09943553 -0.030351844 0.06591987
0000e0 32 4d 87 bc ad 6e a8 3d 34 53 c2 bc 8b e9 08 3e
       -0.016516302 0.08224235 -0.023721315 0.1337034
0000f0 8f 00 cf 3d 2f b2 ca 3d 54 8d 38 3d 94 89 3f bc
       0.101075284 0.09897267 0.045056656 -0.011690516
000100 fc 04 32 3e 8f d0 14 3e d1 85 05 bd 49 ab 04 3e
       0.17384714 0.14532684 -0.03259832 0.12955965
000110 af 65 5d 3c 25 84 5f 3e af 7c d8 bc 0c 6f 2a bd
       0.013513013 0.21827753 -0.026426641 -0.04160981
000120 8f 56 fe 3c e8 b7 db 3c a1 f4 b2 3d 0d 53 69 3c
       0.031047134 0.026821092 0.087380655 0.014240992
000130 4e b0 b9 3d 76 1c b8 3d 60 00 19 3e 5e 0b b1 bb
       0.090668306 0.089898035 0.1494155 -0.0054029664
000140 5d 5e 93 3d 20 d2 b4 bb ac da 37 bf 5c bb e0 bc
       0.07195733 -0.005518213 -0.7181804 -0.02743309
000150 9b b3 03 3e 36 63 8c bd 77 b3 36 3d 4b b3 83 be
       0.12861483 -0.068548605 0.044604745 -0.25722727
000160 dc 82 f7 3d cd 7e 09 ba 66 fd 6a bd 11 45 21 3c
       0.12085506 -0.000524503 -0.057370566 0.009843127
000170 cb 0e 25 be ba 2d 45 be ea 41 87 be 19 c4 04 3c
       -0.16118924 -0.19255725 -0.26417476 0.008103394
000180 10 5e 9e 3d 39 c1 92 3c 90 6d 62 3d e6 a9 f8 3d
       0.07732785 0.017914401 0.05528027 0.121417806
000190 10 f9 78 3d e9 a3 1f 3e 3e 28 f2 3d 79 f4 e5 bd
       0.0607844 0.1558987 0.11824082 -0.1122827
0001a0 56 2c 61 3d 5f a2 4e bd ed d5 5c be 23 37 20 3e
       0.054973923 -0.050447818 -0.21565981 0.15646033
0001b0 ca 26 c1 3c d6 79 58 3e 91 2a 3c be e7 36 7a bc
       0.023578066 0.21140227 -0.18375613 -0.015271879
0001c0 a7 48 41 bd 23 37 a0 be 46 83 31 be 2a 78 de bd
       -0.047188427 -0.31292066 -0.17335233 -0.10862763
0001d0 70 3b df 3d a9 2b ec 3d c2 79 7d be ae b3 7e be
       0.10900009 0.11531765 -0.24753478 -0.2487323
0001e0 21 8d f1 3d 29 bc cd 3d 98 45 3e be de 20 13 be
       0.11794496 0.10045654 -0.18581235 -0.14368007
0001f0 6b 8c e8 bd 2f b9 27 be d4 ed 09 3c d5 12 0a 3d
       -0.113549076 -0.16379236 0.008418519 0.033709366
000200 81 54 63 be 1c 26 59 3e 23 b1 04 be 7c 35 cd 3d
       -0.22200204 0.21205944 -0.12958197 0.10019967
000210 c5 f0 00 be d2 d6 cc bc 8e 09 79 3c 04 6e 69 be
       -0.12591846 -0.025004778 0.015200032 -0.22795874
000220 42 60 4f bc 8b 29 80 3d 92 ba 62 bd ce e9 02 bc
       -0.012657227 0.06257924 -0.05535371 -0.007990314
000230 d4 8a 9a 3e 22 37 f1 3a 2c eb ab bc eb 0d f6 bc
       0.30184042 0.0018403272 -0.020986162 -0.030035933
000240 f4 ea 1c be 2f 99 dc 3c f7 47 06 3d 68 fc 6f be
       -0.15324003 0.026928512 0.032783475 -0.23436129
000250 b4 a2 84 bd d3 f1 ee bd 8c 39 2d be 7d 3e 0d be
       -0.06476346 -0.11667218 -0.16916484 -0.13793369
000260 f2 d4 88 3e ce a8 69 bc 0e b1 7e 3c 50 b4 b2 3d
       0.26724964 -0.014261438 0.015545143 0.08725798
000270 1d 9a 67 bd a8 9e eb 3c fd 29 24 be 7c 85 a8 bc
       -0.05654346 0.028762177 -0.16031642 -0.020571463
000280 43 7b 30 be 15 3d c1 bc 21 79 1a 3e 27 e6 61 be
       -0.1723452 -0.023588696 0.1508527 -0.22060452
000290 63 8f 69 be 5e ea 00 bb fd ef 84 bd b8 f6 7b be
       -0.22808604 -0.0019670944 -0.06491087 -0.24605834
0002a0 70 82 03 be 3d 8d 4c bc 6e e6 d8 3c 91 fc bd 3e
       -0.12842727 -0.012484846 0.026477065 0.37106755
0002b0 a7 69 49 3d 39 5f 02 3c 8d 59 8b 3c 78 03 04 be
       0.049173024 0.007957273 0.017010475 -0.12891948
0002c0 a1 d7 60 3a 62 a6 2f be c3 ec f1 3d e9 b3 4a 3d
       0.0008577053 -0.17153314 0.11812737 0.049487982
0002d0 de c0 ae bc 03 47 8a bc 88 db a2 3d d5 ab be bb
       -0.0213322 -0.016879564 0.079520285 -0.005818824
0002e0 1d db c9 3d b1 fb 65 be 53 31 8b 3c 81 13 38 3e
       0.09856246 -0.22459294 0.016991293 0.1797619
0002f0 e1 b4 37 bd 1c 01 54 3e 9c 4d 94 bd 60 85 01 3b
       -0.044850234 0.20703548 -0.07241365 0.0019763336
000300 6b 47 25 3d ca 01 cf bd 42 23 15 3d 87 ec a9 bd
       0.040351313 -0.10107763 0.036410578 -0.08297067
000310 4c d5 96 3d 4f fd 05 3f cb 43 e2 3d 1e dc 8a be
       0.07364902 0.52339643 0.11048087 -0.2712106
000320 2a 3d 69 bd 67 a0 96 3d e7 5d ca 3c e5 5e 5d 39
       -0.056943096 0.07354813 0.02470298 0.00021111553
000330 95 32 9c 3d f3 5b 0d be b9 c2 a1 bd 64 85 2d 3e
       0.07626835 -0.13804607 -0.078984685 0.16945416
000340 c8 5e 94 bd 7a d7 5e be c5 84 5c 3e 1d f7 e1 3c
       -0.072446406 -0.21761885 0.21535023 0.027583653
000350 c4 c0 a0 3d 52 11 e4 be e7 f7 4f be c9 b6 e4 bd
       0.07849267 -0.44544464 -0.20309411 -0.11167676
000360 8c 20 8f be cc b6 e3 bd bf 33 0d be 57 e8 ae bd
       -0.2795452 -0.1111885 -0.13789271 -0.08540409
000370 bc b5 b9 ba bf f4 c8 bd 37 99 be bd 0a a8 d9 bd
       -0.0014168541 -0.098123066 -0.09306567 -0.10627754
000380 66 02 e7 3d 21 d5 18 3e b5 60 3d be fa f7 2d bd
       0.11279754 0.14925052 -0.18493922 -0.042472817
000390 3b a7 90 bd 47 56 9a 3e 72 e2 6e bd 66 13 58 be
       -0.07063147 0.3014395 -0.058321424 -0.2110115
0003a0 62 fb 3f 3d 17 38 18 3d 15 8e 82 be 28 2c ea bd
       0.046870597 0.037162866 -0.25499025 -0.114342034
0003b0 0e da 81 be 0d 18 76 bd 95 d7 65 bd 9b 85 3c 3e
       -0.25361675 -0.06008153 -0.0561138 0.18410341
0003c0 43 2c bf 3c 16 f8 85 bd 34 8f a7 be 65 8f 0e 3b
       0.023336535 -0.06541459 -0.32726443 0.002175295
0003d0 ed 7b c6 bd 5d d9 2f be da 2d ac bd b8 9c fd be
       -0.09691606 -0.17172761 -0.08407183 -0.4953363
0003e0 66 32 d5 3d 95 48 f6 bd bc e8 a0 3d bc ee 62 3e
       0.10410003 -0.12025563 0.078568906 0.22161382
0003f0 42 b5 93 3e e9 48 ef 3b c4 ca 6b be 7c 0a 65 3c
       0.28849226 0.0073023927 -0.23026568 0.01397955

fc2.bias f4 [80]
000000 bf 10 10 3f 20 b4 7d 3e f0 7b 09 3e fe ff 4c 3e
       0.5627555 0.24775743 0.13426185 0.20019528
000010 81 a3 ab bd bd 4d be bd 8e 54 c5 3d 96 aa c5 bd
       -0.08380795 -0.09292171 0.09635268 -0.09651677
000020 bf d2 26 bd e7 e4 7c 3d 78 11 c0 3d e8 68 2f bd
       -0.040728327 0.061741736 0.09378332 -0.042824656
000030 bc da 6e 3c e0 ae a4 3c f5 13 41 3e 12 51 59 3d
       0.0145785175 0.020102918 0.18855269 0.05305583
000040 47 d5 12 be 22 cc fd bd b3 47 d9 bd a0 9e 39 be
       -0.14339171 -0.12392451 -0.10609379 -0.18126917
000050 b0 0c 0e be 9e a9 a3 bb ce 6b 75 be 16 07 bb 3d
       -0.13872027 -0.004994585 -0.23966905 0.09132211
000060 1f fd d3 bd 2c 8b de 3d cd 88 f3 3d 27 ee 07 3f
       -0.103510134 0.10866389 0.11891327 0.53097767
000070 5d d0 08 be 8f b9 2d bc 9f a1 14 3f 74 ef bb bd
       -0.13360734 -0.010603323 0.58059114 -0.091765314
000080 55 eb a2 3d 50 69 18 3f e9 49 40 bb c7 b2 49 3e
       0.07955042 0.59535694 -0.002934093 0.19697104
000090 7b 31 58 3d 36 0a 96 bc e2 20 c6 bd d1 c6 5e bd
       0.052781563 -0.018315416 -0.09674241 -0.054388825
0000a0 d0 3d 02 3c 6f 36 aa 3e 16 68 73 3e 11 64 86 3d
       0.007949308 0.33244655 0.23770174 0.06562055
0000b0 1b cf ee bd a5 79 58 3e 13 e4 ab bd 9c 56 68 3e
       -0.11660596 0.21140154 -0.08393111 0.22689289
0000c0 35 75 86 3e 4c d4 e4 bd f8 ba 7d bd 91 3a 24 be
       0.26261297 -0.11173305 -0.061945885 -0.16037966
0000d0 a1 8f ad 3b 16 69 fc 3e ed 54 e0 bc d2 13 e3 3d
       0.005296663 0.49298924 -0.027384246 0.11087765
0000e0 68 15 72 3e 32 a4 11 3d bf 3a 8c 3e 54 f9 fc 3d
       0.23640978 0.03555698 0.2738857 0.12352243
0000f0 43 44 8a bd 80 84 0d 3f a2 00 18 3e 26 56 a6 3b
       -0.06751301 0.55280304 0.14843991 0.0050761877
000100 24 61 af 3b 2b 9a b5 3d 89 d1 fc 3d 23 eb 61 3e
       0.0053521562 0.08867296 0.12344653 0.22062354
000110 bc 85 a3 3e 51 14 41 be da 56 25 be b4 75 e9 3d
       0.3193797 -0.18855406 -0.16146412 0.11399403
000120 f0 b1 45 3c 1c f2 be 3d 50 f5 bb 3e 11 1b f2 3d
       0.012066349 0.093235224 0.36710596 0.11821569
000130 95 2c f9 bd db 40 90 bd 2c a4 66 3d 2b 21 93 3d
       -0.121667065 -0.0704362 0.05630891 0.07184061

fc3.weight f4 [4, 80]
000000 13 9b 2d 3e ee ac ee 3d 40 ce d9 3d 28 c3 a8 3c
       0.16953687 0.116540775 0.10635042 0.02060087
000010 a0 d7 c9 3e 08 96 8f bd f0 e5 4b 3d 52 9d 33 3d
       0.3942232 -0.07011038 0.049779832 0.043851204
000020 6f a0 8f be e0 29 6b 3d a1 4e 90 3d f1 80 8c bb
       -0.2805209 0.057412982 0.07046247 -0.004287832
000030 03 bf c8 3d 73 b7 ea 3e 99 7a 60 3e 05 e0 b8 3e
       0.098020576 0.45843086 0.21921767 0.36108413
000040 b8 bf 79 3e 15 53 35 be be 9b 3a be 1d 06 44 be
       0.24389541 -0.17707475 -0.18223473 -0.19142957
000050 84 be 22 be 63 a2 e8 be b5 fc bc be d0 ba 52 3d
       -0.15892988 -0.4543639 -0.3691155 0.05144769
000060 74 4a bf bd 96 0b 04 3e 6d e2 b9 3d c6 52 35 3e
       -0.09340373 0.12895045 0.090763904 0.17707357
000070 ef 79 a3 be 64 e3 1b 3e ea 11 33 3e 14 7d b9 3d
       -0.31928965 0.15223461 0.17487302 0.0905706
000080 a4 62 33 3f 25 77 75 3e 07 ce 33 be e1 43 03 3e
       0.7007239 0.23971231 -0.17559062 0.12818862
000090 a3 f3 09 3e dd 59 19 bf 41 0a 04 bd ad ad bf 3d
       0.13471846 -0.59902745 -0.03223634 0.09359298
0000a0 5f d5 08 3e a0 63 22 3e 56 16 71 3e a6 2f a7 bd
       0.13362645 0.15858316 0.23543677 -0.08163385
0000b0 9c e2 c1 3e 2e ec 87 3d 30 44 e0 be 9c cc ae 3d
       0.37868202 0.066368446 -0.43802023 0.0853512
0000c0 61 30 9e 3d 9d 42 c0 3c 02 36 1d bd df 34 6d be
       0.07724071 0.023469264 -0.038381584 -0.231647
0000d0 08 a7 ff 3d 8f a3 06 3e f8 cc 39 3e b5 3c c2 3d
       0.124830306 0.1314833 0.18144596 0.09484235
0000e0 ab 6e c5 3d 9f 64 44 bd 34 dd 69 3e 43 66 9f 3e
       0.09640249 -0.047947522 0.22838289 0.31132707
0000f0 30 12 9c be 16 9f 71 3e 38 93 0a 3f 55 a1 b9 3e
       -0.30482626 0.23595843 0.5413089 0.362559
000100 fd 64 3c 3e 65 98 3e be 0a 8d 8e 3c 53 52 f3 be
       0.18397899 -0.18612821 0.017401237 -0.47523746
000110 77 b7 17 3d 4c 35 1e be 3c 85 47 be 40 c4 79 3d
       0.0370402 -0.15450019 -0.19484419 0.060978174
000120 f9 16 8b 3d b4 e6 6e 3d 8f 76 05 3e 44 8c 05 be
       0.06791491 0.058325484 0.13033508 -0.13041788
000130 ef a1 33 3d 64 13 14 be 0e 4a 4f 3d 4e 23 a7 3e
       0.043855604 -0.14460522 0.050607733 0.32644123
000140 e6 8a 4e 3e b3 f2 18 3e 91 cd 0c 3e f2 4f 6f 3d
       0.20170173 0.14936332 0.13750292 0.05842585
000150 10 17 9b 3e 40 79 07 bb 31 12 e1 3d e7 7d 03 bf
       0.30291033 -0.0020671636 0.10989798 -0.51363987
000160 a8 7e 84 bd 87 d5 be 3d 5b b1 1d 3e 13 2d 4a bc
       -0.0646947 0.09318071 0.15399687 -0.012339848
000170 4e b9 19 3e 7f 61 a2 3e 69 99 5b 3e 00 79 98 3e
       0.15012094 0.3171501 0.2144524 0.29779816
000180 81 24 1a ba eb fe 48 be bc 34 f2 bd 30 6d 6a be
       -0.00058800733 -0.19628493 -0.118264645 -0.22893214
000190 09 23 49 be e3 e8 27 3c 30 a1 33 be 66 55 8e 3d
       -0.19642271 0.010248396 -0.17541957 0.06949882
0001a0 a5 54 de bd 51 16 c4 3d a3 24 3c 3d 50 88 7e 3e
       -0.108559884 0.09574569 0.045933377 0.24856687
0001b0 df f0 10 be 47 f9 8f 3e 65 d5 5c 3e 28 75 ae 3d
       -0.14154385 0.2811987 0.21565779 0.085184395
0001c0 cd 89 2c 3f c7 72 59 3e 12 e1 fe 3d d1 7a 28 3e
       0.6739777 0.2123519 0.124452725 0.164531
0001d0 cd d3 d0 3d e5 b7 8e be 1f 3c d1 3b f8 87 2f bd
       0.10196648 -0.27874675 0.006385341 -0.04285428
0001e0 b0 34 80 3e 9a bd b2 3d c3 a0 5f 3e 16 a9 e1 bd
       0.25040197 0.0872757 0.2183867 -0.11018579
0001f0 c2 c0 1c 3f 4b a2 aa 3d 91 9c c3 bd 9e 56 03 3d
       0.61231625 0.08331736 -0.09551347 0.032065026
000200 4d b2 55 3e 43 ed a6 bd 5c e2 30 bd 26 41 1c be
       0.20868798 -0.08150723 -0.043184623 -0.15259227
000210 a0 16 11 3e 53 07 0b 3e a3 94 f4 bd c3 a8 d5 3d
       0.14168787 0.13577013 -0.11942413 0.10432579
000220 b8 12 07 bb 9f d3 d7 3c 93 db 2b 3e de e3 aa 3e
       -0.0020610522 0.026346026 0.1678298 0.33376974
000230 57 44 86 be 3a 84 5b 3e 1f cf 19 3f 7b 31 ac 3e
       -0.26224014 0.21437159 0.60081667 0.336315
000240 76 7c 5b 3e 5e 73 69 bd 6c 10 3b 3e 1d 69 a3 3e
       0.21434197 -0.05699479 0.18267983 0.31916133
000250 da 90 a7 3d b6 8d 12 be 16 02 c3 bd d5 c0 34 be
       0.08181925 -0.14311871 -0.09521882 -0.17651685
000260 d6 69 0a 3e d5 fe ad 3d 0c 1e a5 3d 39 16 0f 3e
       0.13516936 0.08495871 0.080623716 0.13973321
000270 4b a7 00 3e 01 27 d5 3a a1 55 f8 3d a8 04 b6 3e
       0.12563817 0.0016262234 0.121257074 0.35550427
000280 dc 6a 6e 3e 2c cb 08 3e 8f fe a7 3d 2f e5 94 3d
       0.23282951 0.13358754 0.0820285 0.07270276
000290 b2 04 75 3e aa 78 a0 bd bb cd 39 3e a3 75 27 be
       0.23927572 -0.07835515 0.18144886 -0.16353469
0002a0 fc 94 49 bf 13 de 5b 3e a3 3d 6f 3d 66 d1 ff 3d
       -0.7874296 0.21471433 0.05840839 0.124911115
0002b0 d3 9a 0e be 86 95 b0 3d a4 3a 03 3e 34 72 bb 3e
       -0.13926248 0.08622269 0.12815338 0.36610568
0002c0 c3 ed 4a bd 8c 54 ef be c4 38 2c 3c f9 2b a2 be
       -0.049543153 -0.46744192 0.010511581 -0.31674173
0002d0 45 eb 6a 3d b2 4b fc be f2 8d 31 be 21 34 47 3e
       0.057353277 -0.492765 -0.17339304 0.1945348
0002e0 54 21 e0 3c ff af a3 3e eb 50 29 3e f6 ca 41 3e
       0.027359642 0.31970212 0.16534774 0.1892508
0002f0 35 d1 ce be da 66 43 3e c7 d7 1f 3e f1 e9 0f 3e
       -0.40393987 0.19082204 0.15609656 0.14054085
000300 db 21 45 3d 1c 07 56 3e d7 c6 61 be d0 a7 49 3e
       0.04812799 0.2090115 -0.22048508 0.19692922
000310 24 a7 c9 bd 9c ed 43 be 7d e5 00 3e 88 28 c7 3d
       -0.09846333 -0.1913361 0.12587543 0.097245276
000320 2c e5 91 3e 5d 9b ed 3d db 0f 1e 3e 2e b7 01 3d
       0.28495157 0.11601899 0.15435736 0.031668834
000330 6c a0 3a 3f a2 da 42 3e 00 0d 9e 3d b5 42 05 3e
       0.72901034 0.19028714 0.07717323 0.13013728
000340 12 46 5f 3e 41 aa d3 3c ad 52 60 3e 5f b1 1f be
       0.21804073 0.02583802 0.21906538 -0.15595005
000350 62 b7 8f 3e 4c 83 3d 3e 10 1f 92 3d 22 d7 dc 3d
       0.28069597 0.18507117 0.07134831 0.10783221
000360 8f 4e 11 3d cf e3 14 3e b8 0b d4 3d 12 a0 b4 3d
       0.03547531 0.14540027 0.10353798 0.088195935
000370 81 26 7b be ec 10 0b 3e 49 24 f0 3e f2 41 cd 3e
       -0.24526407 0.13580674 0.46902683 0.40089375
000380 34 de 21 3f 7d f7 9f 3e 82 d6 15 3d 05 98 46 3e
       0.6322968 0.31243506 0.036581524 0.19393928
000390 4b 45 93 3d 49 1c 06 be 19 16 81 be e8 f2 57 3e
       0.07190951 -0.13096727 -0.25212172 0.21088755
0003a0 10 c1 59 3e d1 86 80 3e 00 b1 51 3e b5 7a cc 3d
       0.21265054 0.25102857 0.20477676 0.09984342
0003b0 00 1b a4 be c1 f7 06 3c 89 1d d9 bd 2a 0b 1a 3e
       -0.3205185 0.00823778 -0.106013365 0.15043321
0003c0 96 f5 51 3e b7 4d dc 3c f4 fc 4b 3e 92 30 61 3e
       0.2050384 0.026892526 0.19920713 0.21991184
0003d0 bc 38 41 3e af f9 8c 3b 0f 04 6a 3e 39 74 1c 3d
       0.18869299 0.0043022255 0.2285311 0.038196776
0003e0 c7 ce 4a bd 26 03 ae 3e 92 b0 a1 3d d7 8d 26 be
       -0.049513604 0.33986777 0.07895006 -0.16265045
0003f0 eb ca fa 3c 59 5a 90 3e 51 9b f1 3d 9f e0 a8 3e
       0.030614337 0.2819393 0.117972024 0.32983872

fc3.bias f4 [4]
000000 a0 35 d9 3e f1 b4 9c 3e 34 13 b1 3e db 56 89 3e
       0.42423725 0.30606797 0.34584963 0.26824078
