Double DQN/ddqn_checkpoint_3.pth (torch_old, 40359 bytes, 6 tensors)

fc1.weight f4 [80, 37]
00000000: 57a6 fb3d 6298 04bf 270f 3dbe 2f29 e13d
00000010: 11ee 703e 5a1d 9b3d 7895 b0bd 0c5c 35bc
00000020: f8f1 483e 5632 953d 1316 30be 472a 0bbd
00000030: ea78 4bbf f02d 6d3d 2f0c 8dbe f07d f93d
00000040: 2037 413e 20cd 38be c518 1bbf 21a9 513d
00000050: 565a 2b3e fbe3 593e f61c 0ebf 804d 2ebd
00000060: ae40 1ebc 3f2f 1dbd 832e 2c3d ec06 193d
00000070: 386b ecbe e183 3dbb 3179 99be 1ea4 5e3e
00000080: 6be5 1dbe ed93 2abe 32f4 58be ed1d c2bc
00000090: 1853 393a e639 6b3e ca63 703d bd92 1dbe
000000a0: c772 3c3c a8f0 adbd 0cf0 423e fd40 abbe
000000b0: 9ccf 18be 5e4b 0fbf 04c9 d7bd b31d 053e
000000c0: 6450 58be 5b9b 2e3d ac1c e03d d8b2 36be
000000d0: 4320 7c3e 61bd 3a3e 441f a0be 46b2 c9be
000000e0: 3503 e7be 4b14 8abe f647 62bd da6f c1be
000000f0: 115a 8e3e 7fc2 1cbe b72e 60be e86e d33d
00000100: c1cd 853e 3e26 fdbe 6399 4bbe ed2e efbd
00000110: e5d3 f7bd 76df ba3e 82bb 77be 5d7f 3e3e
00000120: 01c5 8cbd bd1c 7cbd f79b 073e 3f08 e73d
00000130: 45a9 163e 878b 3d3d bb44 ae3d 7d73 26bd
00000140: 2a61 ed3d c90a 833d 9bc9 803d 64e6 22be
00000150: 831c e13e 4298 19bf b87e b8be c984 d3be
00000160: abca 1ac0 f67d e83d 8fc0 c73d 5265 163d
00000170: 14a0 743e 87cb 9b3d 2bc8 bebd 8de8 21bd
00000180: bf85 9e3d c527 1c3e 048e 5d3e e51c 9b3c
00000190: a821 a53d 9a81 253e 24d3 1c3e a88c a1bd
000001a0: aa9a d2bd ffa4 a03b ce87 94bc 06d1 d6bd
000001b0: 41ca 9a3d 407a 923c 30b7 d5bb f74b f33d
000001c0: f3cf 8c3d 808d 0e3c 0e8a 1e3e 31f8 c63c
000001d0: b471 8abd b25b 3a3d 676d 96bc 3323 803e
000001e0: 7373 3c3e 8942 afba 1928 873c dd06 1bbc
000001f0: 7ce5 b33c 738b ed3c e924 e8bd 8538 9ebd
00000200: 9cbc 833d d6e6 69bd 139e 233c 1707 cf3e
00000210: 7a69 67be 06a4 0ebf 6e59 c8be fb7c 18c0
00000220: 853e 89bd 06ef 883d 329d 203e 13a8 463e
00000230: 8540 6e3e cc17 c63d ff18 bb3d 16b2 0c3e
00000240: 8997 433d 1cff a13c 4556 193c 1ec9 4c3b
00000250: 8c2b 0dbf 5ab4 02be 6700 b4bb e5ad 59be
00000260: facc 723e e14f 0abf a311 acbe c2ac 093e
00000270: 113a 84bc 1232 8dbc f018 11be 3eb2 b2be
00000280: b28c f93d e29c e03c b3f2 32be e23b 92bd
00000290: 8899 15be f192 05bd 6cbe 17be e9d4 98be
000002a0: fdca 0ebe 186a 86bd 667a 143e 110f 52bf
000002b0: c7f4 91be ba4d cbbe 7567 67be fa37 773e
000002c0: b0a7 5e3d 79ea b83e 31c0 1b3e a30d a6be
000002d0: 8fa0 0dbd d77a 25be 63ed b73d 5ebf c6bd
000002e0: a743 8cbd f7a1 88bd 2a83 03bd ddb6 43bd
000002f0: 4640 edbd 89f4 33be e7cc 393e 6745 c63d
00000300: 9835 003c 4c44 91be b207 a9be 884a 1abf
00000310: 4150 12be 73a8 253e f3c0 a9be 2a8a 0ebc
00000320: 5dbf 8bbe 3564 613e 1d99 333d 89b7 17bf
00000330: aa6e 65be e7f6 97bd 0f61 343d 1962 ebbd
00000340: 6799 943e 886f e1be 4173 50be f06b bbbd
00000350: c083 7a3e 37ca ccbe 74f3 1ebd 1223 85bd
00000360: 68b2 98be eef4 a2bb d45c 1bbe 4e02 85bf
00000370: d643 123e 07ca 2ebc 3d0f 513e 42f0 cd3d
00000380: 13fc a33d ebd5 c93d 69bc 2fbe 90be 403d
00000390: 0c1d 97bc 59c7 083e 372b 783e 0b87 ed3d
000003a0: 60fb 693e 30f1 453e 5f44 573e 8595 143e
000003b0: 7f23 143d 4d40 a03d 3430 d53b fbce 473e
000003c0: 6b6f 113e 0ace 873c 4795 9b3b bd41 183e
000003d0: 1e23 3b3e 8136 ee3d 511b 403e 31ce bcbc
000003e0: b007 023e 2bd9 de3d a31f 2b3d deb3 10be
000003f0: e08a 693e 2c00 cf3d ebb0 3b3e 115e c2bd
0.12287586 -0.5179502 -0.18462811 0.10994183 0.23528315 0.07573958 -0.08622259 -0.011069309
0.19623554 0.072849914 -0.1719592 -0.033975866 -0.79481375 0.057905138 -0.27548358 0.12182224
0.18868685 -0.18046999 -0.6058467 0.051186685 0.16733679 0.21278374 -0.5551294 -0.04255438
-0.0096589755 -0.038375136 0.042036545 0.037360117 -0.4617555 -0.0028917717 -0.29975274 0.21742293
-0.15419547 -0.16657992 -0.21186903 -0.02369591 0.0007069572 0.22971305 0.058688916 -0.15388007
0.011501974 -0.08493167 0.19036883 -0.3344802 -0.14922947 -0.55974376 -0.105363876 0.1299961
-0.21124417 0.042628627 0.10942969 -0.17841661 0.24621682 0.18236305 -0.31273854 -0.39393824
-0.45119634 -0.26968607 -0.05524441 -0.37780648 0.2780309 -0.1530857 -0.2189282 0.10323888
0.2613354 -0.4944324 -0.19882731 -0.11678872 -0.121009625 0.36498612 -0.24192622 0.18603273
-0.06873513 -0.061550844 0.1324309 0.1128087 0.14713009 0.04627564 0.08509203 -0.040637482
0.11590798 0.063985415 0.06288453 -0.159082 0.43967065 -0.5999795 -0.3603418 -0.41312245
-2.4186199 0.1135215 0.097535245 0.03671772 0.2388919 0.07607179 -0.09315523 -0.03952842
0.07740354 0.15249546 0.21636206 0.018934676 0.0806306 0.1616272 0.15314919 -0.07888156
-0.10283406 0.0049024816 -0.018131163 -0.10489087 0.07558108 0.017880559 -0.006522082 0.118797235
0.06875601 0.008700728 0.15482351 0.024288269 -0.067599684 0.045497604 -0.018362714 0.25026855
0.18403415 -0.001337127 0.016498612 -0.009462086 0.021960013 0.028997159 -0.11335165 -0.07725624
0.06432459 -0.057104908 0.009986418 0.40435097 -0.2259883 -0.5571903 -0.3913073 -2.3826282
-0.06701378 0.06686215 0.15684965 0.19400053 0.232668 0.09672508 0.09135627 0.1373981
0.047751937 0.019774966 0.009358947 0.0031247805 -0.5514457 -0.12764111 -0.005493212 -0.21257742
0.23711005 -0.54028136 -0.33607206 0.13444808 -0.01614097 -0.01723579 -0.14169669 -0.34901613
0.121850386 0.027418558 -0.17475395 -0.07140328 -0.14609349 -0.032610837 -0.14818734 -0.29849938
-0.13944621 -0.065632045 0.14499816 -0.8205424 -0.28507063 -0.39707738 -0.2259806 0.24142447
0.054359138 0.36116388 0.15210034 -0.3243228 -0.03457695 -0.16160141 0.08980825 -0.09704469
-0.06848841 -0.06671517 -0.03210751 -0.047781814 -0.11584525 -0.17573752 0.1814457 0.09681206
0.007825278 -0.2837242 -0.33013684 -0.60269976 -0.14288427 0.1617754 -0.3315502 -0.008699933
-0.27294436 0.22010882 0.043847192 -0.5926443 -0.22405496 -0.0742014 0.044037875 -0.1149332
0.29023287 -0.44030404 -0.20356466 -0.09151447 0.24464321 -0.39998028 -0.038806394 -0.0650083
-0.29823613 -0.0049730456 -0.1517213 -1.0391328 0.1428369 -0.010668284 0.20415969 0.10055591
0.08007064 0.09855255 -0.17161717 0.047056735 -0.018446468 0.13357295 0.24235235 0.11598023
0.22849798 0.19330287 0.21022175 0.14510162 0.036166664 0.078247644 0.0065059904 0.1951255
0.14202659 0.01657774 0.00474802 0.14868827 0.18275115 0.116314895 0.1876042 -0.023047538
0.12698245 0.10881265 0.041778218 -0.14131114 0.22806883 0.10107455 0.18329208 -0.09490598

fc1.bias f4 [80]
00000000: 1c89 8e3d b7f6 2abe cfe1 463d 9992 11be
00000010: 8c56 5bbc bab2 2b3d 9322 ac3e 8ea2 313c
00000020: 9d8d e83d a53f f9bc 46b9 a73e ad86 b43d
00000030: 4060 9bbe ab67 07be c51e 153d ffff 8abd
00000040: 5799 7a3e e1ad 493d 6cbc 433d ff68 8d3e
00000050: 333b 2e3d 2565 e2bd f5fd 673e c051 7cbe
00000060: 9924 5fbe e350 913d 363b e3bc 4e66 11be
00000070: 1b74 f93d e715 1f3e 728f 0c3e 2c08 debd
00000080: dd42 75bd 8a16 1cbe f0ee 2e3d b965 34be
00000090: f483 ed3b 2e77 0cbe 7ba8 3bbe ee58 60be
000000a0: f4a0 bebb 5c47 e6bd 8075 40be 52c1 b03c
000000b0: 1abc 2dbd a368 7cbe 5635 13be 57b0 2e3e
000000c0: 9b64 773d 0420 343d 6f4b 9d3d d7b0 c5bd
000000d0: 4fa9 0dbe 8020 eb3d 94cf 07be f49b 62bc
000000e0: b29c cb3d 4779 b9bd 40d7 2b3e b0c3 be3d
000000f0: fbd9 943d 2cf9 683e 41b1 d13c f349 34be
00000100: dde7 b1bd f803 8fbc 7dd7 1a3e 2211 a0bd
00000110: db56 43bd 60c3 ce3c 0695 0b3e a2c1 e93d
00000120: b77a e63c 9331 28be 5592 fabd 586b fabc
00000130: f081 b4bd 4529 82be c9db a7bd 2e51 61be
0.06959745 -0.16695677 0.04855519 -0.14216079 -0.013387334 0.041918494 0.33620128 0.010841979
0.113551356 -0.030425856 0.3275854 0.0881475 -0.3034687 -0.1322314 0.036406297 -0.06787109
0.24472557 0.04923809 0.047787115 0.27619168 0.042536926 -0.11054448 0.2265547 -0.2464056
-0.21791305 0.07095506 -0.027738195 -0.14199182 0.121803485 0.15535699 0.13726595 -0.108414024
-0.05987822 -0.15242973 0.042708337 -0.17616929 0.007248396 -0.13717338 -0.18325989 -0.21908924
-0.005817527 -0.112440795 -0.18794823 0.021576557 -0.042415716 -0.2464929 -0.14375815 0.17059456
0.06039868 0.043975845 0.076804034 -0.0965287 -0.13834117 0.11480808 -0.13262779 -0.013831127
0.09941997 -0.09056335 0.1678133 0.09314668 0.07268139 0.22751302 0.025597217 -0.17606334
-0.086868025 -0.017457947 0.15121265 -0.07815768 -0.047690254 0.025239646 0.13631067 0.11413886
0.028134687 -0.16425161 -0.12234942 -0.030568764 -0.08813846 -0.2542211 -0.081962176 -0.22003624

fc2.weight f4 [80, 80]
00000000: cd5b a7bd 5328 6dbd 394f c73d 3c05 bb3d
00000010: 14f0 3abd fd8f 8dbc c304 453e 958a c93b
00000020: 3eec 473d 227b 8bbc 92a7 883e 9c57 063e
00000030: 547f cdbd 784e 183d ba9d 343d 9e16 b13d
00000040: f42a 363e c1df 2c3e 5552 59bc 24fc 113e
00000050: f9cf eb3d c74d 56bd 5876 963e 69db edbc
00000060: 6941 81bc 9ed2 013e 0096 043e e189 8dbd
00000070: aac0 fe3d 05ec 2c3e e881 74bc 7ee5 7f3d
00000080: 50ee 9b3d bad3 f13b b985 bdbd 7cbd 82bc
00000090: 997e ee3d 364d 44bc ad0b 13bd b421 5e3b
000000a0: 087c a93d abaa bc3d b866 023e bbba ac3d
000000b0: 200e 2c3c 02ac bd3d ed1f 073e 8e6d b23c
000000c0: a1a8 4ebc f0ec 043e 8c80 b4bc aec4 003e
000000d0: 1c5b 973d a57e 6c3d e80d 95bd b6e7 9e3d
000000e0: c87e 63bd 6f5d 633d 70c2 55bd 0600 ba3d
000000f0: d05c bd3d 3f51 a63d c92d 563c bc62 63bd
00000100: fc56 043e 2bb7 1d3e e429 d7bd 5b06 103d
00000110: 168d 43bb e5ee 343e be59 abbc 7ee0 b1bd
00000120: 2b24 ed3c 72e1 853c ee63 483d b886 16bc
00000130: 12f8 553d a6f8 f13c 9d12 df3d 586c 07bd
00000140: 4bb1 bb3d 163e b53d 402a 2bbf 9132 a2bd
00000150: b349 593e 2370 8fbd ae8a 9b3c 94bd 94be
00000160: 1c1b e63d a023 14bd 7e84 91bd 8e7f 203d
00000170: 7f6b 16be b578 87bd b9c2 dfbe b9b5 92bd
00000180: 05ab 8b3d fa77 203d e476 323d 09e5 943d
00000190: 1b0c a53c 424a fe3d c690 d93d e89f 4aba
000001a0: cf87 34bc a30b 25bd 8a43 febd 25db de3d
000001b0: 5cec f0bc 052f 7b3e a01b c0be 2431 e03c
000001c0: d454 e4bd 1424 ccbe a030 43be 672d 28be
000001d0: 41d5 e03d 865a 663e 7af8 9bbe f065 02be
000001e0: 45f7 803d c204 9d3d 9e78 3abe 7a6a 0cbe
000001f0: 1f21 89bd 1bd0 ecbd a7f8 443c 919f a63d
00000200: ef01 92be bcee 683e d695 14be f1cd a53c
00000210: c745 abbd 899b 9dbd b280 83bd b4bb 3ebe
00000220: 1993 4abe ca22 683c 0b06 bfbd 841a 7fbc
00000230: d168 9d3e e558 1ebd a642 95bd 7385 fbbd
00000240: 397c 35be 3668 823d 00e6 163d 9911 75be
00000250: c644 913d 08ba 1ebe 8894 07be 9830 1dbe
00000260: fa64 863e ab6a 27bd d0db 66bd e674 3a3d
00000270: 8322 87bd 3ec7 50bc 99d0 c4bc 2a2f 713b
00000280: 7970 4cbe 8a52 113d fb28 303d c79a b4be
00000290: 4636 a1bd 0059 e33c 4453 5abd 4b10 4abe
000002a0: 0f3a 1cbe cc0d 0bbd 293a 8b3c ad48 cf3e
000002b0: 4344 a63e c6e2 bb3c c9a1 573e a23f 31be
000002c0: 7608 2c3d 95c3 5abe e2ee 0f3e 82bd 4b3c
000002d0: 37dd e7bc 8b9c 92bd f3e7 a03d 9297 fd3c
000002e0: 8424 873d a2af 4ebe 83d1 fbbb a9d3 273e
000002f0: 9338 01be 90d9 d63b bb99 08be d671 16be
00000300: e958 a03c 3225 3abd b3f6 923d 5f92 c3bd
00000310: c34e b63d 1527 f93e 77ac 183e 3708 cdbe
00000320: ebda 3fbc 8bf0 f93d 747d 3b3a c14d aeb9
00000330: 6501 953d 7ac6 1dbd 5346 6abb f75f a73d
00000340: ab6e 733d e820 52be 2f2e 1b3e d2a8 023e
00000350: 0eda 073d d2ea 19bf 5cdc 58be 0313 21be
00000360: 9d41 56be e6fd 05be 553f 90be f7a5 d4bd
00000370: cac0 11bc a3c6 d8bd 6a2f 31be 48cd 16bd
00000380: 063c ec3d 3cf3 b93b 1c11 0fbe 5354 71bd
00000390: b4fa cb3d e810 8c3e 48d0 88bd 8f11 1ebe
000003a0: 1cf7 ff3c ac14 813b 1a14 7ebe 5071 47bd
000003b0: 209e 80be 8e65 ec3d 5e32 32be f78f a53e
000003c0: 7568 cc3c feb9 003e d707 70be d35d 39bd
000003d0: ec05 403e 4bdc d0bc 5514 2fbc cd1c ebbe
000003e0: dc33 b53d 0a42 c3be f0c7 0e3d ca81 923e
000003f0: 44a8 8d3e ae3c 313d dd30 9e3d 67c1 243d
-0.081718065 -0.057899784 0.097319074 0.09131858 -0.045639113 -0.017280573 0.19240098 0.0061505535
0.048809282 -0.017026488 0.26690346 0.13119358 -0.100340515 0.03718421 0.044095732 0.08646892
0.17789823 0.1688223 -0.013264258 0.1425634 0.11514277 -0.052320268 0.29387164 -0.029035287
-0.01577826 0.12678 0.12947845 -0.06911064 0.124390915 0.1688691 -0.01492355 0.06247472
0.07613814 0.007379976 -0.09254021 -0.015959494 0.1164524 -0.011981299 -0.035899807 0.00338946
0.0827561 0.0921224 0.12734497 0.084340535 0.010501415 0.092613235 0.13195772 0.021780755
-0.012613446 0.1298101 -0.022033952 0.12575027 0.073904246 0.057737965 -0.07278043 0.07759039
-0.05554083 0.055509027 -0.052187383 0.09082036 0.09246218 0.08120965 0.0130724395 -0.055514082
0.12923807 0.15401904 -0.10506037 0.03516231 -0.0029838732 0.17669256 -0.020916816 -0.086853966
0.02894791 0.016342852 0.048923425 -0.009187393 0.05223853 0.02953751 0.10892222 -0.03306231
0.09164675 0.088497326 -0.66861343 -0.07919801 0.2121952 -0.0700381 0.018987026 -0.29050887
0.112356395 -0.036166787 -0.07105349 0.039184146 -0.14689444 -0.0661482 -0.4370325 -0.07163567
0.06819729 0.03917692 0.043570414 0.072702475 0.020147374 0.12416507 0.106233165 -0.00077295164
-0.011018707 -0.0402943 -0.12415226 0.10881642 -0.02940958 0.24529655 -0.37521076 0.027367182
-0.11148992 -0.39871275 -0.19061518 -0.1642357 0.10978175 0.2249547 -0.3046301 -0.12734199
0.06297163 0.07666923 -0.18210074 -0.13712493 -0.066957705 -0.115631305 0.012022174 0.081359036
-0.285171 0.2274732 -0.14510283 0.020239802 -0.08362918 -0.076956816 -0.06421031 -0.1862629
-0.19782676 0.014168451 -0.093273245 -0.015570287 0.3074403 -0.038658995 -0.07288103 -0.12281313
-0.17723168 0.06367533 0.03684044 -0.23932494 0.070931956 -0.15500653 -0.13240254 -0.15350568
0.26248914 -0.04087321 -0.056361973 0.04552164 -0.065983795 -0.012742816 -0.024025248 0.0036801794
-0.1996478 0.035479106 0.043007832 -0.35274336 -0.0787168 0.0277524 -0.053302065 -0.19732778
-0.15256523 -0.033948705 0.016995506 0.40485135 0.32473955 0.022935282 0.2105781 -0.1730943
0.042000256 -0.21363671 0.1405597 0.012435319 -0.028303726 -0.071587645 0.07856741 0.030956063
0.06598762 -0.20184186 -0.007684888 0.16389336 -0.12619238 0.006556697 -0.13339894 -0.14691862
0.019573646 -0.04544563 0.071759604 -0.095494024 0.08901741 0.4866263 0.1490954 -0.4004533
-0.011709909 0.12204083 0.0007152178 -0.00033245797 0.072756566 -0.03851936 -0.0035747483 0.08172601
0.059431713 -0.20520365 0.15154336 0.12759712 0.033166938 -0.6012393 -0.2117781 -0.15729909
-0.20923467 -0.13085136 -0.28173319 -0.10383218 -0.008896062 -0.10584762 -0.17303243 -0.036816865
0.11534886 0.0056747478 -0.1397137 -0.05891831 0.09959927 0.27356648 -0.066803515 -0.15436386
0.03124576 0.003939232 -0.24812356 -0.048692048 -0.2512064 0.115428075 -0.17402026 0.323364
0.024952153 0.1257095 -0.2344049 -0.045255493 0.18752259 -0.025495669 -0.010686 -0.4592041
0.08847782 -0.3813632 0.034858644 0.28614646 0.2766744 0.04327076 0.07724164 0.040223505

fc2.bias f4 [80]
00000000: 9439 293f 2bdf a03e 45da 4c3e a354 603e
00000010: 25b2 cdbd bd4d bebd 4fe1 0a3e 96aa c5bd
00000020: 7cde d5bd 6c76 383d 026e 1c3e 716e 86bd
00000030: cf26 143d f163 1a3d fe0a 833e 640c 1a3d
00000040: e0df 56be a14a 17be bc89 12be e116 75be
00000050: 5e61 19be a46e 52bc fe78 8cbe dee1 b33d
00000060: 1ffd d3bd 3a8c 8c3d f106 f23d 3889 213f
00000070: d588 27be f82c a0bc 562d 2d3f 80d1 99bd
00000080: 2f69 943d d2c0 323f 962f 8fbc 4dbf 6f3e
00000090: 1502 8d3d 0a84 94bc 885f c1bd c253 94bd
000000a0: ca3c 1c3d f0cd d13e 0f0e 913e b1cc 813d
000000b0: 8743 e5bd 4960 8a3e 278e a7bd 7194 963e
000000c0: 1ac6 9a3e cc3c fdbd b1fe a8bd acaa 4abe
000000d0: f30c 213d 5306 143f 2004 a9bd 5169 1f3e
000000e0: abbf 933e cfeb 7b3d 916a a13e ce43 0c3e
000000f0: 6cb1 8fbd 3690 263f 1b80 313e 71e1 af3c
00000100: 22fe ba3c ac0c 5e3d 8b61 a13d 1a46 213e
00000110: 6bc6 b03e 02b4 54be e8f5 2abe df60 1a3e
00000120: 7ca3 3c3d 9e02 c63d d510 e33e b443 273e
00000130: ac4b 4abe 0626 87bd 2d29 8c3d a9bd 9e3d
0.6610348 0.31420264 0.20005138 0.21907286 -0.10043744 -0.09292171 0.13562511 -0.09651677
-0.10442826 0.04503481 0.1527634 -0.06564034 0.036169823 0.037692968 0.25594324 0.037609473
-0.20983839 -0.14774562 -0.14310354 -0.23934509 -0.14978549 -0.012843762 -0.2743606 0.08783315
-0.103510134 0.068626836 0.1181773 0.63100004 -0.16360791 -0.019552693 0.676473 -0.07510662
0.07246625 0.6982547 -0.017478745 0.23412819 0.06885163 -0.018129367 -0.09442049 -0.07242538
0.03814391 0.4097743 0.28331038 0.0633787 -0.111945204 0.27026585 -0.0818141 0.29410127
0.30229264 -0.12365112 -0.082517035 -0.19791669 0.03931899 0.5782215 -0.0825274 0.15567519
0.2885717 0.06150418 0.31526616 0.1369774 -0.070162624 0.650638 0.17334025 0.021469804
0.022826258 0.054211304 0.07879933 0.15749398 0.3452638 -0.20771793 -0.16695368 0.15076016
0.04605435 0.09668468 0.4434878 0.1633442 -0.19755429 -0.06599049 0.06843791 0.077510186

fc3.weight f4 [4, 80]
00000000: 3635 3e3e 2c31 af3d b4a5 ff3d 9d4a 3f3c
00000010: 7e04 c83e 0896 8fbd 6612 843d 529d 333d
00000020: eff7 57bd fac9 a73d b603 dcbc 7dd3 873d
00000030: 9e1a 0e3e 0370 b03e fdd1 3e3e fee2 bc3e
00000040: 3954 ae3e 4094 bebe bb39 47be 93b0 3ebe
00000050: 5c8e b5bd 2ecf d6be a8db d2be 1f9a 443d
00000060: 744a bfbd 5720 0d3e 24b7 e03c f1da 483e
00000070: 7084 90be dcd0 8e3d d405 413e cfc0 e33d
00000080: 12ab 283f acf0 813e 44f1 16be 05f4 263e
00000090: 781f ec3d cbcf e1be f30e 5f3a 2085 9f3d
000000a0: ea5a 113e b099 253e 6854 553e 6857 b2bc
000000b0: 13f5 b93e 10fc db3c 91b9 2bbf a7ba e43d
000000c0: 2e63 df3d bafb ab3d d32f d5bd 9824 7bbe
000000d0: 823c 233e c6f7 153e 7b24 8b3e 3e3f 9a3d
000000e0: fdcf ba3d 4ba7 f9bc f283 863e 315b 533e
000000f0: dcd1 7abe 889e 7b3e 40ef 003f 071b c23e
00000100: 874e 7c3e 36cb 26be db22 48be f14a a8be
00000110: 9c13 1d3d dae6 56be d86a 16bf 9c74 f03c
00000120: ce4b 4f3e 818d 293e 953e 0f3e 81d0 09be
00000130: aa7e 9f3d 4360 b7bd f30c 3e3c ce0e af3e
00000140: 2f1e 643e 561d 2b3e 3c4b dc3d 5b67 0d3c
00000150: 6668 4a3e 4079 07bb 6816 793d e77d 03bf
00000160: f66e 3fbe 2b1b 023e 357f e73d 381f fbbd
00000170: 138c 253e 39f9 af3e 35d7 383e 2fce d13e
00000180: 514f 66bc 640c dabe 03b3 9abd 2c79 2ebe
00000190: 5617 16be ebcd 223e f777 86bd 16fa ea3d
000001a0: a554 debd 45d0 1b3e cc4c c03c 229b 803e
000001b0: 24fc 16be b155 b43e fa13 703e acd5 013d
000001c0: 4d99 493f 1859 6c3e 86b7 773d 0c91 193e
000001d0: 05e1 b33d 32bb a1be 023e 92bd ad1f 59bd
000001e0: 055c 103e 2aee bd3d 3114 663e 3f55 e6bd
000001f0: 84c9 2f3f 19b7 a73d 106e 0abe 7e3f 9b3d
00000200: 807f 353e 7242 eebd b4a6 14bc 944b d7bd
00000210: 3de2 74bc 631f 173e 8b32 08be 1728 133e
00000220: b16c 1abd a71f 8fbc 0a15 223e acac 553e
00000230: 4dc0 29bd bd7e 6e3e 697a 013f b789 d63e
00000240: 7b00 ae3e a45c acbc 521b 943d c9b6 8d3e
00000250: edb1 0b3e b2db 43be a893 87bd 073e 15bd
00000260: 169d 753e db87 ff3d 7807 b23d 9379 d43d
00000270: b96c 9a3d 2b54 df3d 8d95 dd3c 7e40 9f3e
00000280: 3ccc 7d3e 51db f53d 7352 923d d4b6 963d
00000290: 3bde 813e aa78 a0bd 3dcc 083e a375 27be
000002a0: 0a88 6ebf 7855 543e d848 c63d bf84 2b3e
000002b0: 0b89 febd 254b 053e 5e55 803d d120 823e
000002c0: 2e51 843e c9b4 91be 3b0c f33d a81c 96be
000002d0: 2512 dd3d 2974 12bf bd76 c7bc 1a64 403e
000002e0: 5421 e03c 6839 9e3e 1d03 f63d 77fb 523e
000002f0: acc3 86be 68f7 c03e 387c 393e 5508 573e
00000300: fef7 773d 34ef 703e 013c c0be 6133 363e
00000310: 95c4 f7bd 48bf 49be 98fb 7e3d 6664 253d
00000320: e036 563e 3070 003e 5c89 033e 1a8d 3abd
00000330: 0977 2f3f 0ef6 423e 5c0e 25be 0cbe cb3d
00000340: 8743 143e 0c0c 39bd 915c 0d3e c5e0 0dbd
00000350: b001 9e3e 0055 4a3e eb7e 1fbd 0237 f73d
00000360: 7c29 a03c c8d4 003e a785 7b3d 743b 173d
00000370: e679 9abd bf87 1d3e 2e69 d93e 2426 c93e
00000380: 96a3 053f baf9 c63e f237 ea3d 7651 933e
00000390: 743c 9e3d 0af1 22be 8e5a adbe bd83 5abe
000003a0: ca57 673e 4c22 1e3e a216 633e ed4e aa3d
000003b0: 5c24 e9be 2678 0d3b 5920 83be be6c f33d
000003c0: ee34 5b3e 43e9 3a3d 544a 2a3e 7cd4 4a3e
000003d0: 52fb 3a3e aff9 8c3b e391 473e 3974 1c3d
000003e0: 49f6 e2be 907c 893e e1dc 263d 9f79 54be
000003f0: d7b8 723c 3e48 913e 100c c73d 2033 993e
0.18574986 0.08554301 0.12482777 0.011675504 0.39065927 -0.07011038 0.06448822 0.043851204
-0.052726682 0.08192821 -0.026857238 0.06632135 0.13877341 0.34460458 0.18634792 0.3689193
0.34048632 -0.3722248 -0.19455616 -0.18622045 -0.088650435 -0.4195494 -0.4118321 0.047998544
-0.09340373 0.13781868 0.027431078 0.1961477 -0.28226042 0.069734305 0.1884988 0.1112076
0.6588603 0.2537893 -0.14740473 0.16304024 0.1152944 -0.44103846 0.00085090025 0.077890635
0.14194837 0.16171908 0.2083298 -0.021770194 0.3631979 0.026853591 -0.67080027 0.111684136
0.10907589 0.083976224 -0.10409512 -0.24525678 0.1594105 0.146453 0.2717627 0.07531594
0.09121702 -0.03047528 0.2627254 0.20640256 -0.24494117 0.24572194 0.50365067 0.37911245
0.24639331 -0.16288456 -0.19544546 -0.32869676 0.03834878 -0.209865 -0.5875678 0.029352479
0.20243761 0.16557886 0.13988717 -0.13458444 0.07787831 -0.08953907 0.011599767 0.34190983
0.22277139 0.1671041 0.10756537 0.008630599 0.19766387 -0.0020671636 0.060812384 -0.51363987
-0.18694672 0.12705676 0.1130356 -0.12261814 0.16166715 0.3436983 0.18050845 0.40977618
-0.014056996 -0.42587578 -0.07553675 -0.17038411 -0.1465734 0.15898864 -0.0656585 0.11473481
-0.108559884 0.15216167 0.02347412 0.25118357 -0.14744622 0.35221627 0.2344512 0.031697914
0.78749543 0.23080862 0.060477756 0.14996737 0.087831534 -0.3158813 -0.07140733 -0.053008724
0.14097603 0.09273942 0.2246864 -0.11246728 0.68666863 0.0818922 -0.13518548 0.075804695
0.17724419 -0.11633767 -0.009072948 -0.10512462 -0.014946518 0.14758067 -0.1330053 0.14370762
-0.037701312 -0.017471148 0.15828338 0.2086665 -0.041443158 0.23290534 0.5057741 0.41901943
0.33984742 -0.021040268 0.072317734 0.27678517 0.13642092 -0.19126776 -0.0661996 -0.036436107
0.23985705 0.12477084 0.08692831 0.10374751 0.075402685 0.10904726 0.02704885 0.3110389
0.2478494 0.12004722 0.07144632 0.073590904 0.2536486 -0.07835515 0.1335916 -0.16353469
-0.9317633 0.20735729 0.096818626 0.16749857 -0.124284826 0.13016947 0.062662825 0.25415662
0.25843185 -0.2845824 0.11867567 -0.29318738 0.107944764 -0.57208496 -0.024348611 0.18788186
0.027359642 0.30903172 0.120123126 0.20603739 -0.2632116 0.37688756 0.18113792 0.20999272
0.06053924 0.23528749 -0.3754578 0.17793037 -0.12098042 -0.19701874 0.062251657 0.04037895
0.2091937 0.12542796 0.12845367 -0.04554472 0.6854101 0.19039175 -0.16118759 0.09948358
0.14478885 -0.045177504 0.13804843 -0.034638185 0.30860662 0.19758987 -0.038939398 0.12071039
0.019551031 0.1258117 0.061406758 0.036921933 -0.075427815 0.15383814 0.42463058 0.3928691
0.5220274 0.388624 0.11436452 0.28773087 0.07726374 -0.15912262 -0.3385815 -0.21339317
0.22592083 0.1544277 0.22176602 0.08315835 -0.45535553 0.0021586507 -0.25610617 0.11885975
0.2140691 0.045632612 0.16629916 0.19807619 0.18259934 0.0043022255 0.19489245 0.038196776
-0.44328526 0.26852846 0.04073799 -0.2074952 0.014814577 0.2837543 0.097190976 0.29921818

fc3.bias f4 [4]
00000000: 15f2 033f 68ed bf3e 298c d53e 2649 aa3e
0.5154126 0.37485814 0.41708496 0.33258933
