Dueling Neural Network/duel_checkpoint_2.pth (torch_old, 93648 bytes, 11 tensors)

feauture_layer.0.weight f4 [80, 37]
0	0xbd8a15c5	-0.067424335
1	0x3e4aa102	0.19787982
2	0xbedd31b2	-0.43201977
3	0xbbf13f91	-0.007362314
4	0x3be5e0a1	0.0070153032
5	0x3d8393bf	0.06424665
6	0xbdbd4549	-0.09241731
7	0x3e101265	0.14069517
8	0xbe0c2974	-0.13687688
9	0xbcee49b5	-0.02908788
10	0xbe37c332	-0.17945555
11	0x3df4e1c8	0.11957127
12	0xbe4bf795	-0.19918664
13	0xbe80639b	-0.25075993
14	0xbe24cd32	-0.16093901
15	0x3e0c718c	0.1371519
16	0xbdd97794	-0.10618511
17	0x3d895134	0.067049414
18	0xbe9759e9	-0.29560784
19	0xbeadad0d	-0.3392109
20	0x3d9547bb	0.07289072
21	0xbcdf65b0	-0.027270168
22	0xbe8b3a20	-0.27192783
23	0x3ea0cb7a	0.3140524
24	0x3ca324de	0.01991504
25	0xbe88b77b	-0.26702484
26	0x3dd0033c	0.10156867
27	0x3e317ca4	0.17332703
28	0xbe770564	-0.2412315
29	0x3e964832	0.29351956
30	0xbe3f84b1	-0.18702962
31	0x3e535e0f	0.2064135
32	0xbe4a7a40	-0.19773197
33	0x3d73e37f	0.05954313
34	0xbdbe67fc	-0.09297177
35	0xbddf8069	-0.10913164
36	0xbbba9cd1	-0.0056949635
37	0x3dd28d54	0.102808625
38	0x3e5f7d3f	0.21825121
39	0x3bdde2c6	0.0067714183
40	0x3b426527	0.0029662342
41	0xbe864fac	-0.2623266
42	0xbdb602e7	-0.08887272
43	0xbe08ac27	-0.13346921
44	0xbd892054	-0.06695619
45	0x3daa61b1	0.083194144
46	0x3f226afa	0.63444483
47	0xbdc518cb	-0.096238695
48	0xbcf304a5	-0.0296653
49	0x3dc15abc	0.09441134
50	0x3e2617be	0.16219994
51	0x3e4fbdf8	0.20287311
52	0x3e21ea69	0.15812077
53	0xbd560a8e	-0.05225616
54	0x3cff6d1b	0.031179955
55	0xbe5f5fac	-0.2181384
56	0xbf0b5b46	-0.5443615
57	0xbe0e7e2e	-0.13915321
58	0xbeb39afa	-0.35079175
59	0x3d34624f	0.044039067
60	0x3d21bfea	0.039489664
61	0x3c15c735	0.009141733
62	0xbdc24252	-0.09485306
63	0xbe27da4b	-0.16391866
64	0x3e5a9762	0.2134681
65	0x3dc0ca5d	0.09413598
66	0x3e89eabb	0.26936898
67	0xbd431d37	-0.047635283
68	0x3e0e793b	0.13913433
69	0x3e7b80ed	0.245609
70	0xbda750fc	-0.081697434
71	0xbd07adae	-0.03312462
72	0xbc7f46ba	-0.015580827
73	0x3c65e4e4	0.014031623
74	0x3e49b6bc	0.19698614
75	0x3a33ee54	0.0006863822
76	0x3d02a27c	0.03189324
77	0xbe17bab8	-0.14817321
78	0xbef6de9f	-0.4821672
79	0xbf32b164	-0.69801927
80	0xbeca62b5	-0.39528432
81	0x3ebc6b84	0.36800778
82	0x3e01acee	0.12663624
83	0xbd9e9aea	-0.07744391
84	0x3d99fa70	0.0751847
85	0xbdf5a82b	-0.11994966
86	0xbd979a6f	-0.07402503
87	0x3db38b87	0.08766847
88	0xbe365d1f	-0.1780896
89	0xbdccb03c	-0.099945515
90	0xbe02c90e	-0.12772009
91	0x3da2ddf2	0.07952489
92	0x3e5105b2	0.20412329
93	0xbddf1fba	-0.10894723
94	0xbed6a396	-0.4192168
95	0x3d894d3d	0.06704185
96	0x3d88e9f2	0.066852465
97	0xbd18e3c6	-0.037326597
98	0x3dd959e6	0.1061285
99	0xbe1981ac	-0.14990872
100	0x3eac631d	0.33669367
101	0xba95e019	-0.0011434584
102	0xbec91042	-0.39270216
103	0x3d06f220	0.032945752
104	0xbecd8d16	-0.40146703
105	0xbe2e9b5e	-0.17051455
106	0xbc958256	-0.018250626
107	0x3d12b806	0.03582003
108	0xbce35e3c	-0.027754895
109	0x3e04510f	0.12921546
110	0xbd5f2766	-0.054480933
111	0x3c187947	0.0093062585
112	0x3c53f8f4	0.012937773
113	0x3e935407	0.28775045
114	0x3e5c2af5	0.21500762
115	0x3d647797	0.055778112
116	0xbdada88e	-0.08479415
117	0xbbc0cdfd	-0.0058839307
118	0x3dd04dd7	0.10171097
119	0x3eb9080f	0.3613896
120	0x3eec3767	0.4613602
121	0x3c13f20f	0.009029879
122	0xbbefccb7	-0.007318105
123	0x3e06505e	0.13116595
124	0x3d9a66e0	0.07539153
125	0xbe1592d3	-0.1460679
126	0x3db7c6bb	0.08973452
127	0x3ddb18cc	0.10698089
128	0xbe363858	-0.17794931
129	0xbe988cc6	-0.29794902
130	0xbed7ac58	-0.42123675
131	0x3cb76fd8	0.022392198
132	0xbd7f5db6	-0.06234523
133	0x3d476d7e	0.048688404
134	0x3d85ee58	0.06539601
135	0x3dbf19ce	0.09331094
136	0x3d9d6b68	0.07686502
137	0x3dfb1f5f	0.12261843
138	0x3d92c791	0.071669705
139	0x3cdf9770	0.02729389
140	0xbe87a9a8	-0.26496625
141	0x3e9560de	0.29175466
142	0x3e19b652	0.15010956
143	0xbe02ec86	-0.12785539
144	0xbe778d6d	-0.24175043
145	0xbeec4c4d	-0.46151963
146	0x3d38ad26	0.045087002
147	0x3c5525a4	0.0130094625
148	0xbe4591e8	-0.1929394
149	0xbe2a0374	-0.1660288
150	0xbe07321b	-0.13202707
151	0x3d655c4f	0.055996235
152	0xbd88e023	-0.06683376
153	0x3e044b8a	0.12919441
154	0x3e29d9d3	0.16587
155	0xbe815d96	-0.25266713
156	0xbd4d0468	-0.05005303
157	0xbeb07d20	-0.34470463
158	0x3c894a7e	0.016759153
159	0xbb0a18ac	-0.0021071834
160	0xbd5d11a4	-0.0539719
161	0xbe1b130a	-0.15143982
162	0xbd8265cd	-0.06367073
163	0xbc99a595	-0.018755713
164	0xbe0d6a80	-0.13810158
165	0xbdbee459	-0.093208976
166	0x3c075752	0.008260565
167	0xbdfed60a	-0.124431685
168	0xbe972533	-0.29520568
169	0xbd53c5a9	-0.051702175
170	0x3ebbbc40	0.3666706
171	0xbec23a94	-0.37935317
172	0x3e9e6757	0.30938217
173	0xbca338a2	-0.019924466
174	0x3d3a6ce2	0.045513995
175	0xbd10dce8	-0.035366923
176	0xbe15c449	-0.14625658
177	0xbefb3101	-0.49060825
178	0x3c550023	0.013000521
179	0x3e11d08e	0.14239714
180	0x3e133d8c	0.14378947
181	0xbeb72292	-0.35768563
182	0x3ce16ea4	0.027518578
183	0x3e5edce8	0.21763957
184	0x3c34e005	0.011039739
185	0x3e19430b	0.14966981
186	0xbdddd946	-0.10832457
187	0xbdf86717	-0.12129038
188	0xbde9b16f	-0.11410796
189	0x3dd5519a	0.10415955
190	0x3eb21346	0.3478033
191	0x3d5e85b2	0.05432672
192	0xbefcc3d8	-0.49368167
193	0xbe363196	-0.17792353
194	0xbf453c55	-0.77045184
195	0xbe6c7a36	-0.23093495
196	0x3e2dc277	0.16968714
197	0xbe503824	-0.20333916
198	0x3d75c4a7	0.060001995
199	0x3d513210	0.051073134
200	0x3b6ec304	0.0036432156
201	0xbd092873	-0.03348584
202	0xbd5785ab	-0.05261771
203	0xbdc5fe6b	-0.09667667
204	0x3e493572	0.19649294
205	0x3ccf8e56	0.025336426
206	0xbc067738	-0.008207135
207	0x3d8cd662	0.06876828
208	0x3e1a0018	0.15039098
209	0x3d7a2c26	0.06107726
210	0xbda50673	-0.08057871
211	0xbd41c63a	-0.047308184
212	0x3d0dcccf	0.03461915
213	0x3da83bfd	0.08214567
214	0x3ec389fa	0.38191205
215	0xbdef87da	-0.116958335
216	0xbc39c4fa	-0.011338467
217	0x3bd38745	0.0064553344
218	0xbd4ba69f	-0.04971945
219	0xbdeea78f	-0.11653053
220	0x3b85a470	0.0040784404
221	0x3d3ce3f2	0.046115823
222	0x3eaef04b	0.34167704
223	0xbe892f80	-0.26794052
224	0xbeb4d143	-0.35315904
225	0xbec25626	-0.3795635
226	0xbf6f6d5b	-0.9352624
227	0xbe758c53	-0.2397931
228	0x3d9db30d	0.07700167
229	0xbdb1d122	-0.08682467
230	0xbb247e03	-0.0025099523
231	0x3ea56f31	0.32311395
232	0x3e5e3523	0.21699958
233	0x3d48f6de	0.049063556
234	0xbd9f57a1	-0.07780386
235	0xbd0fa6b2	-0.035071082
236	0x3d966f2f	0.07345425
237	0x3d215004	0.03938295
238	0xbe533594	-0.20625907
239	0xbde5dc73	-0.11223688
240	0x3d91ffe9	0.07128889
241	0x3da2a5f8	0.07941812
242	0x3e253611	0.16133906
243	0xbe042bdc	-0.12907356
244	0x3e0e5046	0.1389781
245	0xbeab5ff5	-0.33471647
246	0x3eb29738	0.34880996
247	0xbe1621c5	-0.1466132
248	0xbccf77ae	-0.025325622
249	0x3c7e8f06	0.015537029
250	0xbd9e7ebe	-0.07739018
251	0x3e52878a	0.20559517
252	0xbcdcd43a	-0.026956666
253	0x3bad0d5d	0.005281134
254	0xbe088b81	-0.13334467
255	0x3dd383f7	0.10327905

feauture_layer.0.bias f4 [80]
0	0x3d9c9577	0.07645696
1	0xbdcccc8b	-0.09999951
2	0x3b148bd8	0.0022666361
3	0xbe11f9bb	-0.14255421
4	0x3ca8d622	0.020609919
5	0x3d121939	0.035668585
6	0x3e0aa12b	0.13538043
7	0x3d0fd98c	0.03511958
8	0x3d4b2138	0.049592227
9	0x3d910c64	0.070824414
10	0x3d4190c8	0.047257215
11	0x3dbe76b3	0.09299984
12	0xbe45576c	-0.1927163
13	0xbd1a431b	-0.037661653
14	0xbd5ce16c	-0.053925917
15	0xbde019a5	-0.10942391
16	0x3da4513a	0.08023305
17	0xbc237ff7	-0.00997924
18	0x3cfd37a6	0.030910324
19	0x3d13f8be	0.03612589
20	0x3e1563f4	0.1458891
21	0x3d815844	0.063156635
22	0x3c92091b	0.017826607
23	0xbe1968c1	-0.14981367
24	0xbde93b1c	-0.11388227
25	0x3dfc02b3	0.12305202
26	0xbd3c6add	-0.04600035
27	0x3caab524	0.020838328
28	0x3cc0c744	0.023532517
29	0x3e4424d3	0.19154672
30	0x3e616b3a	0.2201356
31	0xbd7cfcaa	-0.061764397
32	0x3e39a3e1	0.18128921
33	0xbdb8e288	-0.090275824
34	0x3b432235	0.0029775028
35	0xbe0f104e	-0.13971063
36	0xbaef060e	-0.0018236057
37	0xbdb89b85	-0.09014038
38	0x3cb2a125	0.021805355
39	0xbe1926f9	-0.14956273
40	0xbd2420f2	-0.04007048
41	0x3c257c9e	0.010100512
42	0xbd073234	-0.03300686
43	0x3ddad180	0.1068449
44	0x3e1a6b21	0.15079929
45	0xbe321863	-0.17392115
46	0xbd8f5729	-0.06999046
47	0xbb6eb29d	-0.003642238
48	0x3e04e489	0.12977804
49	0xbcfd37c1	-0.030910375
50	0x3df5ffd1	0.12011684
51	0xbc4fe813	-0.012689608
52	0xbdab5d29	-0.08367378
53	0x3e70c07e	0.2351093
54	0xbdcd2625	-0.10017041
55	0x3d92b577	0.07163518
56	0x3dfeb95f	0.124377005
57	0xbdda4e94	-0.10659519
58	0x3dfd0034	0.12353554
59	0x3db7839c	0.08960649
60	0x3df151bb	0.11783167
61	0x3e0be4a2	0.13661435
62	0x3d75e437	0.060032096
63	0xbd8f07ee	-0.06983934
64	0x3a33d785	0.0006860423
65	0x3c547b2f	0.012968822
66	0x3d7f1cab	0.0622832
67	0xbe0a6b50	-0.13517499
68	0x3d81509d	0.06314204
69	0xbc741079	-0.0148965055
70	0x3d8c0e36	0.06838648
71	0xbca6eeea	-0.020377595
72	0x3d1d4602	0.038396843
73	0xbb8a841a	-0.0042271735
74	0xbdcea25b	-0.100895606
75	0x3d5d41c5	0.0540178
76	0xbda65df5	-0.0812339
77	0xbdc99915	-0.09843651
78	0x3d40943c	0.047016367
79	0xbe06d659	-0.13167705

feauture_layer.2.weight f4 [80, 80]
0	0x3e4c57c2	0.19955352
1	0xbc83e92f	-0.016102402
2	0x3d8cb281	0.068699844
3	0xbe88b4d8	-0.26700473
4	0xbd20ee73	-0.039289903
5	0xbe1ad7f1	-0.15121438
6	0x3d4a0a23	0.049326073
7	0x3dac9fa1	0.08428884
8	0xbdf65cf2	-0.12029447
9	0xbd042ca3	-0.03226913
10	0xbdd9dc26	-0.10637693
11	0x3cad3b7f	0.021146534
12	0xbe0348d6	-0.12820753
13	0x3df29354	0.11844507
14	0xbe8dfe2e	-0.27732986
15	0xbd14eb97	-0.03635749
16	0x3ddd0f73	0.10793962
17	0xbcb0fdaa	-0.021605331
18	0xbce8b71c	-0.028407626
19	0x3da2b8dd	0.07945416
20	0x3c5d3ead	0.013503713
21	0x3dfc4c11	0.12319196
22	0xbe7bf9d8	-0.24607027
23	0x3d0db444	0.034595743
24	0xbeb6a4cd	-0.35672608
25	0x3c8c114a	0.017098088
26	0x3e91cece	0.28478092
27	0xbd5b5d31	-0.05355567
28	0xbc1d2e5b	-0.009593572
29	0xbe5a0323	-0.21290259
30	0x3e4b80bb	0.19873326
31	0x3d2a2ba4	0.041545525
32	0x3e845e9e	0.25853437
33	0x3da7fc1a	0.082023814
34	0x3d93a7a1	0.07209707
35	0xbd1ab8b1	-0.03777379
36	0xbe793787	-0.24337588
37	0xbd813da9	-0.06310589
38	0xbd44ae1f	-0.048017617
39	0xbea22ce5	-0.31674877
40	0x3b861a6c	0.004092505
41	0x3e6995ce	0.22811052
42	0xbca1e678	-0.019763216
43	0x3d349ae3	0.044093024
44	0xbde5b5cc	-0.112163156
45	0x3e0522cd	0.13001557
46	0xbcfb02a5	-0.03064091
47	0xbec3ef4d	-0.3826851
48	0x3d3ec11e	0.04657089
49	0xbe0a2622	-0.13491109
50	0xbd2ead65	-0.04264583
51	0x3d82262c	0.06354937
52	0xb8450a58	-4.6978093e-05
53	0xbe49a020	-0.19689989
54	0x3de20f63	0.11038091
55	0xbd5b41b8	-0.05352947
56	0xbea4489f	-0.32086655
57	0xbe10ca72	-0.14139727
58	0x3b7026ba	0.0036644177
59	0xbd158145	-0.036500234
60	0xbe15234f	-0.1456425
61	0xbd85aa45	-0.06526617
62	0x3e8a26dd	0.26982775
63	0x3dd10330	0.10205686
64	0xbd21bd72	-0.03948731
65	0xbe46c50b	-0.19411103
66	0xbcb7ea3e	-0.022450563
67	0x3d032cfc	0.032025322
68	0x3e7b1614	0.24520141
69	0xbd1334c1	-0.035938982
70	0xbe4931bd	-0.1964788
71	0x3daea12e	0.08526836
72	0x3e4c3eb9	0.19945802
73	0xbbba5849	-0.005686794
74	0xbd00e66e	-0.031469755
75	0xbe8585c2	-0.26078612
76	0xbd9a02ed	-0.07520089
77	0x3d07cab8	0.033152312
78	0x3cf2ef56	0.02965514
79	0x3d41f42b	0.047351997
80	0x3eb55289	0.35414532
81	0xbe585aa9	-0.21128334
82	0x3dbb6e13	0.09151854
83	0xbe8f0dda	-0.27940255
84	0xbe39a267	-0.18128358
85	0x3d958e2f	0.0730251
86	0xbdc8fb80	-0.09813595
87	0xbbcba16d	-0.006214312
88	0xbc4cc70a	-0.0124986265
89	0xbe7852e1	-0.24250366
90	0xbdb196d1	-0.08671344
91	0xbe5ef810	-0.21774316
92	0x3e0ac390	0.13551164
93	0x3a7b91d7	0.0009596622
94	0xbdf26e43	-0.11837437
95	0x3e93138c	0.2872585
96	0x3dc4dd37	0.09612506
97	0x3e1fe53a	0.15614787
98	0x3cedc975	0.029026726
99	0xbd9fa201	-0.07794572
100	0x3dcf0269	0.101078816
101	0xbc8f4a3a	-0.017491449
102	0x3e824cf3	0.25449333
103	0xbd4d0227	-0.05005088
104	0x3d6d5503	0.0579424
105	0x3b0dd446	0.0021641417
106	0xbb34f5c4	-0.0027612308
107	0x3d2fdbad	0.04293411
108	0xbdba8afa	-0.09108539
109	0xbee08fcd	-0.4385971
110	0x3cfb9ad2	0.030713473
111	0xbd8ba351	-0.068182595
112	0xbed62635	-0.41826025
113	0xbcfa503c	-0.030555837
114	0x3ca1b46d	0.019739354
115	0xbe72d0ec	-0.2371251
116	0x3bcce0bb	0.006252376
117	0xbe87638e	-0.26443142
118	0xbeb8e08b	-0.36108813
119	0xbe3eca83	-0.1863194
120	0xbdf1b8ed	-0.1180285
121	0xbcc05a39	-0.023480522
122	0x3de3be03	0.11120226
123	0x3e088323	0.13331275
124	0xbdbaa54a	-0.09113558
125	0x3d30ccc2	0.043164022
126	0x3df39947	0.1189447
127	0x3e1cc92b	0.15311114
128	0xbe698cca	-0.22807613
129	0xbd747321	-0.059680108
130	0xbd71e16c	-0.05905287
131	0x3e9177e6	0.28411788
132	0xbe3c9856	-0.18417487
133	0x3e03feb1	0.12890126
134	0x3e015923	0.12631659
135	0x3cc8a4c1	0.024492623
136	0xbe2c166f	-0.16805433
137	0xbd84b845	-0.06480459
138	0xbe8ff03c	-0.28112972
139	0xbdb1ab4c	-0.086752504
140	0xbdb91708	-0.09037596
141	0xbe010703	-0.12600331
142	0xbd24542d	-0.04011934
143	0x3e3f80f4	0.18701535
144	0xbbb46113	-0.005504736
145	0x3e49a21b	0.19690745
146	0xbe666455	-0.22499211
147	0xbe70488f	-0.23465179
148	0x3dc61001	0.09671021
149	0xbe93c2a2	-0.2885943
150	0xbe34d185	-0.1765805
151	0xbecc6605	-0.39921585
152	0x3e32a2a7	0.1744486
153	0xbd9933b3	-0.07480564
154	0xbdaa665a	-0.08320303
155	0xbd83aa20	-0.06428933
156	0xbe54c167	-0.20776902
157	0x3c2a4582	0.0103925485
158	0xbd93542e	-0.071937904
159	0xbddec614	-0.10877624
160	0xbe55976a	-0.20858541
161	0xbe1f7921	-0.15573551
162	0xbe146ec4	-0.14495379
163	0xbda8e0ec	-0.082460254
164	0xbdd1e87b	-0.1024942
165	0xbe0084a6	-0.12550601
166	0x3e1ca4d1	0.15297247
167	0xb9536f47	-0.00020163982
168	0xbd0817dc	-0.03322588
169	0x3e04ae19	0.12957038
170	0x3d0100cc	0.0314949
171	0x3e290fc7	0.16509925
172	0x3e04d5fa	0.1297225
173	0xbecb76da	-0.39739114
174	0xbef1944b	-0.4718345
175	0xbf5a60ae	-0.8530377
176	0xbdd07919	-0.101793475
177	0x3e62221f	0.22083329
178	0x3e39f9aa	0.18161646
179	0xbe80c312	-0.25148827
180	0xbe015b79	-0.1263255
181	0xbb86c971	-0.004113369
182	0xbddc1ed7	-0.1074807
183	0x3c40b9f0	0.011763081
184	0xbe03680f	-0.12832664
185	0xbe650be0	-0.22367811
186	0x3b12576b	0.0022329937
187	0x3c514b57	0.01277431
188	0xbb48dcb5	-0.003064913
189	0xbda20dc3	-0.07912781
190	0xbd9186a9	-0.071057625
191	0xbe01496b	-0.12625663
192	0xbe9df5db	-0.30851635
193	0xbd609ffc	-0.054840073
194	0xbdd3026b	-0.103031956
195	0x3df30b4c	0.11867389
196	0xbd6c5d5e	-0.05770623
197	0xbcf1aea5	-0.029502222
198	0x3e88b552	0.26700836
199	0xbd6d4cce	-0.057934575
200	0xbe36e34a	-0.17860141
201	0xbec091e7	-0.37611315
202	0xbcb8e2de	-0.022569116
203	0x3e971b2c	0.29512918
204	0x3d44ad3c	0.04801677
205	0xbeaca922	-0.33722788
206	0xbe8988d1	-0.26862195
207	0xbe8474ae	-0.2587027
208	0xbdc7eb82	-0.097617164
209	0x3d3ea0e6	0.046540163
210	0xbc69e98b	-0.014276872
211	0xbcc5f60a	-0.024165172
212	0xbe53b00b	-0.20672624
213	0xbde56666	-0.112011716
214	0x3d4bb385	0.04973175
215	0x3b8eb2e6	0.0043548224
216	0xbe8d5e87	-0.2761118
217	0xbe457c2e	-0.19285652
218	0xbe646a45	-0.22306164
219	0x3c885adf	0.016644893
220	0xbdd5a09a	-0.10431023
221	0x3e41f257	0.18940102
222	0xbe6f0c34	-0.23344499
223	0xbea5dfa1	-0.32397178
224	0xbd85dd5a	-0.0653636
225	0xbe96f396	-0.29482716
226	0xbeee9340	-0.46596718
227	0x3bb0ea1f	0.005399003
228	0xbf0c8931	-0.5489684
229	0x3e6042b9	0.21900453
230	0xbe879977	-0.26484272
231	0x3e57b9fc	0.21067041
232	0xbe630746	-0.22170743
233	0xbe7992ee	-0.24372455
234	0xbd588ddc	-0.052869663
235	0x3cd43ff1	0.025909396
236	0xbe2cfe6f	-0.16893934
237	0xbef05007	-0.46936056
238	0xbf1ab56d	-0.60433084
239	0xbe990626	-0.29887503
240	0x3e0a8f8e	0.13531324
241	0xbd1bcc96	-0.038036905
242	0xbe28e4ee	-0.1649358
243	0x3e10c893	0.14139013
244	0xbdc366b8	-0.095410764
245	0xbdb4c092	-0.08825792
246	0xbcc9cc6c	-0.024633609
247	0x3e457869	0.19284214
248	0x3d994d96	0.074855015
249	0x3d0b938b	0.034076255
250	0xbce146e9	-0.027499633
251	0x3e3ac02f	0.18237375
252	0xbda84ce5	-0.082177915
253	0x3d9b3c8e	0.07579909
254	0xbc5c3e59	-0.013442599
255	0xbdd69bdf	-0.10478949

feauture_layer.2.bias f4 [80]
0	0x3db0cee2	0.0863321
1	0xbd63d175	-0.055619676
2	0xbd93872e	-0.07203518
3	0x3e131ea7	0.14367162
4	0xbe4c7e31	-0.19970013
5	0xbdf20116	-0.118166134
6	0xbdc6f909	-0.097154684
7	0xbbed58a5	-0.0072432333
8	0xbdff226a	-0.12457736
9	0xbdbd2ee3	-0.092374586
10	0xbe0767a2	-0.13223127
11	0x3d0ac030	0.03387469
12	0xbdf12178	-0.11773962
13	0x3cb3db62	0.021955196
14	0xbc848262	-0.016175453
15	0xbc59012a	-0.013244906
16	0xbd68c013	-0.0568238
17	0xbd90a8d6	-0.07063453
18	0xbce9e68a	-0.028552312
19	0xbd780e7f	-0.0605607
20	0xbdcbeb47	-0.09956985
21	0xbd3b199f	-0.04567873
22	0xbc57809c	-0.013153221
23	0x3da0bf39	0.07848973
24	0xbdc426d4	-0.095777184
25	0xbbbcc5ff	-0.0057609077
26	0xbd052493	-0.032505583
27	0x3de8366d	0.11338506
28	0xbd1c4499	-0.038151357
29	0xbcbd6ab9	-0.023122178
30	0x3e11271d	0.14175077
31	0xbdc5e446	-0.0966268
32	0xbbc1dac6	-0.0059159724
33	0x3e0ff308	0.14057553
34	0xbb287988	-0.0025707204
35	0xbccbd5f0	-0.024882287
36	0x3be27402	0.006910802
37	0x3e0683b2	0.13136175
38	0xbde56045	-0.112000026
39	0xbd687cf9	-0.05675981
40	0xbd8dd3aa	-0.06925137
41	0xbe3c107c	-0.18365663
42	0xbb03481d	-0.0020031997
43	0x3e7d65e8	0.24745905
44	0x3d278b0e	0.040904097
45	0xbd3c9b93	-0.046046805
46	0xbe23eec3	-0.16009049
47	0xbd133d75	-0.035947282
48	0x3d2ec137	0.042664733
49	0xbc4e2974	-0.012583125
50	0xbd84d1a4	-0.06485298
51	0xbdc41827	-0.09574919
52	0x3bb490e2	0.0055104354
53	0xbc2ec781	-0.010667683
54	0x3d246e57	0.04014429
55	0xbe1bc359	-0.15211238
56	0x3c92c489	0.01791598
57	0xbd2f1367	-0.042743113
58	0x3ca96f32	0.020682905
59	0x3deb14c2	0.114785686
60	0xbcc8eb8d	-0.024526382
61	0x3d325c3c	0.043544993
62	0x3c37486d	0.011186701
63	0xbdb05e6c	-0.086117595
64	0xbce19450	-0.027536541
65	0xbc692d6f	-0.014232024
66	0x3d887473	0.06662836
67	0x3dfe8167	0.12427025
68	0x3e135b76	0.14390358
69	0xbd914faf	-0.070952766
70	0xbe12131c	-0.14265102
71	0x3d575a5c	0.052576408
72	0xbe0ac037	-0.13549887
73	0xbd13c096	-0.036072336
74	0xbcca3db1	-0.02468762
75	0xbce43008	-0.027854934
76	0xbe157815	-0.14596589
77	0xbd642467	-0.05569878
78	0xbdc5667b	-0.09638687
79	0xbd6df965	-0.05809917

value_stream.0.weight f4 [80, 80]
0	0xbdd43594	-0.10361782
1	0x3d90a9d8	0.07063645
2	0xbea7d23e	-0.3277759
3	0x3e21f51f	0.15816163
4	0xbd135ffe	-0.035980217
5	0xbd0744bf	-0.033024546
6	0xbe82e049	-0.2556174
7	0x3e46435c	0.19361633
8	0x3dbad1c6	0.09122042
9	0xbe8ed920	-0.27900028
10	0xbeac28a9	-0.3362477
11	0xbd50bfe6	-0.05096426
12	0xbdf2fba7	-0.11864405
13	0x3c91ce59	0.01779859
14	0xbc1938a7	-0.009351886
15	0x3e6552b4	0.2239483
16	0x3dd8c3b0	0.105841994
17	0xbe3e2e9e	-0.1857247
18	0xbe83eb59	-0.25765494
19	0xbe1d58b9	-0.15365876
20	0xbea6655c	-0.32499206
21	0xbdca972b	-0.09892114
22	0xbeff30dd	-0.49841967
23	0xbc8c2973	-0.017109608
24	0xbea40c6d	-0.3204073
25	0x3eaf2874	0.3421055
26	0xbefa1cba	-0.48850042
27	0x3d17aef5	0.037032086
28	0x3dbef8ae	0.09324776
29	0x3ce240d6	0.027618807
30	0xbe881a15	-0.265824
31	0x3e1c6b53	0.15275316
32	0xbdddbd7b	-0.10827156
33	0x3d6bba2a	0.057550587
34	0xbd22ca8b	-0.03974394
35	0x3db8b2fa	0.09018512
36	0xbe2d9824	-0.16952568
37	0xbe808679	-0.25102594
38	0xbe97165d	-0.2950925
39	0x3a0fabe2	0.00054806296
40	0xbe18c5d2	-0.14919212
41	0xbe22f608	-0.15914166
42	0x3e4b3310	0.19843698
43	0x3e4109b7	0.18851362
44	0xbe148635	-0.14504321
45	0xbeb993a1	-0.36245444
46	0xbef7f816	-0.48431462
47	0x3d931648	0.07181984
48	0xbd44cfc5	-0.048049707
49	0xbe944732	-0.28960568
50	0xbed30229	-0.41212586
51	0x3e9e0ebe	0.30870622
52	0x3e1c81f8	0.15283954
53	0xbe234d34	-0.1594742
54	0xbebf5b30	-0.37374258
55	0xbe5f366f	-0.21798109
56	0xbd90b022	-0.07064845
57	0xbd69c39c	-0.057071313
58	0xbead0d9b	-0.33799443
59	0xbe4f24dc	-0.20228904
60	0xbd9bcc71	-0.076073535
61	0xbd80eb1c	-0.062948436
62	0x3d18ab66	0.037272833
63	0x3ccce4e8	0.025011495
64	0x3d523c86	0.05132725
65	0xbe94a2e7	-0.29030535
66	0xbdd051ff	-0.101718895
67	0xbd053e04	-0.032529846
68	0xbe5ff0ca	-0.21869197
69	0xbe3728b2	-0.17886618
70	0xbe098a9e	-0.13431785
71	0x3caafb86	0.020871889
72	0x3e8529a0	0.2600832
73	0xbd30b112	-0.043137617
74	0x3b87a163	0.004139112
75	0x3d9594a6	0.07303743
76	0xbe6f4721	-0.23366977
77	0x3cfb26bb	0.030658117
78	0x3e6d21c6	0.23157415
79	0xbe0e560a	-0.13900009
80	0x3dd27f0b	0.10278138
81	0xbc93af7e	-0.018028017
82	0xbdb7b731	-0.08970488
83	0x3dee87df	0.11647009
84	0x3ce2703a	0.027641404
85	0x3aff3afa	0.0019472532
86	0x3d14eedf	0.036360618
87	0xbd9c6cfb	-0.07637974
88	0xbce031f8	-0.027367577
89	0x3be17b42	0.0068811486
90	0x3d826401	0.063667305
91	0xbdeb891b	-0.1150076
92	0xbd9ac1c6	-0.075564906
93	0xbda38567	-0.07984429
94	0x3dd1fb99	0.102530666
95	0xbd0b4380	-0.03399992
96	0xbcaa433b	-0.020784011
97	0xbe011741	-0.12606527
98	0xbd38c3cb	-0.045108598
99	0x3de1e96a	0.11030848
100	0xbdad029e	-0.08447765
101	0x3d6d5cb5	0.05794974
102	0xbc4d798c	-0.012541186
103	0xbc1005aa	-0.008790413
104	0xbde87d29	-0.113519974
105	0xbe90380b	-0.28167757
106	0xbd877416	-0.066139385
107	0x3db784f7	0.08960908
108	0x3c18ca39	0.009325557
109	0xbe47a487	-0.19496356
110	0x3e0e8766	0.13918838
111	0x3d1c7393	0.038196158
112	0x3d80bcab	0.062859856
113	0x3e02a78e	0.1275923
114	0xbd619e5c	-0.055082664
115	0x3b2bfd21	0.0026243406
116	0x3da753c6	0.081702754
117	0xbd81bb75	-0.06334583
118	0xbd09e615	-0.03366669
119	0xbe72169b	-0.23641436
120	0xbe3500e7	-0.17676125
121	0xbde37383	-0.111060165
122	0x3e05f6eb	0.13082473
123	0xbc4ec21d	-0.012619522
124	0x3d9cad5e	0.07650255
125	0x3ddcd049	0.10781915
126	0x3d8be08e	0.0682994
127	0x3d8e83fc	0.06958768
128	0x3e2d2c48	0.16911423
129	0xbda7e757	-0.081984214
130	0x3de0e913	0.109819554
131	0xbdb099dd	-0.08623097
132	0x3bcfc46b	0.0063405535
133	0x3db75ef8	0.08953661
134	0xbce6300a	-0.028099079
135	0xbcd057e7	-0.02543254
136	0xbc7e8dd2	-0.015536742
137	0x3dcbdc76	0.09954159
138	0x3dd3fc8f	0.10350906
139	0x3dd62e88	0.10458094
140	0x3d1e71d1	0.038682763
141	0x3df2963c	0.11845061
142	0xbe931d05	-0.28733078
143	0xbd85a4d3	-0.06525578
144	0x3d2939c9	0.041314874
145	0x3e17e8eb	0.14834945
146	0x3d2fe773	0.042945337
147	0x3ca7b1ce	0.020470526
148	0x3e12d7dd	0.14340158
149	0xbc9f06ed	-0.019412482
150	0xbd7ab3d9	-0.061206672
151	0xbe290a63	-0.16507868
152	0x3db237cb	0.08702048
153	0xba8dfa33	-0.0010832011
154	0xbe07713e	-0.13226792
155	0x3d942757	0.07234066
156	0x3c76e7b8	0.0150698945
157	0x3e4716a8	0.19442236
158	0x3e0470cf	0.12933658
159	0xbdc4d7a7	-0.09611445
160	0x3df34167	0.11877709
161	0xbd3c3af4	-0.04595466
162	0xbdf2972a	-0.118452385
163	0xbb40ebcd	-0.0029437423
164	0x3d5820fd	0.052765835
165	0xbda2f1c0	-0.079562664
166	0x3c872016	0.016494792
167	0xbe081405	-0.13288887
168	0xbdb6f50d	-0.089334585
169	0x3ddffde4	0.10937098
170	0x3e174313	0.1477168
171	0xbc65e323	-0.014031204
172	0xbe0ab9bb	-0.13547413
173	0xbdc69dd2	-0.096980706
174	0x3d304c80	0.043041706
175	0x3d84af23	0.06478717
176	0xbcbeb3c9	-0.023279088
177	0xbe390260	-0.18067312
178	0xbdfd3da1	-0.123652704
179	0x3d7e5128	0.062089115
180	0x3e18d021	0.14923145
181	0xbde79cbd	-0.11309192
182	0x3dbad755	0.091231026
183	0x3d651d3a	0.055936076
184	0x3cae8a2f	0.021306125
185	0xbdb1d505	-0.086832084
186	0x3d06e966	0.03293743
187	0x3d8b21bc	0.06793544
188	0xbc1d9982	-0.009619119
189	0xbe1ce2c3	-0.15320878
190	0x3d067caa	0.032833733
191	0xbdecee90	-0.1156894
192	0x3d700294	0.05859621
193	0x3dd6bc75	0.10485164
194	0xbe8465d5	-0.25858942
195	0xbd6efca9	-0.058346424
196	0xbdd41a64	-0.10356596
197	0x3b65adbc	0.003504618
198	0xba7dfb94	-0.0009688672
199	0xba0f528a	-0.00054673164
200	0xbd867a66	-0.065663144
201	0xba89edab	-0.0010523101
202	0x3db017e7	0.08598309
203	0xbcc315b9	-0.02381407
204	0x3bd98473	0.0066381036
205	0x3dde5d33	0.1085762
206	0x3ccbf21d	0.024895722
207	0x3dbf1cfe	0.09331702
208	0x3d4656f6	0.048422776
209	0x3dba4896	0.09095876
210	0x3db6a2a6	0.089177415
211	0x3d2caed9	0.042158935
212	0xbdcaa106	-0.09893994
213	0x3e401944	0.18759638
214	0x3e0ee9c9	0.1395637
215	0x3d7427ba	0.0596082
216	0x3db6a138	0.08917469
217	0x3cb4becc	0.022063635
218	0x3d24c8eb	0.040230673
219	0xbd869ff9	-0.06573481
220	0xbd2f5054	-0.042801216
221	0x3c7f1d5a	0.015570963
222	0xbdb75f33	-0.08953705
223	0xbe229e2f	-0.15880655
224	0xbe098ecf	-0.13433383
225	0x3e56f392	0.20991352
226	0xbcd1f9a4	-0.025631733
227	0xbd976910	-0.07393086
228	0x3cecd333	0.028909301
229	0x3d009026	0.03138747
230	0x3d6c098d	0.057626296
231	0xbe639793	-0.2222579
232	0x3db29006	0.087188765
233	0x3d38fcdd	0.045163024
234	0x3db231ab	0.0870088
235	0xbd770ba5	-0.06031384
236	0xbd158ad6	-0.036509357
237	0x3e6d422b	0.23169772
238	0xb8f9e9ff	-0.000119168304
239	0xbdd1791e	-0.102281794
240	0x3d419143	0.047257673
241	0xbc7a0907	-0.015260941
242	0x3d91050f	0.07081043
243	0xbd3ae51b	-0.04562865
244	0xbdad4f99	-0.08462448
245	0xbc3040a8	-0.010757603
246	0x3d6baf94	0.05754049
247	0x3d48c6db	0.04901777
248	0xbd6a998d	-0.057275344
249	0xbc6012c0	-0.013676345
250	0xbdcd6f8a	-0.1003104
251	0xbd91cff4	-0.07119742
252	0xbd80ca9d	-0.062886454
253	0x3c2e5b28	0.0106418505
254	0xbd35b340	-0.0443604
255	0x3c3c56eb	0.011495332

value_stream.0.bias f4 [80]
0	0xbc05979f	-0.008153825
1	0x3ec3cf6d	0.3824419
2	0x3ef21cfd	0.4728774
3	0xbddad7c1	-0.10685683
4	0x3e3d5351	0.18488814
5	0x3ef2157f	0.47282025
6	0xbde41fdf	-0.111388914
7	0xbdafa037	-0.085754804
8	0xbd09d6a9	-0.03365198
9	0x3c81781d	0.015804345
10	0xbe74ea30	-0.2391746
11	0x3e114eda	0.14190236
12	0xbea94042	-0.33056837
13	0xbdf44357	-0.119269066
14	0x3e3be722	0.18349889
15	0x3e9d7457	0.30752823
16	0x3f01636f	0.5054235
17	0xbd871b68	-0.06597024
18	0xbe365ed7	-0.17809616
19	0x3e820ff1	0.25402787
20	0xbd9971f5	-0.07492439
21	0x38833c83	6.257838e-05
22	0x3a94545e	0.0011316647
23	0xbdd53150	-0.10409796
24	0xbe23b9e1	-0.15988876
25	0x3c465ab9	0.012106591
26	0x3f0263f6	0.5093378
27	0xbc8ecfe8	-0.017433122
28	0xbe8ec1ef	-0.27882335
29	0x3e882ea3	0.2659808
30	0x3eb3e036	0.35131997
31	0x3ef9b39d	0.48769847
32	0x3dbdee3a	0.09273954
33	0xbe32c58d	-0.17458172
34	0x3f070fb3	0.5275833
35	0x3e2333fe	0.15937802
36	0x3ef45e46	0.47728175
37	0xbddc24dd	-0.107492186
38	0xbd6c3c18	-0.057674497
39	0xbda7e266	-0.08197479
40	0x3f033be4	0.5126326
41	0x3ef99ad7	0.48750946
42	0x3e067948	0.13132203
43	0x3db3acce	0.08773194
44	0x3ee63e35	0.44969335
45	0x3ec1a2e9	0.37819603
46	0x3eca7568	0.395427
47	0xbe23bd5b	-0.15990202
48	0xbe9d50b5	-0.30725637
49	0x3e5dd6c9	0.21663965
50	0xbdfee0cd	-0.12445221
51	0x3dbdb311	0.0926267
52	0x3d0feafc	0.035136208
53	0xbe05aa66	-0.13053283
54	0x3ef887e0	0.48541164
55	0xbe802b6e	-0.25033134
56	0xbe0012b8	-0.1250714
57	0xbda36037	-0.07977336
58	0x3b646ee2	0.003485613
59	0xbe1db3f4	-0.15400678
60	0x3f06dc83	0.52680224
61	0xbd45713a	-0.048203684
62	0x3b6d97c9	0.00362538
63	0xbe08b300	-0.13349533
64	0xbe27d5d5	-0.16390164
65	0xbe3fc83d	-0.18728729
66	0x3e35496a	0.17703786
67	0xbd984ca9	-0.07436497
68	0x3ed79e0c	0.42112768
69	0xbe00376d	-0.12521143
70	0xbe9b3c4a	-0.30319434
71	0xbe8c2d8f	-0.27378508
72	0x3f0603cb	0.5234954
73	0x3ed74bcf	0.42050025
74	0xbdf49e80	-0.11944294
75	0xbe400112	-0.18750408
76	0xbe1f8183	-0.15576749
77	0x3dfebdae	0.12438522
78	0x3c56ea33	0.013117361
79	0xbe34002d	-0.17578192

value_stream.2.weight f4 [1, 80]
0	0xbebc6f71	-0.36803773
1	0x3e275064	0.1633926
2	0x3e5570f3	0.20843868
3	0xbbbd6c4d	-0.0057807327
4	0x3e21936f	0.15778898
5	0x3e72d8cb	0.23715512
6	0xbe94537e	-0.2896995
7	0xbf0bfd37	-0.5468325
8	0xbe86a7d9	-0.26299933
9	0x3ed20a69	0.41023567
10	0x3e751318	0.23933065
11	0x3e3afb3e	0.18259904
12	0xbec66c9b	-0.38754734
13	0x3c5d8263	0.013519856
14	0x3e5807fb	0.21096794
15	0x3eac4160	0.33643627
16	0x3e8818d7	0.2658145
17	0xbf197e53	-0.5995838
18	0xbe3a3fad	-0.18188353
19	0x3ddbc8df	0.107316725
20	0xbb6a1a78	-0.0035721343
21	0x3f0a19f8	0.53945875
22	0xbedd1d29	-0.4318631
23	0xbf0b9879	-0.5452953
24	0xbcc5a2d9	-0.024125503
25	0x3df97cc2	0.12181999
26	0x3e8b5563	0.27213582
27	0xbea7cb4a	-0.32772285
28	0xbe7fe935	-0.24991305
29	0x3e9204f8	0.28519416
30	0x3e129f9b	0.14318697
31	0x3e8a4210	0.27003527
32	0x3e1e8a15	0.15482362
33	0xbe46a3f4	-0.1939848
34	0x3e8d699e	0.27619642
35	0x3ea83816	0.3285529
36	0x3e891244	0.26771748
37	0xbeb2543c	-0.3482989
38	0xbed4e92f	-0.41584155
39	0xbeac8481	-0.33694842
40	0x3e8d42f8	0.27590156
41	0x3e6d1d91	0.2315581
42	0x3db7bc6b	0.08971485
43	0xbec30397	-0.38088676
44	0x3e8f1ec5	0.27953163
45	0x3e34166e	0.17586681
46	0x3e6f529f	0.23371361
47	0xbe98d24b	-0.2984794
48	0xbe743538	-0.23848426
49	0x3e12302b	0.14276187
50	0x3e9c0daa	0.30479175
51	0x3e314397	0.1731094
52	0xbf497a96	-0.78702676
53	0x3d43acc8	0.0477722
54	0x3e51c873	0.20486622
55	0xbe8f83b1	-0.2803016
56	0x3b7629fa	0.003756164
57	0xbeb245f8	-0.34819007
58	0x3eca7dde	0.39549154
59	0x3dfa1f4d	0.122130014
60	0x3e911493	0.2833601
61	0xbeb99bed	-0.36251774
62	0xbf26720b	-0.65017766
63	0xbdeec55b	-0.11658736
64	0xbe9b273c	-0.3030337
65	0xbe7a81bd	-0.24463554
66	0x3e8a052e	0.26957077
67	0xbee41023	-0.4454356
68	0x3e8b9687	0.2726328
69	0xbefb5acc	-0.4909271
70	0xbea0d139	-0.31409624
71	0xbe9fbe38	-0.31199813
72	0x3e8b757a	0.27238065
73	0x3e4bcece	0.19903108
74	0xbdf43010	-0.1192323
75	0xbe490183	-0.19629483
76	0xbf50dbf2	-0.8158561
77	0x3eb68ecf	0.3565583
78	0x3e988152	0.29786164
79	0xbed34fe6	-0.41271895

advantage_stream.0.weight f4 [80, 80]
0	0x3dab20cc	0.08355865
1	0x3b81d3db	0.0039620227
2	0xbbd48dba	-0.0064866217
3	0xbdeb217f	-0.11480998
4	0x3e7682d1	0.2407334
5	0xbdd8c044	-0.10583547
6	0xbef0d309	-0.47036007
7	0xbe561878	-0.20907772
8	0xbf013a61	-0.50479704
9	0x3e06b18a	0.13153663
10	0xbe47c10e	-0.19507238
11	0x3db981e8	0.09057981
12	0x3cb03a87	0.021512283
13	0x3e8c290d	0.2737507
14	0x3d8d6b2a	0.069052055
15	0x3d3cd322	0.04609979
16	0x3d1931bb	0.037400942
17	0x3e6819ca	0.22666088
18	0xbd1c4dca	-0.038160123
19	0x3d8f3241	0.06992007
20	0x3df74ace	0.12074815
21	0xbead1eed	-0.33812657
22	0x3e1dba91	0.154032
23	0xbda2e460	-0.07953715
24	0x3e1af044	0.15130717
25	0x3e49e276	0.19715294
26	0x3e4941b1	0.19653966
27	0x3dc30d1d	0.095239855
28	0x3d994546	0.07483916
29	0xbe9a891c	-0.3018273
30	0x3c10ac6e	0.008830173
31	0xbebe949d	-0.37222758
32	0xbc8d4b36	-0.017247777
33	0x3e4fd29a	0.20295182
34	0xbe87886b	-0.26471266
35	0x3db902ce	0.09033738
36	0x3d4955bd	0.049154032
37	0x3e7abd57	0.2448629
38	0x3e22eb21	0.15910007
39	0xbe941289	-0.2892039
40	0xbe99049d	-0.29886332
41	0xbe05517e	-0.13019368
42	0x3f1af1c1	0.6052514
43	0xbde401ee	-0.111331806
44	0xbd0d2bdc	-0.034465656
45	0x3e180505	0.14845665
46	0xbcc6f5b6	-0.024287086
47	0x3e3d0133	0.18457489
48	0x3e7f9464	0.2495895
49	0x3cbcfecf	0.023070721
50	0x3dff13ea	0.1245497
51	0x3cd66b8c	0.02617433
52	0x3cc9e44d	0.024644995
53	0x3ecd03cb	0.40041956
54	0xbbee9726	-0.007281202
55	0x3dd9aaf6	0.10628311
56	0x3db23085	0.087006606
57	0xbe93ea25	-0.28889576
58	0x3de60708	0.1123181
59	0x3d58add5	0.052900154
60	0x3d9cd99a	0.07658692
61	0xbe40f880	-0.18844795
62	0xbeb5f4aa	-0.35538226
63	0xbd8499ef	-0.06474673
64	0x3da04bb1	0.07826937
65	0x3e77060f	0.24123405
66	0x3c4936f8	0.012281172
67	0xbe81bd93	-0.25339946
68	0x3df46c1d	0.119346835
69	0xbe4b110d	-0.19830723
70	0xbb9e5aa2	-0.0048325816
71	0xbecb1db9	-0.39671114
72	0xbe8b9b58	-0.27266955
73	0x3d79cc28	0.060985714
74	0xbea2a552	-0.31766754
75	0xbd8052f8	-0.06265825
76	0xbd553fa6	-0.052062653
77	0x3f1626c4	0.586529
78	0xbddd80f2	-0.1081561
79	0x3eafe5fb	0.3435515
80	0xbe02f7dc	-0.12789863
81	0x3e3ba3b1	0.18324162
82	0x3c901fe1	0.017593326
83	0xbd49b7d7	-0.04924759
84	0xbccc62a9	-0.024949389
85	0x3eb6dbaf	0.3571448
86	0x3d2f62d4	0.04281886
87	0xbe473df7	-0.19457231
88	0xbdd972cd	-0.106176
89	0x3e77a38b	0.2418348
90	0x3e5aa6c0	0.21352673
91	0xbcc40f78	-0.023933157
92	0xbdf78206	-0.12085347
93	0x3e1e259a	0.15444031
94	0x3e61b173	0.22040348
95	0x3e33063c	0.17482847
96	0xbe86d0bf	-0.26331136
97	0xbcf1f4c1	-0.029535653
98	0x3e1c1993	0.15244131
99	0x3e16fd6a	0.14745107
100	0xbdce10ba	-0.10061784
101	0x3e3b7fd6	0.18310484
102	0x3c0d086a	0.008607963
103	0x3eafe852	0.34356934
104	0xbd4d3b12	-0.050105162
105	0x3e913289	0.28358868
106	0x3dae8642	0.085217014
107	0xbe9f5af8	-0.3112409
108	0xbd0ceeb7	-0.034407344
109	0xbee5f569	-0.44913796
110	0xbe5b42f4	-0.2141226
111	0xbe183b1c	-0.14866298
112	0xbd4af39e	-0.049548738
113	0x3e28bbe2	0.16477922
114	0x3c0f1107	0.008732087
115	0x3eb6e881	0.3572426
116	0xba0a3de1	-0.0005273503
117	0x3db82384	0.08991149
118	0x3c935912	0.017986808
119	0x3dda4a36	0.10658686
120	0x3ec16f36	0.3778016
121	0x3e69230f	0.2276728
122	0xbe74fcfc	-0.23924631
123	0xbe9adc60	-0.30246258
124	0xbe741097	-0.23834454
125	0xbed12adf	-0.4085302
126	0x3d20ba6c	0.039240286
127	0xbe0cd417	-0.13752781
128	0x3e0963d3	0.13416986
129	0xbe97c45c	-0.29641998
130	0xbdc296dc	-0.095014304
131	0xbd2ae391	-0.04172093
132	0xbe26f9c3	-0.16306214
133	0x3e1869be	0.14884087
134	0xbcf21c3f	-0.029554484
135	0x3e01ce2d	0.12676306
136	0xbd57e06b	-0.052704256
137	0x3d7f8a78	0.062387913
138	0x3e4e7c8f	0.20164703
139	0xbd9915b0	-0.0747484
140	0x3adfa18f	0.0017061698
141	0x3d314d6e	0.043286733
142	0xbe5d92ff	-0.21638106
143	0x3e357be9	0.17723049
144	0xbcefe9ed	-0.02928635
145	0xbd57a7f8	-0.05265042
146	0xbd22983b	-0.03969596
147	0x3d87cbb5	0.06630651
148	0xbcfb8b6a	-0.030706126
149	0x3dc11fa7	0.09429865
150	0x3cad36eb	0.021144351
151	0xbe67286a	-0.2257401
152	0xbda18ee8	-0.07888585
153	0xbc6051ed	-0.013691408
154	0x3d1449fd	0.036203373
155	0x3d9736e5	0.07383517
156	0x3d5835bb	0.052785616
157	0xbc5ca244	-0.0134664215
158	0xbe608e31	-0.21929242
159	0x3d0741a8	0.0330216
160	0x3d54c229	0.051942978
161	0x3e84fd20	0.2597437
162	0x3c481f1f	0.012214451
163	0x3d619467	0.055073168
164	0x3ca91792	0.020641122
165	0x3d261f33	0.040557098
166	0xbddaab7a	-0.10677238
167	0xbcce781d	-0.025203759
168	0x3e816cc8	0.25278306
169	0xbe113d22	-0.14183477
170	0xbe61c0ed	-0.22046252
171	0xbc7dd8f2	-0.015493618
172	0x3ea57c16	0.32321233
173	0x3e160b37	0.14652716
174	0xbdee38b1	-0.11631907
175	0x3e932611	0.2873998
176	0x3e228795	0.15872033
177	0x3ec0b78d	0.37640038
178	0x3e2f3d60	0.17113256
179	0x3dd4d933	0.1039299
180	0x3c031eda	0.008002961
181	0x3d3bc9c9	0.045846734
182	0xbe05729a	-0.13031998
183	0x3cf7e8ad	0.030262316
184	0xbe62d937	-0.22153173
185	0xbdaf5ae1	-0.08562256
186	0x3e84df83	0.25951776
187	0x3da94bb4	0.08266392
188	0x3dab1833	0.08354225
189	0x3e9b4bb2	0.30331188
190	0xbe67e55c	-0.22646087
191	0x3e730d22	0.23735479
192	0x3da1cf3b	0.07900854
193	0x3a6015b7	0.00085481576
194	0x3e6b4dc6	0.22978887
195	0x3d9e04c5	0.077157535
196	0xbdadb7b3	-0.084823035
197	0xbeb4d572	-0.35319096
198	0xbee54142	-0.4477635
199	0xbdc2e895	-0.09517018
200	0x3f15fef5	0.5859216
201	0xbead064b	-0.33793864
202	0xbd2c4619	-0.042059038
203	0xbef51d7d	-0.4787406
204	0xbe5e7d3b	-0.21727459
205	0x3c643649	0.013928958
206	0x3cbb91da	0.022896696
207	0x3d31e92f	0.04343527
208	0x3ebec6db	0.3726109
209	0xbda65a96	-0.08122747
210	0x3dccab40	0.09993601
211	0x3df03867	0.11729508
212	0x3f05940a	0.52179015
213	0x3e4464b2	0.19179037
214	0x3cddad1c	0.027060084
215	0x3dd77ae2	0.10521485
216	0xbe1ab36d	-0.15107508
217	0xbe6f3b71	-0.23362519
218	0x3d963d4a	0.07335909
219	0xbdfa3448	-0.12217003
220	0x3d19e876	0.037575208
221	0x3d4ffc13	0.050777506
222	0x3ea42353	0.320582
223	0xbd910ea3	-0.0708287
224	0xbe2751fd	-0.1633987
225	0x3e7aaaa4	0.24479157
226	0xbe5f2b6c	-0.21793908
227	0xbca203f2	-0.019777272
228	0x3cd8a7f6	0.026447278
229	0xbe25e38e	-0.16200086
230	0x3e8a26d1	0.2698274
231	0x3d9e7872	0.07737817
232	0x3ebb07ce	0.36529392
233	0xbd9d0675	-0.07667247
234	0x3f163861	0.5867978
235	0x3cafa92c	0.021442972
236	0x3d20d741	0.039267782
237	0x3e71c78b	0.23611276
238	0x3e001a6b	0.12510078
239	0x3edba18c	0.42896688
240	0xbe46d6d5	-0.1941789
241	0x3d825afb	0.063650094
242	0x3de056b5	0.10954038
243	0x3d175b47	0.036952283
244	0x3e14c84e	0.14529535
245	0x3cf7186b	0.03016301
246	0xbe5fe5d6	-0.21865019
247	0xbcb1de59	-0.021712469
248	0xbdab5601	-0.08366013
249	0xbe018af6	-0.12650666
250	0x3db7bc19	0.08971424
251	0xbd9caff1	-0.07650746
252	0x3e321aaa	0.17392984
253	0xbd616a79	-0.05503318
254	0x3e0ae9e6	0.13565788
255	0xbda22225	-0.07916669

advantage_stream.0.bias f4 [80]
0	0xbcb5e7b2	-0.022205207
1	0xbe1253ce	-0.14289781
2	0xbb5e61f0	-0.0033932887
3	0x3db5771b	0.08860608
4	0xbb9183ee	-0.004440776
5	0xbe404a65	-0.1877838
6	0xbe1e128d	-0.15436764
7	0xbdd37bf2	-0.10326375
8	0x3da9321f	0.08261513
9	0x3cd07ccd	0.025450135
10	0xbda27ba5	-0.079337396
11	0x3e30c0f3	0.17261104
12	0xbe0b4a5a	-0.13602582
13	0xbdf71931	-0.12065352
14	0xbc9e2f41	-0.019309642
15	0x3bea3fda	0.007148725
16	0xbdb77fc8	-0.08959919
17	0xbe0cfcd3	-0.1376832
18	0x3d0efbf1	0.03490824
19	0x3cb01441	0.021494033
20	0xbe1663d4	-0.14686519
21	0x3c24de12	0.010062711
22	0xbc14c409	-0.009079942
23	0xbd8a7414	-0.067604214
24	0xbcad9fe1	-0.0211944
25	0xbd7a04cd	-0.061039735
26	0x3e173c02	0.14768985
27	0xbcc26fd9	-0.023734974
28	0x3cff8cb2	0.031195018
29	0x3dff1d4f	0.12456762
30	0xbd92e22e	-0.071720466
31	0x3d9cacbc	0.07650134
32	0x3ce82e3d	0.02834236
33	0xbbdf261a	-0.006809962
34	0x3dabe0be	0.083924755
35	0xbc4226a3	-0.011850032
36	0xbe65066a	-0.22365728
37	0x3d835ed9	0.06414575
38	0xbd64d7e2	-0.055869944
39	0x3d9314db	0.07181712
40	0xbd5a1ff9	-0.053253148
41	0xbd8942c1	-0.067021854
42	0xbe757438	-0.23970115
43	0xbca2be8c	-0.01986625
44	0x3d53b7c5	0.05168893
45	0x3dc5346e	0.09629141
46	0xbdb3dc6b	-0.08782276
47	0x3e2faa0e	0.17154714
48	0x3ca26b98	0.019826695
49	0xbd596e33	-0.05308361
50	0xbe532b9c	-0.20622104
51	0x3d54989f	0.051903363
52	0xbd892951	-0.066973336
53	0xbd658231	-0.056032363
54	0xbe2359ca	-0.1595222
55	0xbc934ccc	-0.017980956
56	0xbe57cf92	-0.21075276
57	0xbd0117a0	-0.03151667
58	0xbe0956bb	-0.13411991
59	0xbdbd16ab	-0.09232839
60	0x3c7f7337	0.015591434
61	0xbe182048	-0.14856064
62	0x3dfe0e25	0.124050416
63	0xbbf21aba	-0.00738844
64	0x3dbdb935	0.09263841
65	0xbdaec975	-0.08534519
66	0x3d86898d	0.065692045
67	0xbdbaa068	-0.09112626
68	0x3d9c7cef	0.07641017
69	0xbda75e8a	-0.08172329
70	0xbcf92a64	-0.030415721
71	0x3e2b7463	0.16743617
72	0xbdd1ebfd	-0.10250089
73	0xbd77f07e	-0.060532086
74	0x3c1d2320	0.009590894
75	0xbe051242	-0.12995246
76	0xbc66344b	-0.014050554
77	0x3daef55d	0.08542893
78	0x3e1b6058	0.15173471
79	0xbcfe1f27	-0.031020714

advantage_stream.2.weight f4 [4, 80]
0	0xbe1bdb9d	-0.15220495
1	0xbe727012	-0.23675564
2	0xbe0c2f3f	-0.13689898
3	0xbd4ca074	-0.049957708
4	0xbf165cd0	-0.5873537
5	0xbe93d362	-0.2887221
6	0x3dc7bdcc	0.09752998
7	0x3e1b3a9c	0.15159076
8	0x3d88a447	0.066719584
9	0x3ea12fc0	0.31481743
10	0xbe3a87c2	-0.1821585
11	0xbbec68fd	-0.007214664
12	0x3eb73821	0.3578501
13	0xbebd84f5	-0.370155
14	0x3d8c271c	0.06843397
15	0xbdc53a45	-0.09630255
16	0xbdbbdedd	-0.09173367
17	0xbbff522e	-0.007791779
18	0x3debbda2	0.11510779
19	0x3e06fcfe	0.13182446
20	0xbde4a8cb	-0.11165007
21	0xbc8671c8	-0.016411677
22	0xbe7b1905	-0.24521263
23	0x39607d8e	0.00021409077
24	0xbecb0d55	-0.3965861
25	0x3e5f4809	0.21804823
26	0x3debdb1e	0.11516403
27	0xbe25a943	-0.1617785
28	0x3dd133ab	0.10214933
29	0x3d5834ed	0.05278485
30	0xbe4ee3ba	-0.20204058
31	0xbe96a8c3	-0.2942563
32	0xbedcd2aa	-0.43129474
33	0xbea0d26a	-0.31410533
34	0xbe5e05b5	-0.21681865
35	0xbde5d44c	-0.11222133
36	0x3e5a8ecc	0.21343535
37	0x3e1d0b75	0.15336402
38	0xbe8f7984	-0.28022397
39	0x3d56f653	0.052481007
40	0xbe60d931	-0.21957852
41	0x3e3dc4e4	0.18532139
42	0xbe6688c5	-0.22513111
43	0x3d95b530	0.073099494
44	0x3e8d9033	0.27649078
45	0x3d7edb9b	0.06222115
46	0x3b05e234	0.0020429017
47	0xbd339871	-0.04384655
48	0x3e78d7ff	0.24301146
49	0x3e7db1d1	0.24774863
50	0xbeae13e8	-0.33999562
51	0x3e760212	0.24024227
52	0x3db93617	0.0904352
53	0x3c333236	0.010937264
54	0xbd3ca3c7	-0.046054628
55	0x3e5f1f67	0.21789323
56	0xbe5e1256	-0.21686682
57	0x3e14b5e2	0.14522508
58	0xbd0afc17	-0.033931818
59	0x3cb6235e	0.022233661
60	0x3e09eb97	0.13468777
61	0xbdaa89a3	-0.08327033
62	0xbdd02d79	-0.10164923
63	0xbdaae525	-0.08344487
64	0x3ddc0725	0.1074355
65	0xbf0d23b9	-0.55132633
66	0xbb9e1007	-0.004823688
67	0xbe6fb05b	-0.23407118
68	0xbb97a9f4	-0.0046284143
69	0xbe04b0dc	-0.12958091
70	0xbebebea4	-0.37254822
71	0xbeb896f4	-0.36052668
72	0x3d9f15ae	0.07767807
73	0x3ef9b732	0.4877258
74	0x3da2f112	0.07956137
75	0xbb601013	-0.0034189268
76	0xbd5824e1	-0.052769545
77	0xbcb34dec	-0.021887742
78	0xbdb9f29b	-0.090794764
79	0xbdfc0cbd	-0.12307117
80	0xbcf0a69f	-0.029376326
81	0xbea1f9ae	-0.31635803
82	0x3e799869	0.24374546
83	0xbc85adde	-0.016318258
84	0xbe592c41	-0.21208288
85	0xbe8bf90f	-0.27338454
86	0x3f04d6fa	0.5189053
87	0x3d700cca	0.058605947
88	0x3db4e4e0	0.08832717
89	0xbebf983a	-0.37420827
90	0xbdd6a45b	-0.10480567
91	0xbdbe356c	-0.09287533
92	0x3ed7ec3d	0.42172423
93	0x3e19e9ce	0.15030596
94	0xbde4b6d6	-0.11167686
95	0x3e55faae	0.20896408
96	0xbde1729a	-0.11008187
97	0xbd23d0f7	-0.039994206
98	0xbe0aefe4	-0.13568074
99	0x3c8e807f	0.017395256
100	0xbe2c7ff3	-0.16845684
101	0x3c8dd487	0.017313255
102	0x3e9f9055	0.31164804
103	0xbed15908	-0.40888238
104	0x3ea72130	0.32642508
105	0xbe5a090b	-0.21292512
106	0x3dbc2486	0.09186654
107	0x3dcfee34	0.101528555
108	0x3e3db4f1	0.18526055
109	0x3e37ee6f	0.17962049
110	0x3ed18b78	0.4092672
111	0xbc04f5a5	-0.008115207
112	0x3dec9570	0.115519404
113	0x3ed62832	0.41827542
114	0x3e316aa1	0.17325832
115	0x3c422933	0.011850643
116	0xbd28ac49	-0.04117993
117	0x3dde24aa	0.10846837
118	0x3e923d6f	0.28562495
119	0xbd2e2f96	-0.04252585
120	0x3e3960ad	0.18103285
121	0x3e131658	0.14363992
122	0xbdf9f334	-0.122045904
123	0x3e7849ef	0.24246953
124	0x3e85e0ef	0.26148173
125	0x3d98df96	0.07464521
126	0xbd08289d	-0.033241857
127	0xbd3254ee	-0.043538027
128	0x3d3ca75d	0.046058048
129	0x3da530d5	0.080659546
130	0xbe4ee5c2	-0.20204833
131	0x3e76b3f6	0.24092087
132	0x3dcbb4de	0.09946607
133	0xbdaf3f60	-0.0855701
134	0x3e01c052	0.1267102
135	0x3e111734	0.14169008
136	0x3d0e4f53	0.03474362
137	0x3e438d62	0.19096902
138	0xbd6aa841	-0.057289366
139	0x3b877883	0.004134239
140	0x3cdaf985	0.026730308
141	0xbdfdd020	-0.12393212
142	0xbd39a7d1	-0.045326058
143	0xbc981cec	-0.018568479
144	0x3dde81c2	0.10864593
145	0x3e7602e2	0.24024537
146	0xbde3339c	-0.11093828
147	0xbdcee9c4	-0.10103181
148	0xbea9dbb7	-0.33175442
149	0x3cdb22a7	0.026749922
150	0xbc96d19d	-0.018410498
151	0x3da6d637	0.08146327
152	0x3e43bc7d	0.19114871
153	0x3e71398f	0.23557113
154	0x3e1126e3	0.1417499
155	0xbdd767a7	-0.10517817
156	0x3e44b605	0.1921006
157	0x3da15953	0.07878365
158	0xbd352803	-0.04422761
159	0xbdbdf60a	-0.09275444
160	0xbe522da1	-0.20525219
161	0x3e9c11f0	0.30482435
162	0x3e6e80e6	0.23291358
163	0x3d0520fc	0.03250216
164	0x3de30a94	0.11086002
165	0xbe313d17	-0.1730846
166	0xbdd4438e	-0.103644475
167	0xbed4214f	-0.41431662
168	0x3e0e63e8	0.13905299
169	0x3e355aeb	0.17710464
170	0x3dd7dbfc	0.105400056
171	0x3d8fd165	0.07022361
172	0x3ec1120c	0.3770908
173	0xbf16c6fc	-0.58897376
174	0xbe1d2037	-0.1534432
175	0xbdd0e29b	-0.101994716
176	0xbe6ffaa1	-0.23435451
177	0xbd20ad38	-0.039227694
178	0xbe4d817c	-0.20068926
179	0xbe07f165	-0.13275678
180	0xbe68ac87	-0.22722064
181	0xbe8305c8	-0.25590348
182	0x3e2451e7	0.16046868
183	0x3e5ede80	0.21764565
184	0x3d3fdc4f	0.046840962
185	0x3eb80220	0.3593912
186	0xbdbc23cb	-0.091865145
187	0x3d92ef64	0.071745664
188	0xbcd51f6b	-0.026015958
189	0xbe8bdd8b	-0.2731746
190	0x3a9b778c	0.0011861189
191	0xbe8e3ead	-0.27782193
192	0x3e4a1091	0.19732882
193	0x3dab54c9	0.08365781
194	0x3e6d9b73	0.2320383
195	0xbeb18487	-0.34671423
196	0xbe283fde	-0.16430613
197	0xbebdc141	-0.37061504
198	0x3e98252c	0.2971586
199	0xbd85ecdb	-0.06539317
200	0x3ea70ffe	0.3262939
201	0x3e19f384	0.150343
202	0x3d9dc08f	0.07702743
203	0xbd7f9ef2	-0.06240744
204	0xbde6e864	-0.11274794
205	0xbe25def9	-0.16198339
206	0xbd94fc88	-0.07274729
207	0x3df59adf	0.1199243
208	0x3caa3e1b	0.020781567
209	0xbe83b355	-0.25722757
210	0xbe7290bb	-0.23688023
211	0x3d96719b	0.07345887
212	0x3e40e7b8	0.18838394
213	0xbde6da12	-0.11272062
214	0x3ec6e206	0.38844317
215	0x3daa9045	0.083282985
216	0xbe67c038	-0.2263192
217	0x3c467364	0.012112472
218	0x3d81d609	0.06339652
219	0xbd6b4843	-0.05744196
220	0x3e93a4ef	0.28836772
221	0xbec5f58b	-0.38663897
222	0xbc9a7d04	-0.01885844
223	0x3cf7c7b6	0.030246597
224	0xbe548205	-0.20752724
225	0x3e21ba55	0.15793736
226	0x3e9318cc	0.28729856
227	0xbe881926	-0.26581687
228	0x3a78b339	0.00094871555
229	0x3c3f25a5	0.01166669
230	0xbc4cb9c8	-0.012495466
231	0x3e4d44f1	0.2004583
232	0x3b46f006	0.0030355467
233	0xbc12f382	-0.00896919
234	0x3ed1e1bb	0.4099253
235	0x3d05d4de	0.03267371
236	0x3dd9ef93	0.10641398
237	0x3e1d186f	0.15341352
238	0x3e4f0fbc	0.20220846
239	0x3ed7acdd	0.42124072
240	0xbd13a403	-0.036045086
241	0x3daffe8b	0.08593472
242	0xbd4670e7	-0.048447516
243	0x3e490e3e	0.19634339
244	0x3e1da82e	0.15396187
245	0xbe49b335	-0.19697268
246	0xbec207b3	-0.378965
247	0xbe9e30e3	-0.30896673
248	0x3de92e75	0.11385814
249	0x3d30827f	0.0430932
250	0xbe8c96a8	-0.27458692
251	0x3e10fe5f	0.14159535
252	0x3d9bbfe4	0.076049596
253	0xbd6a50cb	-0.057205956
254	0xbeaaa97f	-0.3333244
255	0x3e8551d9	0.26039007

advantage_stream.2.bias f4 [4]
0	0x3e1faf19	0.15594138
1	0x3c45b98a	0.012068162
2	0x3c33f92e	0.010984702
3	0x3cb7d45e	0.022440132
