Dueling Neural Network/duel_checkpoint_1.pth (torch_old, 93648 bytes, 11 tensors)

feauture_layer.0.weight f4 [80, 37]
-0.08908248 0.20582058 -0.29952174 -0.022629377 0.069588654 0.0741782 -0.021651167 0.080576085
-0.02126794 -0.09833312 -0.1347558 0.11252574 -0.19415158 -0.25072584 -0.228113 0.116943926
-0.033679906 0.028673448 -0.14000447 -0.14739767 -0.0013279305 0.015937416 -0.123940326 0.26225898
-0.037300285 -0.18137419 0.050131034 0.13072757 -0.14090355 0.24354833 -0.15214556 0.17701603
-0.08706772 0.026109606 -0.07542274 -0.014265742 -0.03962006 0.14532985 0.19516975 -0.036551423
0.019715212 -0.22476876 -0.045126386 -0.13981293 -0.09554469 0.015351548 0.6313744 -0.0060808174
-0.12059359 0.086091004 0.1439597 0.20956966 0.13457908 -0.026711956 0.03856406 -0.20496196
-0.38521302 -0.10900357 -0.14723697 -0.055796687 -0.036492966 0.086750984 -0.083048016 -0.07250117
0.10353579 0.087042525 0.27161777 -0.03687929 0.1023143 0.22963795 -0.06216117 -0.039175477
0.039754 0.00343454 0.29530367 -0.033912823 0.09173391 -0.28280258 -0.345466 -0.36910468
-0.22889052 0.31251308 0.07865397 -0.14272907 0.13155107 -0.22617014 0.050572228 0.050975367
0.00048477456 -0.04172394 -0.057902254 0.058754403 0.16274795 -0.089271784 -0.30052853 -0.050668657
0.089425385 0.067667924 -0.057343584 -0.1640499 0.2562844 0.1008361 -0.13671023 -0.0019066223
-0.33827853 -0.008378564 0.011474713 -0.10138121 0.13687824 0.080860496 -0.01590193 0.058624018
-0.05744219 0.29428834 0.2606064 0.026054358 -0.074093565 0.10650953 0.08754605 0.25237766
0.484136 -0.014216886 0.07410475 0.17734508 -0.049644783 -0.14686476 0.06907431 0.0608372
-0.11427532 -0.23992458 -0.38527662 -0.005151325 -0.036280967 0.10214738 0.040788073 0.05837201
0.13542816 0.115731396 0.08284622 -0.0067969677 -0.289634 0.24200855 0.20673588 -0.07656169
-0.17036936 -0.40250307 0.11792715 0.012733334 -0.11210914 -0.07613306 -0.11078614 -0.17050672
-0.026374634 0.15756975 0.08869252 -0.1620368 0.013006243 -0.3348643 -0.017006412 -0.00019000076
0.025960885 -0.17226107 -0.1279807 -0.03704032 -0.0055387774 -0.0604736 -0.10588116 -0.03251926
-0.10124044 -0.048075613 0.32899153 -0.33018428 0.33683863 0.006255896 -0.078767024 0.07734955
-0.073992625 -0.492879 0.05944401 0.089113265 0.13993894 -0.22171766 -0.03678808 0.14991477
0.0005908899 0.07754214 -0.1530881 -0.07027946 -0.062249344 0.035666723 0.2851543 0.04257669
-0.33131006 -0.17263086 -0.7344347 -0.17649597 0.07144022 -0.062725574 -0.10287781 0.09404671
-0.123362236 0.038009617 -0.046352733 -0.072090365 0.17623147 -0.04194078 0.015173313 0.07048202
0.13204338 0.10803264 0.015465941 -0.07317644 0.0133234905 -0.042748444 0.340806 -0.108707234
0.009332109 -0.024236262 -0.11736997 -0.13416536 0.033627454 0.05395383 0.30469462 -0.1412334
-0.46603087 -0.29222938 -0.7626834 -0.013547112 -0.021047426 -0.22951873 -0.03182696 0.10365629
0.12266797 -0.027164506 0.12718128 -0.14338428 0.05227108 -0.007041643 -0.20268445 -0.055179324
-0.047196593 0.03902809 0.026983498 -0.11450432 0.15930708 -0.40105787 0.3250515 -0.14442827
-0.116078824 0.02124285 -0.08627043 0.17692487 0.009977562 -0.020242715 -0.095134154 -0.015241608
00000000: e070 b6bd a1c2 523e ea5a 99be 3e61 b9bc
00000010: 7f84 8e3d bdea 973d ca5d b1bc 1305 a53d
00000020: 1a3a aebc e062 c9bd 6dfd 09be e573 e63d
00000030: accf 46be 235f 80be 7496 69be 4c80 ef3d
00000040: f1f3 09bd 94e4 ea3c 555d 0fbe 6aef 16be
00000050: f40d aeba 2f8f 823c 6dd4 fdbd cf46 863e
00000060: 2fc8 18bd 28ba 39be 3356 4d3d 73dd 053e
00000070: 0549 10be bc64 793e 0ccc 1bbe b143 353e
00000080: 9050 b2bd d0e3 d53c 3d77 9abd dcba 69bc
00000090: a548 22bd 59d1 143e 94da 473e f2b6 15bd
000000a0: cc81 a13c c829 66be 72d6 38bd 1f2b 0fbe
000000b0: efac c3bd 0f85 7b3c c1a1 213f 9841 c7bb
000000c0: c6f9 f6bd 7b50 b03d 2c6a 133e 6e99 563e
000000d0: 19cf 093e 08d3 dabc 59f5 1d3d 8ce1 51be
000000e0: a43a c5be 443d dfbd 4ac5 16be 118b 64bd
000000f0: a679 15bd 80aa b13d 1415 aabd 7e7b 94bd
00000100: 930a d43d 5a43 b23d 7c11 8b3e bd0e 17bd
00000110: 298a d13d 3626 6b3e b69c 7ebd 7776 20bd
00000120: 17d5 223d 0516 613b 0b32 973e 2ce8 0abd
00000130: fdde bb3d 80cb 90be ebe0 b0be 4afb bcbe
00000140: 4762 6abe b701 a03e 5515 a13d 9227 12be
00000150: 53b5 063e 2599 67be d324 4f3d 8ccb 503d
00000160: 5729 fe39 b9e6 2abd ea2a 6dbd 75a8 703d
00000170: 66a7 263e 20d4 b6bd e0de 99be f089 4fbd
00000180: a824 b73d 7b95 8a3d 1be1 6abd b2fc 27be
00000190: b537 833e 2883 ce3d c4fd 0bbe a1e7 f9ba
000001a0: d832 adbe 3f46 09bc 6f00 3c3c f4a0 cfbd
000001b0: cf29 0c3e 309a a53d c444 82bc bd1f 703d
000001c0: 8048 6bbd f6ac 963e 346e 853e f36f d53c
000001d0: 5ebe 97bd ab21 da3d 584b b33d a537 813e
000001e0: ace0 f73e f1ed 68bc 3bc4 973d f399 353e
000001f0: 5458 4bbd b763 16be d576 8d3d 6e30 793d
00000200: 2e09 eabd caae 75be fa42 c5be 72cc a8bb
00000210: 5a9b 14bd a532 d13d 6511 273d 7d17 6f3d
00000220: aead 0a3e 9504 ed3d 47ab a93d 19b9 debb
00000230: e84a 94be 17d1 773e 92b2 533e 60cc 9cbd
00000240: 4e75 2ebe e214 cebe ca83 f13d 799f 503c
00000250: 7a99 e5bd a6eb 9bbd d8e3 e2bd 5099 2ebe
00000260: 9e0f d8bc f759 213e 6da4 b53d faec 25be
00000270: 2318 553c 5573 abbe 0851 8bbc f13a 47b9
00000280: ecab d43c 3565 30be 5f0d 03be 97b7 17bd
00000290: a27e b5bb 2ab3 77bd 39d8 d8bd ea32 05bd
000002a0: 2657 cfbd efea 44bd 9471 a83e ea0d a9be
000002b0: 1d76 ac3e 42fe cc3b 9b50 a1bd 7169 9e3d
000002c0: 7289 97bd a35a fcbe 907b 733d 0481 b63d
000002d0: 274c 0f3e f409 63be 19af 16bd 4283 193e
000002e0: f3e5 1a3a 6ace 9e3d 20c3 1cbe adee 8fbd
000002f0: 2bf9 7ebd 4517 123d bfff 913e e564 2e3d
00000300: 79a1 a9be 25c6 30be ea03 3cbf 5cbb 34be
00000310: 404f 923d 4476 80bd 9ab1 d2bd 909b c03d
00000320: 57a5 fcbd f9af 1b3d 5ddc 3dbd 1da4 93bd
00000330: 0676 343e 18ca 2bbd 7d99 783c e158 903d
00000340: 6136 073e 3740 dd3d dc64 7d3c 88dd 95bd
00000350: c54a 5a3c fe18 2fbd 207e ae3e e6a1 debd
00000360: b4e5 183c 208b c6bc ab5f f0bd a562 09be
00000370: f1bc 093d b1fe 5c3d ef00 9c3e 7d9f 10be
00000380: 999b eebe 179f 95be 383f 43bf b5f4 5dbc
00000390: a76b acbc f506 6bbe fd5c 02bd c049 d43d
000003a0: 5839 fb3d 1988 debc cf3b 023e 54d3 12be
000003b0: 331a 563d 95bd e6bb 838c 4fbe b703 62bd
000003c0: 3751 41bd ebdb 1f3d 7f0c dd3c 3e81 eabd
000003d0: 6521 233e 7557 cdbe 266d a63e 01e5 13be
000003e0: bcba edbd 7c05 ae3c 8dae b0bd cb2b 353e
000003f0: ee78 233c 0dd4 a5bc b2d5 c2bd f0b7 79bc

feauture_layer.0.bias f4 [80]
0.1080635 -0.11400876 0.019579975 -0.095759995 0.10352883 0.045470208 0.09572379 0.0136247715
0.06882933 0.052122135 0.07043976 0.09126843 -0.20811848 -0.0017023215 -0.048237562 -0.13656355
0.09897759 0.03111173 0.03664318 0.032960042 0.12919155 0.10513992 0.014870631 -0.16268922
-0.13804512 0.13273127 -0.05900617 0.016114712 0.052394442 0.18080641 0.19508134 -0.0015412883
0.13689901 -0.07529121 0.047236472 -0.11680787 0.025999347 -0.06120859 0.04196648 -0.12986748
-0.06302014 0.0068552345 -0.008327121 0.12531018 0.16654523 -0.14667052 -0.029696131 -0.0062624025
0.13430697 -0.022358524 0.15475538 0.0059248623 -0.06441966 0.22197351 -0.1102803 0.08188845
0.16049533 -0.07294585 0.11261903 0.09231286 0.14685221 0.14592056 0.081899814 -0.05175409
0.032302108 0.006169831 0.13528727 -0.06869205 0.08795866 -0.027859287 0.06862227 -0.0011199625
0.08650946 -0.042670734 -0.07642357 0.077770375 -0.05370526 -0.14401232 0.0685628 -0.1165489
00000000: 6550 dd3d 6d7d e9bd 2f66 a03c d11d c4bd
00000010: ec06 d43d f83e 3a3d d60a c43d 6f3a 5f3c
00000020: 64f6 8c3d 057e 553d b942 903d f1ea ba3d
00000030: 031d 55be 6e20 dfba c094 45bd 51d7 0bbe
00000040: c3b4 ca3d 07de fe3c 2917 163d 1c01 073d
00000050: ca4a 043e 9953 d73d f2a3 733c 0198 26be
00000060: b35b 0dbe b5ea 073e 74b0 71bd 0003 843c
00000070: 8e9b 563d 5125 393e 67c3 473e 0e05 caba
00000080: 412f 0c3e 4732 9abd 087b 413d f738 efbd
00000090: 95fc d43c dcb5 7abd 0be5 2b3d fbfb 04be
000000a0: b410 81bd e0a1 e03b 7a6e 08bc 5051 003e
000000b0: d58a 2a3e cc30 16be 4d45 f3bc d734 cdbb
000000c0: c487 093e 3929 b7bc 3278 1e3e 5925 c23b
000000d0: 74ee 83bd 064d 633e a3da e1bd 22b5 a73d
000000e0: e358 243e a264 95bd cea4 e63d 860e bd3d
000000f0: 6d60 163e 336c 153e 17bb a73d 19fc 53bd
00000100: 374f 043d 4b2c ca3b bf88 0a3e 6bae 8cbd
00000110: ac23 b43d 2939 e4bc d589 8c3d b5cb 92ba
00000120: df2b b13d 82c7 2ebd f683 9cbd 1346 9f3d
00000130: 0cfa 5bbd f777 13be a76a 8c3d 31b1 eebd

feauture_layer.2.weight f4 [80, 80]
0.034922943 0.04326534 0.08269999 -0.3199006 -0.08609653 -0.20496519 0.17120242 0.011979424
-0.08311444 0.0039774543 -0.10647675 -0.042808015 0.008245953 0.16134764 -0.17122944 0.10329911
0.106898196 -0.023075169 -0.008002415 0.051940322 0.0069801975 0.0152208265 -0.24245717 0.12155612
-0.484664 0.0463322 0.20606029 -0.12515429 -0.07618429 -0.17775269 0.12359317 0.09629597
0.2109387 0.056917787 0.0035831193 -0.056446135 0.012901726 -0.16585577 0.017372904 -0.20907189
-0.012612241 0.16757861 -0.17912948 0.24262784 -0.06797807 0.009010264 0.0064228885 -0.26701835
0.060336873 -0.019222626 0.08025002 0.05661514 0.06964973 -0.31039375 -0.010103636 -0.01516209
-0.25915882 0.0336214 -0.12065076 0.019782363 -0.11034873 -0.009468267 0.18663868 0.18853818
-0.026684018 -0.117883705 -0.041498486 -0.042412445 0.042349223 0.035137635 -0.115057655 -0.018098472
0.1455321 0.032325633 -0.015690833 -0.22261561 -0.23008749 0.08458711 0.053797863 -0.051197905
0.18712185 -0.2135371 -0.01814978 -0.15487573 -0.19401255 0.13317521 0.012039304 -0.10708259
0.09852288 -0.14223744 -0.083673514 -0.19427797 -0.00020534548 0.08890684 -0.019015212 0.108421735
0.13541596 0.04144782 -0.11966211 -0.05982174 0.07872425 0.0741772 0.15055019 0.042925805
-0.15468617 -0.08803575 -0.13299853 0.043887082 -0.10984968 -0.44746622 -0.1004398 0.007630132
-0.09977279 -0.15281272 -0.17120807 -0.28944063 0.17538601 -0.097651936 -0.32745853 -0.08459685
-0.048850123 -0.0427734 -0.027224729 0.044542048 -0.008153753 0.0751594 0.10830241 0.039544594
-0.078063376 -0.0036276197 0.084374696 0.15476172 -0.11561804 0.13072431 0.08007165 -0.04947162
-0.083096154 -0.06808573 -0.2551755 -0.08693905 0.008416527 0.07662392 -0.1759394 0.2033477
-0.11926294 0.21400614 -0.14973715 -0.15998407 -0.098874204 -0.20413223 -0.022972105 -0.49509493
0.1990795 -0.22580773 -0.08145209 -0.046665095 -0.29959518 -0.032458145 -0.06295347 -0.060677424
-0.108333714 -0.043660674 -0.04513223 -0.042137004 -0.075651996 -0.012967256 0.13220927 0.0004422147
0.00070623454 0.16402778 0.09380333 0.16031897 -0.072760426 -0.15195838 -0.34538117 -0.50456333
-0.03425235 0.109887026 0.06368133 0.011956068 -0.087335035 0.10370127 -0.06617085 0.14951858
-0.1325751 -0.13810907 0.036039025 -0.0071034594 0.12575054 0.038764764 0.07973554 -0.13598898
-0.08193237 -0.04215161 -0.032241043 0.13498457 -0.008671617 0.0367242 0.163662 0.011473907
-0.057765562 -0.14575583 -0.030245267 0.16258028 0.06988005 -0.27932873 -0.27619627 -0.24812773
0.029173803 -0.0032210196 0.046422217 0.008164011 -0.14964156 0.06348369 0.069759324 0.08696069
-0.09905874 -0.14069778 -0.03008776 0.08000091 -0.09545578 0.08922039 -0.022491414 -0.31829867
0.015378698 -0.12373479 -0.10705244 -0.008776967 -0.3063286 0.2045813 -0.072653085 0.13115835
-0.15863648 -0.2590697 0.14713891 -0.05735426 -0.101292916 -0.11904341 -0.16710223 -0.017098106
0.04735356 0.050346464 -0.054746445 0.1776205 -0.15067054 -0.11721619 0.061247785 0.058678687
0.06989172 0.06612446 0.011936705 0.13934232 -0.024210062 0.10322922 0.04277713 -0.10088934
00000000: 5c0b 0f3d ff36 313d 9d5e a93d 03ca a3be
00000010: 6153 b0bd 65e2 51be b04f 2f3e 5945 443c
00000020: e737 aabd 4e55 823b 7b10 dabd 7557 2fbd
00000030: 091a 073c 5138 253e c556 2fbe 7c8e d33d
00000040: 71ed da3d 2308 bdbc 901c 03bc 60bf 543d
00000050: 24ba e43b c660 793c b146 78be 6af2 f83d
00000060: e125 f8be d5c6 3d3d 7801 533e 7228 00be
00000070: 8206 9cbd cd04 36be 6a1e fd3d d236 c53d
00000080: 5100 583e a022 693d c4d2 6a3b 1034 67bd
00000090: c361 533c 18d6 29be 9f51 8e3c f116 56be
000000a0: 93a3 4ebc ba99 2b3e b86d 37be 6f73 783e
000000b0: 1638 8bbd c99f 133c 1877 d23b a1b6 88be
000000c0: cc23 773d c578 9dbc 1f5a a43d 47e5 673d
000000d0: 85a4 8e3d eeeb 9ebe b989 25bc 6a6a 78bc
000000e0: 77b0 84be 98b6 093d bf17 f7bd 9f0e a23c
000000f0: 84fe e1bd ca20 1bbc 361e 3f3e 2710 413e
00000100: 7198 dabc 036d f1bd 51fa 29bd acb8 2dbd
00000110: 6176 2d3d 7bec 0f3d 59a3 ebbd 3f43 94bc
00000120: 5e06 153e e267 043d 108a 80bc 59f5 63be
00000130: 0e9c 6bbe 023c ad3d 265b 5c3d e5b4 51bd
00000140: df9c 3f3e 78a9 5abe d9ae 94bc be97 1ebe
00000150: 3aab 46be 155f 083e 8040 453c 1e4e dbbd
00000160: 5dc6 c93d b1a6 11be 055d abbd cef0 46be
00000170: 0252 57b9 ca14 b63d cac5 9bbc 370c de3d
00000180: 7baa 0a3e 30c5 293d 6911 f5bd a407 75bd
00000190: 2e3a a13d 37ea 973d d429 1a3e f8d2 2f3d
000001a0: 0d66 1ebe 164c b4bd c430 08be f1c2 333d
000001b0: def8 e0bd 4b1a e5be 62b3 cdbd 3006 fa3b
000001c0: ad55 ccbd f07a 1cbe 2b51 2fbe 9031 94be
000001d0: 6498 333e bdfd c7bd a5a8 a7be 1d41 adbd
000001e0: 1117 48bd 2933 2fbd 6506 dfbc b971 363d
000001f0: 5297 05bc 2ced 993d a7cd dd3d 83f9 213d
00000200: b1df 9fbd 5cbd 6dbb a4cc ac3d db79 1e3e
00000210: 27c9 ecbd 98dc 053e 9bfc a33d c1a2 4abd
00000220: 512e aabd 8870 8bbd 5da6 82be 1a0d b2bd
00000230: 79e5 093c 00ed 9c3d 7529 34be 613a 503e
00000240: 2140 f4bd 6d24 5b3e b254 19be ddd2 23be
00000250: 8f7e cabd 0a08 51be ff2f bcbc 157d fdbe
00000260: 7fdb 4b3e 243a 67be 5ad0 a6bd e623 3fbd
00000270: 8a64 99be d5f2 04bd c0ed 80bd e488 78bd
00000280: 11de ddbd 89d5 32bd 93dc 38bd da97 2cbd
00000290: 6fef 9abd 9d74 54bc de61 073e 0dd9 e739
000002a0: 9922 393a e6f6 273e f61b c03d a82a 243e
000002b0: 6b03 95bd fa9a 1bbe cdd5 b0be 102b 01bf
000002c0: 314c 0cbd 730c e13d 5b6b 823d 62e3 433c
000002d0: b6dc b2bd 5561 d43d 9584 87bd 661b 193e
000002e0: c4c1 07be 776c 0dbe a89d 133d 23c4 e8bb
000002f0: c0c4 003e cdc7 1e3d 634c a33d b240 0bbe
00000300: 29cc a7bd 2ba7 2cbd 2f0f 04bd 6539 0a3e
00000310: 6613 0ebc 1d6c 163d 0397 273e 0efd 3b3c
00000320: 959b 6cbd 0441 15be ecc4 f7bc 727b 263e
00000330: 461d 8f3d 2d04 8fbe 9969 8dbe 3215 7ebe
00000340: e6fd ee3c be17 53bb 3925 3e3d 58c2 053c
00000350: a33b 19be bd03 823d fadd 8e3d 7218 b23d
00000360: 4fdf cabd 1413 10be 9b7a f6bc 84d7 a33d
00000370: 527e c3bd 2eb9 b63d ea3f b8bc 0bf8 a2be
00000380: eff6 7b3c aa68 fdbd 4f3e dbbd 45cd 0fbc
00000390: 1ad7 9cbe c37d 513e 24cb 94bd 604e 063e
000003a0: 9a71 22be c9a4 84be 95ab 163e 4dec 6abd
000003b0: a972 cfbd 08cd f3bd d91c 2bbe 5411 8cbc
000003c0: cef5 413d 1838 4e3d cf3d 60bd 26e2 353e
000003d0: 6149 1abe 0b0f f0bd f5de 7a3d 1059 703d
000003e0: 6423 8f3d 436c 873d 2b92 433c c1af 0e3e
000003f0: 2e54 c6bc d769 d33d 1237 2f3d 129f cebd

feauture_layer.2.bias f4 [80]
0.061419014 0.0031634606 -0.01717149 0.13600203 -0.1515626 -0.10185584 -0.0635342 -0.006934887
-0.061689034 0.003279191 -0.08907421 0.017687988 -0.13715771 0.0016023419 0.0463599 0.01026126
-0.0301031 -0.10721831 -0.013581088 -0.073115505 -0.106854536 -0.040297955 -0.08892999 0.07701006
-0.097861186 0.034843925 -0.010259994 0.10098337 -0.049858738 0.021402774 0.111710936 -0.09311236
-0.0059159724 0.13111292 -0.00681636 -0.013509045 0.009052549 0.13628946 -0.10323212 -0.038547855
-0.12906572 -0.13323219 0.042420067 0.16993272 0.006171017 -0.063269615 -0.1134111 -0.0305735
0.02267012 -0.0066763046 -0.053888053 -0.1240005 -0.03504938 -0.026442591 0.03441434 -0.09444919
-0.0062776553 -0.0093086995 0.048738196 0.09701711 0.028866801 0.051088985 0.037497457 -0.07804286
-0.041019656 0.017246084 0.03852062 0.12596914 0.12290154 -0.02602122 -0.123557605 0.07056568
-0.102560125 -0.04232795 0.005717619 0.03638137 -0.11058008 -0.039817695 -0.096986696 -0.08456743
00000000: 8192 7b3d 1052 4f3b 39ab 8cbc 1e44 0b3e
00000010: 3a33 1bbe cb99 d0bd 381e 82bd 0c3e e3bb
00000020: a4ad 7cbd b2e7 563b 8a6c b6bd 66e6 903c
00000030: 1273 0cbe ac05 d23a e1e3 3d3d d81e 283c
00000040: c79a f6bc 4695 dbbd 3683 5ebc 95bd 95bd
00000050: 8dd6 dabd 780f 25bd ed20 b6bd 73b7 9d3d
00000060: 726b c8bd 81b8 0e3d 8919 28bc 5ed0 ce3d
00000070: ad38 4cbd df54 af3c b4c8 e43d b1b1 bebd
00000080: c6da c1bb 7742 063e c65b dfbb 0b55 5dbc
00000090: 2451 143c 778f 0b3e 5d6b d3bd 5be4 1dbd
000000a0: ce29 04be 056e 08be aac0 2d3d d802 2e3e
000000b0: 3e36 ca3b 8093 81bd 1444 e8bd 4775 fabc
000000c0: b0b6 b93c e7c4 dabb b8b9 5cbd f9f3 fdbd
000000d0: f08f 0fbd 229e d8bc 0df6 0c3d 946e c1bd
000000e0: cab4 cdbb 8483 18bc b4a1 473d e8b0 c63d
000000f0: 127a ec3c af42 513d ef96 193d efd4 9fbd
00000100: 3a04 28bd a947 8d3c ccc7 1d3d 0efe 003e
00000110: cdb3 fb3d 742a d5bc c50b fdbd bd84 903d
00000120: 0b0b d2bd 1360 2dbd dd5a bb3b a204 153d
00000130: cf77 e2bd e117 23bd f6a0 c6bd b031 adbd

value_stream.0.weight f4 [80, 80]
0.013181681 0.040946946 -0.26114208 0.22864212 -0.11922001 -0.14334299 -0.04413127 0.16189265
0.07510126 -0.16131389 -0.015921049 -0.0059608268 -0.0410584 0.09580366 -0.0045235986 0.1948812
0.21965119 -0.07042297 -0.19824898 -0.07460009 -0.27224505 0.029709179 -0.31891638 -0.04211015
-0.09340373 0.26033732 -0.3243578 -0.04101492 0.19510804 0.027618807 0.015257704 0.26104528
-0.10827156 -0.12369645 0.13748965 0.14590065 -0.030858343 -0.19108163 -0.23216772 0.00054806296
-0.13520756 -0.16193663 0.31094626 0.045529906 -0.012556789 -0.10806071 -0.28981683 -0.03658916
0.034686506 -0.1973584 -0.2780842 0.120056555 0.049486924 -0.1594742 -0.13586253 -0.078083135
-0.10340107 -0.06045145 -0.10941232 -0.21522771 -0.14121194 0.035872836 0.23308535 0.025011495
0.09086246 -0.12304692 -0.020637281 -0.026072461 -0.1750795 0.06046472 -0.13431785 0.020871889
0.11465703 0.065573476 -0.022343518 0.0041703316 -0.21405935 0.030658117 0.18748818 0.07694988
0.10654816 0.035040304 -0.030037997 0.12966332 0.050950382 0.03389848 0.06218861 -0.1818571
-0.01063113 0.0111878095 0.07235816 -0.09062379 -0.0006993577 -0.017502699 0.11871722 -0.015761616
-0.00559845 0.0038295682 -0.054507703 0.12772918 -0.06937929 -0.031019572 0.007554528 0.0054103658
-0.10012612 -0.19495347 -0.02261121 0.06996428 0.019376516 -0.2138431 0.14134747 0.10027755
0.062859856 0.12684159 -0.00528716 0.04426425 0.08758147 -0.07697988 -0.014281889 -0.2641084
-0.03875383 -0.08224608 0.088622436 -0.0118561275 0.07615254 0.10311944 0.08697442 0.094639875
0.17872147 -0.0809817 0.12900436 -0.07456561 0.06353463 0.10788233 -0.036444344 -0.012694521
-0.01978107 0.12344994 0.10282253 0.105586 0.08371946 0.1379281 -0.20558342 -0.121724345
0.122530244 0.13518204 0.048286162 0.009655073 0.14812191 -0.012931445 -0.07088105 -0.23623858
0.12228608 0.0030461745 -0.10686752 0.07110942 0.04912314 0.20375943 0.1406885 0.07870926
0.120875746 0.0063570766 -0.059939947 0.005763444 0.07501672 -0.048217464 0.04083505 -0.23815358
-0.07360254 0.11303409 0.15440544 0.0100285355 -0.06087663 -0.036517087 0.057842012 0.08163805
-0.008670155 -0.051394932 -0.13450356 0.07930158 0.16359583 -0.20284484 0.110447675 0.06678792
0.033896953 -9.151321e-05 0.07622743 0.04696109 -0.003130742 -0.17202961 0.033601988 -0.05451609
0.05859621 0.10121754 -0.20905167 -0.017397277 -0.10130832 -0.011976978 0.018202953 -0.028284432
0.07202434 0.026157537 0.04358795 -0.025043156 0.004323498 0.1018631 0.04121286 0.11791248
0.057602372 0.09115095 0.10717278 0.05291556 -0.042181104 0.20565766 0.12839797 0.07086599
0.083843544 0.045227565 0.03854707 -0.066435754 2.7734333e-05 0.030582713 -0.007760182 -0.21533294
-0.054409005 0.19582878 -0.021348823 -0.08683279 0.028842695 0.036058083 0.04751924 -0.29342702
0.12179474 0.048470818 0.11191718 -0.06380074 -0.0036899056 0.24186276 0.010249176 0.072168276
0.047257673 -0.015260941 0.07081043 -0.04562865 -0.08462448 -0.010757603 0.05754049 0.04901777
-0.057275344 -0.013676345 -0.1003104 -0.07119742 -0.062886454 0.0106418505 -0.0443604 0.011495332
00000000: faf7 573c fcb7 273d 6ab4 85be 2921 6a3e
00000010: 9f29 f4bd 81c8 12be fec2 34bd 30c7 253e
00000020: b0ce 993d 782f 25be dc6c 82bc 0a53 c3bb
00000030: da2c 28bd b634 c43d b23a 94bb f08e 473e
00000040: 3eec 603e eb39 90bd c801 4bbe efc7 98bd
00000050: b463 8bbe aa60 f33c 0249 a3be b17b 2cbd
00000060: 744a bfbd ef4a 853e 3a12 a6be 43ff 27bd
00000070: 67ca 473e d640 e23c 73fb 793c baa7 853e
00000080: 7bbd ddbd 9054 fdbd 16ca 0c3e fb66 153e
00000090: a3ca fcbc e7aa 43be 60bd 6dbe e2ab 0f3a
000000a0: da73 0abe b7d2 25be 5934 9f3e 917d 3a3d
000000b0: feba 4dbc ef4e ddbd df62 94be 84de 15bd
000000c0: 7013 0e3d 5218 4abe 0d61 8ebe 36e0 f53d
000000d0: cdb2 4a3d 344d 23be 8c1f 0bbe 0dea 9fbd
000000e0: f1c3 d3bd f19b 77bd 9113 e0bd a764 5cbe
000000f0: dd99 10be 65ef 123d edad 6e3e e8e4 cc3c
00000100: 1916 ba3d 0600 fcbd 840f a9bc ea95 d5bc
00000110: 0a48 33be dba9 773d 9e8a 09be 86fb aa3c
00000120: 4ed1 ea3d 634b 863d c109 b7bc 47a7 883b
00000130: 6032 5bbe bb26 fb3c e7fc 3f3e e697 9d3d
00000140: ec35 da3d 6c86 0f3d 3f12 f6bc 76c6 043e
00000150: 59b1 503d 22d9 0a3d 7cb9 7e3d bf38 3abe
00000160: 312e 2ebc 134d 373c 8430 943d f798 b9bd
00000170: 1a55 37ba d261 8fbc 0422 f33d 811e 81bc
00000180: 3473 b7bb 7ef9 7a3b 7843 5fbd 70cb 023e
00000190: bb16 8ebd c21c febc f98b f73b 7049 b13b
000001a0: ec0e cdbd e2a1 47be 253b b9bc 6f49 8f3d
000001b0: 80bb 9e3c b0f9 5abe 64bd 103e 515e cd3d
000001c0: abbc 803d c3e2 013e ea3f adbb 6e4e 353d
000001d0: ea5d b33d a1a7 9dbd 96fe 69bc 3739 87be
000001e0: 56bc 1ebd a270 a8bd ae7f b53d 3440 42bc
000001f0: ddf5 9b3d 4930 d33d a51f b23d 8dd2 c13d
00000200: c302 373e bcd9 a5bd b819 043e dbb5 98bd
00000210: 721e 823d 69f1 dc3d aa46 15bd aefc 4fbc
00000220: e90b a2bc 52d3 fc3d 9e94 d23d 793d d83d
00000230: 1c75 ab3d 063d 0d3e 7684 52be 9d4a f9bd
00000240: 23f1 fa3d 296d 0a3e b6c7 453d 5030 1e3c
00000250: 45ad 173e 69de 53bc 152a 91bd 87e8 71be
00000260: 2071 fa3d 54a2 473b 5cdd dabd d1a1 913d
00000270: 5835 493d 50a6 503e a510 103e 5232 a13d
00000280: b48d f73d 064f d03b 9783 75bd 46db bc3b
00000290: 5ea2 993d ad7f 45bd a742 273d 88de 73be
000002a0: eebc 96bd 6b7e e73d 761c 1e3e ba4e 243c
000002b0: c659 79bd f192 15bd bfeb 6c3d da31 a73d
000002c0: 440d 0ebc 7e83 52bd 4dbb 09be de68 a23d
000002d0: aa85 273e 8fb6 4fbe 6432 e23d 1bc8 883d
000002e0: 88d7 0a3d c8ea bfb8 201d 9c3d 465a 403d
000002f0: 232d 4dbb 8828 30be 3da2 093d 434c 5fbd
00000300: 9402 703d 244b cf3d a411 56be bc84 8ebc
00000310: bd7a cfbd 163b 44bc 5c1e 953c c1b4 e7bc
00000320: 7f81 933d 5548 d63c 4789 323d 4e27 cdbc
00000330: 21ac 8d3b 9a9d d03d d1ce 283d 197c f13d
00000340: 77f0 6b3d 59ad ba3d 677d db3d fcbd 583d
00000350: 18c6 2cbd ec97 523e c27a 033e 3022 913d
00000360: 2ab6 ab3d 8a40 393d 88e3 1d3d 780f 88bd
00000370: 07a7 e837 9988 fa3c 2049 febb 3d80 5cbe
00000380: fadb 5ebd 5787 483e bae3 aebc 64d5 b1bd
00000390: 8447 ec3c a4b1 133d 89a3 423d 113c 96be
000003a0: 856f f93d 5689 463d d634 e53d f6a9 82bd
000003b0: 58d2 71bb dfaa 773e 29ec 273c f6cc 933d
000003c0: 4391 413d 0709 7abc 0f05 913d 1be5 3abd
000003d0: 994f adbd a840 30bc 94af 6b3d dbc6 483d
000003e0: 8d99 6abd c012 60bc 8a6f cdbd f4cf 91bd
000003f0: 9dca 80bd 285b 2e3c 40b3 35bd eb56 3c3c

value_stream.0.bias f4 [80]
-0.005305962 0.2636196 0.34964964 -0.10685683 0.104490355 0.34743893 -0.07337148 -0.101220146
-0.040115435 -0.027477158 -0.20742363 0.09272024 -0.24505657 -0.119269066 0.11228447 0.20513
0.37795603 -0.038226377 -0.12668847 0.15071443 -0.07492439 -0.010757103 0.034599382 -0.08854909
-0.1373035 -0.018442811 0.38154638 0.011651565 -0.21683083 0.19242847 0.23495758 0.36004812
0.043090705 -0.120010376 0.39960897 0.10883052 0.34973872 -0.06807713 0.0034033342 -0.061437752
0.38475347 0.36210173 0.07582756 0.11344508 0.32131732 0.2575751 0.26992744 -0.10440267
-0.22941269 0.11518181 -0.1248199 0.02855125 0.0003215447 -0.11465332 0.3621139 -0.20151368
-0.1250714 -0.076056585 0.052611772 -0.14781496 0.39845324 -0.054891236 -0.07189181 -0.117733434
-0.14171346 -0.17634282 0.07487038 -0.12560868 0.29384512 -0.13846628 -0.23359716 -0.21090513
0.39556852 0.29773265 -0.09665002 -0.134131 -0.15035945 0.10412954 0.0061237966 -0.12679611
00000000: a3dd adbb 26f9 863e 4705 b33e c1d7 dabd
00000010: 0aff d53d 84e3 b13e c943 96bd 824c cfbd
00000020: 1550 24bd c717 e1bc dc66 54be 1ce4 bd3d
00000030: 1cf0 7abe 5743 f4bd 66f5 e53d 990d 523e
00000040: 7483 c13e 4393 1cbd 9fba 01be e254 1a3e
00000050: f571 99bd 8f3e 30bc 15b8 0d3d 3a59 b5bd
00000060: 4a99 0cbe 6115 97bc 0c5a c33e 35e6 3e3c
00000070: e708 5ebe f80b 453e b898 703e 3a58 b83e
00000080: e17f 303d 00c8 f5bd 8c99 cc3e 89e2 de3d
00000090: f410 b33e 066c 8bbd 790a 5f3b 27a6 7bbd
000000a0: 68fe c43e 6665 b93e 7b4b 9b3d e555 e83d
000000b0: b483 a43e e2e0 833e ee33 8a3e 11d1 d5bd
000000c0: 29eb 6abe 71e4 eb3d 93a1 ffbd 50e4 e93c
000000d0: 0095 a839 5ccf eabd fe66 b93e 9a59 4ebe
000000e0: b812 00be 8ec3 9bbd 717f 573d ce5c 17be
000000f0: 1002 cc3e a2d5 60bd 033c 93bd 3a1e f1bd
00000100: 551d 11be 3693 34be a455 993d 909f 00be
00000110: de72 963e 1bca 0dbe 1834 6fbe 84f7 57be
00000120: f587 ca3e 6a70 983e 72f0 c5bd a359 09be
00000130: d4f7 19be de41 d53d 21aa c83b d7d6 01be

value_stream.2.weight f4 [1, 80]
-0.28938463 0.12650344 0.15320444 -0.0057807327 0.10166868 0.17682743 -0.2843132 -0.18125878
-0.114880584 0.5973457 0.2709221 0.16829804 -0.34941983 0.013519856 0.21980196 0.28545126
0.21464166 -0.27536586 -0.21184343 0.10722976 -0.0035721343 0.5334506 -0.29242775 -0.28006598
-0.03828138 0.17651904 0.21964815 -0.35726807 -0.16202193 0.26768273 0.11376788 0.22029234
0.14632402 -0.17340204 0.2234304 0.326425 0.21857972 -0.15539011 -0.3653873 -0.3145069
0.21904522 0.17980637 0.10035173 -0.24302554 0.22325663 0.14111704 0.18848641 -0.16573404
-0.134916 0.14085892 0.3874146 0.18762822 -0.5287572 0.063622594 0.15140429 -0.21978909
0.003756164 -0.17526793 0.46743983 0.13761 0.2277116 -0.26946592 -0.5377863 -0.13161619
-0.18026651 -0.19143574 0.23214906 -0.29506668 0.22662957 -0.29852495 -0.20167638 -0.21179843
0.21633562 0.15864414 -0.070017084 -0.11732944 -0.43879712 0.3591252 0.29946262 -0.2237062
00000000: 392a 94be 1e8a 013e a0e1 1c3e 4d6c bdbb
00000010: ab37 d03d 4012 353e 8091 91be e79b 39be
00000020: 8346 ebbd a6eb 183f 4db6 8a3e 5256 2c3e
00000030: 28e7 b2be 6382 5d3c c413 613e ab26 923e
00000040: 06cb 5b3e c1fc 8cbe 7ced 58be 479b db3d
00000050: 781a 6abb 3890 083f 17b9 95be cf64 8fbe
00000060: f0cc 1cbd 68c1 343e 72eb 603e d7eb b6be
00000070: 14e9 25be b60d 893e 22ff e83d 5194 613e
00000080: f7d5 153e 4e90 31be f0ca 643e 2d21 a73e
00000090: 5dd3 5f3e 961e 1fbe 0b14 bbbe 0c07 a1be
000000a0: 644d 603e 291f 383e 3585 cd3d b0db 78be
000000b0: 639d 643e fc80 103e 9502 413e 2fb6 29be
000000c0: 6b27 0abe 523d 103e 355b c63e 9d21 403e
000000d0: a25c 07bf 904c 823d ba09 1b3e 6410 61be
000000e0: fa29 763b 7079 33be 4654 ef3e a3e9 0c3e
000000f0: 3b2d 693e 70f7 89be 5dac 09bf 65c6 06be
00000100: c997 38be bb07 44be 7cb8 6d3e fb12 97be
00000110: 9511 683e 43d8 98be 4184 4ebe b0e1 58be
00000120: 1687 5d3e 9c73 223e 1e65 8fbd 6b4a f0bd
00000130: 04aa e0be 42df b73e 2a53 993e 3d13 65be

advantage_stream.0.weight f4 [80, 80]
0.049874347 0.017317593 -0.03209728 0.0017601809 0.13198943 -0.102836564 -0.22710623 0.0764925
-0.53807616 0.12820666 -0.16196275 0.14703591 -0.036628716 0.07388058 0.010423711 0.10329064
0.07147366 -0.002289426 -0.024748992 0.040021125 0.07170474 -0.36548236 0.09283173 -0.07663958
0.07046317 0.10932578 0.12482619 0.021617321 0.0963374 -0.2803625 -0.056578245 -0.28170484
-0.017247777 0.2156533 -0.12852608 -0.045690313 0.044858646 0.19444394 0.120529674 -0.2803519
-0.13885295 -0.110109776 0.6925958 -0.094084695 -0.05161292 0.12524885 -0.11197662 0.02488125
0.30495977 0.044330653 0.05164139 -0.05425901 -0.14302066 0.45361617 -0.005588165 0.040419348
0.14607492 -0.22860351 0.061751556 0.060026035 0.02839297 -0.08527605 -0.26578167 -0.040009357
-0.05192376 0.18087155 0.056792147 -0.13813257 0.053232286 -0.19330159 -0.10599478 -0.32907343
-0.14311329 0.082413144 -0.15769544 0.105913036 -0.09656062 0.5780233 -0.15409876 0.1650614
-0.1592795 0.085275084 0.056242593 -0.074556395 0.10378781 0.19716655 0.22937632 -0.25011206
0.09389192 0.2325786 0.23377407 0.027415385 0.046130832 0.1503772 0.18978025 0.050464615
-0.12035722 0.10911653 0.15731077 0.3955915 -0.09558707 0.10095875 0.056559805 0.31524298
0.08233896 0.21674818 0.2462207 -0.2057306 -0.00035725656 -0.35855523 -0.33048704 -0.15480393
-0.049548738 0.13454613 -0.13951348 0.10565689 0.028809436 0.089367926 0.06886211 0.10658686
0.17667775 0.2047868 -0.23102316 -0.34671804 -0.031058231 -0.21057087 0.1204586 0.029996611
0.12212385 -0.1333061 0.04332355 0.030754289 0.029801972 0.16205586 0.0066367076 0.15474567
-0.10904565 0.059486125 0.27998078 -0.081666954 0.016832054 0.089696385 -0.082488894 0.15899915
0.0418891 0.09892589 -0.10615969 0.0690766 -0.014226617 0.010251169 0.089525186 -0.20667435
-0.22132847 0.02545128 -0.040954974 0.08317501 0.06654152 -0.024267605 -0.09388108 0.027410585
-0.012773709 0.2306122 0.05197302 0.0738159 0.06900194 -0.01602776 -0.088006176 -0.0062513337
0.052736033 -0.13672763 -0.15817389 -0.10997166 0.19447471 0.10916554 -0.12785827 0.25800085
0.08211781 0.2354614 0.074321546 0.04023863 -0.058133353 -0.13970728 -0.12819242 0.06980844
-0.11470258 0.046825744 0.21046996 0.022920081 0.053015895 0.29944572 0.048442252 0.17836955
0.07900854 -0.075938225 0.15936616 0.052098744 -0.16635986 -0.17223607 -0.33040133 -0.09322996
0.08337191 -0.252767 0.015611002 -0.32456833 -0.26161307 0.043484267 -0.0072845747 0.29391173
0.2020448 0.05668862 0.040191825 0.17438976 0.28392592 0.17578687 0.056270383 -0.08274179
-0.34078085 -0.19164532 -0.032886893 -0.14655747 -0.1142694 0.063514695 0.14846209 -0.023298562
0.020183625 0.21220948 -0.032955516 -0.09017366 0.038497042 -0.1252947 0.3440779 0.050532114
0.4042882 -0.16010496 0.3087904 0.034846604 0.17154144 0.23611276 0.0014327789 0.028668348
-0.16104701 0.027329909 0.032760423 0.037190106 0.18568914 0.006770732 -0.025580926 -0.03803358
-0.0039582755 -0.05720445 0.011066021 -0.044128124 -0.12247408 -0.078702115 0.18617338 -0.008887013
00000000: 0b49 4c3d a0dd 8d3c 7078 03bd dfb5 e63a
00000010: 3d28 073e fa9b d2bd 898e 68be 1aa8 9c3d
00000020: 5cbf 09bf 9b48 033e 90d9 25be 9590 163e
00000030: fe07 16bd b44e 973d 36c8 2a3c 0b8a d33d
00000040: c860 923d 320a 16bb 66be cabc 31ed 233d
00000050: efd9 923d 8120 bbbe 901e be3d 36f5 9cbd
00000060: ff4e 903d 32e6 df3d e0a4 ff3d cf16 b13c
00000070: 8b4c c53d ac8b 8fbe 97be 67bd 9e3b 90be
00000080: 364b 8dbc 38d4 5c3e 579c 03be c425 3bbd
00000090: b3bd 373d 501c 473e 43d8 f63d 498a 8fbe
000000a0: 782f 0ebe 3c81 e1bd f54d 313f 7aaf c0bd
000000b0: 1268 53bd 3c41 003e 0054 e5bd c3d3 cb3c
000000c0: b023 9c3e 0f94 353d ec85 533d b23e 5ebd
000000d0: 0274 12be 6140 e83e ed1c b7bb c28e 253d
000000e0: aa94 153e 0a17 6abe 33ef 7c3d dcdd 753d
000000f0: 6098 e83c 36a5 aebd 8914 88be dae0 23bd
00000100: 02ae 54bd 6436 393e e29e 683d a072 0dbe
00000110: 190a 5a3d daf0 45be cb13 d9bd 507c a8be
00000120: 4a8c 12be 39c8 a83d ea7a 21be efe8 d83d
00000130: 93c1 c5bd 56f9 133f 11cc 1dbe db05 293e
00000140: 2a1a 23be b4a4 ae3d a25e 663d 06b1 98bd
00000150: b48e d43d 07e6 493e a0e1 6a3e b00e 80be
00000160: 684a c03d 1629 6e3e 7862 6f3e 3b96 e03c
00000170: aff3 3c3d 7bfc 193e c155 423e fcb3 4e3d
00000180: d97d f6bd 7d78 df3d 1316 213e f88a ca3e
00000190: 27c3 c3bd 76c3 ce3d 41ab 673d 8767 a13e
000001a0: 54a1 a83d 3cf3 5d3e 4721 7c3e 0bab 52be
000001b0: 2a4e bbb9 8d94 b7be 9935 a9be ec84 1ebe
000001c0: 9ef3 4abd 76c6 093e 9fdc 0ebe a462 d83d
000001d0: c401 ec3c 8806 b73d 9407 8d3d 364a da3d
000001e0: 03eb 343e a2b3 513e 5691 6cbe 0785 b1be
000001f0: d56d febc e49f 57be 00b3 f63d 74bb f53c
00000200: 121c fa3d 6581 08be 0974 313d 6bf0 fb3c
00000210: 4423 f43c f9f1 253e bd78 d93b a675 1e3e
00000220: 5353 dfbd b9a7 733d a459 8f3e 0141 a7bd
00000230: 60e3 893c bdb2 b73d f0ef a8bd acd0 223e
00000240: e893 2b3d a899 ca3d 406a d9bd 0878 8d3d
00000250: c216 69bc 85f4 273c fb58 b73d 71a2 53be
00000260: eea3 62be 347f d03c 67c0 27bd a957 aa3d
00000270: ec46 883d dbcc c6bc b944 c0bd 2a8c e03c
00000280: d248 51bc 9b25 6c3e a9e1 543d ca2c 973d
00000290: e450 8d3d a64c 83bc 953c b4bd fdd7 ccbb
000002a0: bd01 583d 5402 0cbe 56f8 21be d238 e1bd
000002b0: 6124 473e 2f92 df3d 47ed 02be b018 843e
000002c0: 622d a83d cb1c 713e e535 983d 43d1 243d
000002d0: 3d1d 6ebd 6d0f 0fbe e044 03be baf7 8e3d
000002e0: 30e9 eabd 5acc 3f3d 7085 573e e5c2 bb3c
000002f0: 3227 593d f350 993e 626b 463d 82a6 363e
00000300: 3bcf a13d 8085 9bbd e230 233e 7e65 553d
00000310: 3d5a 2abe a75e 30be 5d2a a9be 59ef bebd
00000320: e4be aa3d ad6a 81be 4ac5 7f3c d22d a6be
00000330: 26f2 85be 8f1c 323d 71b3 eebb 997b 963e
00000340: d5e4 4e3e 5432 683d 2fa0 243d 3b93 323e
00000350: bd5e 913e 7901 343e c67b 663d 8774 a9bd
00000360: d47a aebe ac3e 44be 68b4 06bd 2913 16be
00000370: 1306 eabd fe13 823d 7206 183e a0dc bebc
00000380: 2158 a53c 714d 593e 5dfc 06bd f8ac b8bd
00000390: 13af 1d3d 414d 00be fa2a b03e c3fa 4e3d
000003a0: ddfe ce3e 8ef2 23be c619 9e3e 50bb 0e3d
000003b0: 8fa8 2f3e 8bc7 713e 15cc bb3a e2d9 ea3c
000003c0: 82e9 24be f9e2 df3c cb2f 063d a754 183d
000003d0: 4b25 3e3e 04dd dd3b 178f d1bc 19c9 1bbd
000003e0: 6cb4 81bb 374f 6abd 424e 353c b1bf 34bd
000003f0: b1d3 fabd 932e a1bd 3ca4 3e3e d69a 11bc

advantage_stream.0.bias f4 [80]
-0.032956317 -0.12611163 0.004838236 0.06661264 0.06150408 -0.18776806 -0.112785585 -0.109236464
0.09186846 -0.014008007 -0.050327703 0.13007739 -0.04887642 -0.110110775 -0.049182992 0.008326654
-0.0037184944 -0.1376832 0.033957936 0.009687763 -0.110357456 0.071480356 0.026202288 -0.10168936
0.017393634 -0.079519235 0.14213519 -0.008072582 -0.026426058 0.14042558 -0.0393174 0.071109325
0.03183082 0.01633744 0.09137241 -0.010235222 -0.17179695 0.043093793 -0.029935628 0.07431668
-0.024375523 -0.05343468 -0.19683221 0.018906314 0.056616504 0.10252582 -0.051487457 0.13128841
-0.011410301 -0.0039361743 -0.169707 0.07085182 -0.03732258 -0.042736884 -0.13521431 -0.049951777
-0.14115784 -0.0047201104 -0.13411991 -0.09232839 0.049058214 -0.11633488 0.084802754 0.015582419
0.09510758 0.0028350218 0.09326839 -0.11446223 0.054883678 -0.06594923 0.0057931007 0.11870854
-0.11138945 0.007273851 0.023150578 -0.114079684 0.04801095 0.064401686 0.14946355 0.0033309308
00000000: 34fd 06bd 6823 01be 118a 9e3b 356c 883d
00000010: b4eb 7b3d 4546 40be 21fc e6bd 5eb7 dfbd
00000020: 8825 bc3d d781 65bc 6c24 4ebd 0233 053e
00000030: a432 48bd c281 e1bd 1b74 49bd 856c 083c
00000040: fcb1 73bb d3fc 0cbe 7a17 0b3d 6cb9 1e3c
00000050: 1703 e2bd 4b64 923d 2ea6 d63c 8342 d0bd
00000060: 187d 8e3c fbda a2bd e38b 113e dd42 04bc
00000070: 767b d8bc b9cb 0f3e 480b 21bd c4a1 913d
00000080: 0961 023d 18d6 853c 7521 bb3d a2b1 27bc
00000090: 8aeb 2fbe 1e83 303d 903b f5bc 5833 983d
000000a0: 2daf c7bc 53de 5abd 628e 49be 6ae1 9a3c
000000b0: b5e6 673d 0ff9 d13d 83e4 52bd 7870 063e
000000c0: 45f2 3abc 06fb 80bb acc7 2dbe c21a 913d
000000d0: 90df 18bd df0c 2fbd 9f75 0abe 3c9a 4cbd
000000e0: ae8b 10be 28ab 9abb bb56 09be ab16 bdbd
000000f0: 44f1 483d fb40 eebd 11ad ad3d 674d 7f3c
00000100: c3c7 c23d c6cb 393b 7f03 bf3d 2c6b eabd
00000110: b5cd 603d 6410 87bd 0dd4 bd3b 771d f33d
00000120: 2720 e4bd 7c59 ee3b 48a6 bd3c 9ca2 e9bd
00000130: 21a7 443d 08e5 833d f90c 193e bf4b 5a3b

advantage_stream.2.weight f4 [4, 80]
-0.13791159 -0.26271585 -0.015749073 -0.049601693 -0.2941656 -0.26956832 0.011383022 0.043509953
0.06186528 0.066756025 -0.18321525 -0.007982262 0.32552552 -0.0029707903 -0.00038474446 -0.008842626
-0.023557227 -0.007791779 0.16769777 0.116192445 -0.013436654 0.037916284 -0.11783452 0.119031206
-0.10215851 0.25268856 0.09948017 -0.10630715 -0.027769908 0.069669396 -0.08939567 -0.26327997
-0.24665087 -0.31088817 -0.015525386 -0.07538651 0.041359376 0.14188929 -0.19818191 0.10298713
-0.15660532 0.28472516 -0.24766046 0.11681937 0.18439631 0.074771896 -0.025190964 -0.044041578
0.22864468 -0.01606126 -0.34447932 0.23330599 0.16488016 0.02429352 0.061998893 0.22043769
-0.17334545 0.21278399 -0.033931818 0.022233661 0.23666431 -0.035598867 -0.09450279 -0.043936197
0.0937727 -0.3166099 0.031736363 -0.09516928 0.028498761 -0.113900386 -0.11024562 -0.2842475
0.037875623 0.4666341 0.028822087 -0.019262599 -0.07522071 -0.013686854 -0.07952265 0.012847514
-0.014433472 -0.41681784 0.303464 0.0765728 -0.18089257 -0.27127746 0.41711622 0.37451297
0.17152947 -0.28311595 -0.17352599 -0.10275742 0.1362152 -0.019059582 -0.12285072 0.33711347
-0.0075261435 -0.039994206 -0.12413902 0.030355576 -0.037524175 -0.071242556 0.034143247 -0.26287866
0.094543956 -0.07310792 0.012501772 0.053324185 -0.0106647005 0.15850365 0.21980056 0.10878836
0.0010750507 0.26868665 -0.023367818 0.103381224 -0.043125223 0.12166857 0.20936751 -0.058671188
0.027209114 0.09246386 -0.09844 0.25728527 0.27122715 0.02790755 -0.043684177 0.021360239
0.0418374 0.023732647 -0.21976265 0.27965036 -0.08159416 -0.13163102 0.084146276 0.2917876
0.06203137 0.0951204 -0.057289366 0.004134239 0.046472214 0.019864494 -0.012745571 -0.06745336
0.08998019 0.30133173 -0.11350049 -0.14118473 -0.10935677 0.0424305 0.09042201 0.0021234008
0.08958006 0.2653311 0.15930603 -0.11556966 0.12002428 0.061133966 -0.03237455 -0.04819379
-0.17239298 0.2293492 0.21682039 0.11738189 -0.12278992 -0.12419736 -0.13044287 -0.5145451
0.051449552 0.11102533 0.08414638 0.03502954 0.42461798 -0.51486766 -0.051942065 -0.10449728
-0.101252764 -0.039227694 -0.14804652 -0.09229183 -0.19346641 -0.088322744 0.13094422 0.11417658
0.07216303 0.33519754 -0.077293634 0.062403228 -0.2237609 -0.12102321 0.06416184 -0.21137108
0.057605296 7.846188e-05 0.08645495 -0.38848054 -0.32677737 -0.31844074 0.18401766 -0.017229103
0.2192272 0.030543922 0.12465643 -0.15855806 -0.13231362 -0.20874591 -0.044487894 0.2503534
0.036222294 -0.08773506 -0.22303447 0.20255366 0.17408715 -0.066634804 0.2195315 -0.013321055
-0.22941191 0.045071974 0.06339652 -0.05744196 0.23839413 -0.24305989 -0.032814294 0.041755725
-0.096475035 0.011029828 0.3271563 -0.19035284 -0.018358035 -0.004213169 0.035660356 0.07220278
-0.07769863 -0.0071902866 0.29169142 0.022282207 -0.0052532363 0.1288695 0.19450273 0.46101797
-0.029779905 0.09788265 -0.12395708 0.13517226 -0.032646175 -0.19525997 -0.2263079 -0.2055967
0.11106829 0.14844398 -0.29781774 0.15385698 -0.12856652 0.10734071 -0.28043014 0.26338583
00000000: b238 0dbe b182 86be 3304 81bc 252b 4bbd
00000010: e09c 96be dc04 8abe db7f 3a3c 7e37 323d
00000020: 7366 7d3d 62b7 883d c79c 3bbe 09c8 02bc
00000030: 48ab a63e 97b1 42bb 87b7 c9b9 a9e0 10bc
00000040: 16fb c0bc 2e52 ffbb f7b8 2b3e 4ef6 ed3d
00000050: 6925 5cbc 1b4e 1b3d 3a53 f1bd a2c6 f33d
00000060: 7b38 d1bd 6560 813e 42bc cb3d 90b7 d9bd
00000070: b87d e3bc d4ae 8e3d 1415 b7bd a2cc 86be
00000080: 0c92 7cbe bc2c 9fbe 305e 7ebc 3e64 9abd
00000090: 7368 293d 6d4b 113e 33f0 4abe ebea d23d
000000a0: 255d 20be 7fc7 913e b49a 7dbe fe3e ef3d
000000b0: 63d2 3c3e 0222 993d 485d cebc f164 34bd
000000c0: d521 6a3e e792 83bc 985f b0be c4e7 6e3e
000000d0: 58d6 283e 3403 c73c 8df2 7d3d 6bba 613e
000000e0: 7881 31be 0ce4 593e 17fc 0abd 5e23 b63c
000000f0: 2158 723e 1ed0 11bd ae8a c1bd 71f6 33bd
00000100: e70b c03d b11a a2be fdfd 013d 1de8 c2bd
00000110: 3c76 e93c 9b44 e9bd 75c8 e1bd e388 91be
00000120: 7823 1b3d aaea ee3e 4c1c ec3c 99cc 9dbc
00000130: 510d 9abd d43e 60bc c5dc a2bd 617e 523c
00000140: 5f7a 6cbc 2669 d5be a25f 9b3e 33d2 9c3d
00000150: e73b 39be e1e4 8abe 4290 d53e 2ac0 bf3e
00000160: 6ca5 2f3e 93f4 90be ccb0 31be 7b72 d2bd
00000170: ff7b 0b3e d722 9cbc 2999 fbbd 239a ac3e
00000180: de9d f6bb f7d0 23bd 993c febd 42ac f83c
00000190: f3b2 19bd 9ee7 91bd cad9 0b3d 0898 86be
000001a0: 43a0 c13d 9bb9 95bd 3bd4 4c3c 766a 5a3d
000001b0: ffba 2ebc c84e 223e 6613 613e 6fcc de3d
000001c0: b7e8 8c3a 4c91 893e de6d bfbc 89b9 d33d
000001d0: 13a4 30bd 5f2d f93d 7064 563e 3351 70bd
000001e0: a6e5 de3c b15d bd3d e99a c9bd e5ba 833e
000001f0: 49de 8a3e 609e e43c 2eee 32bd abfb ae3c
00000200: b25d 2b3d f86a c23c 7609 61be 552e 8f3e
00000210: d71a a7bd 48ca 06be e254 ac3d 2f65 953e
00000220: 9b14 7e3d 7cce c23d 41a8 6abd 8378 873b
00000230: a659 3e3d ddba a23c cdd2 50bc fd24 8abd
00000240: 8947 b83d 2748 9a3e f272 e8bd bb92 10be
00000250: 71f6 dfbd 9bcb 2d3d 2d2f b93d c128 0b3b
00000260: c075 b73d 7ad9 873e 1f21 233e c9af ecbd
00000270: 4acf f53d 9c67 7a3d 2d9b 04bd da66 45bd
00000280: c987 30be 84da 6a3e 2a06 5e3e eb65 f03d
00000290: 4879 fbbd 2f5b febd d192 05be 3ab9 03bf
000002a0: c4bc 523d 4061 e33d f054 ac3d 237b 0f3d
000002b0: 8767 d93e 5ece 03bf 34c1 54bd ac02 d6bd
000002c0: 9c5d cfbd 38ad 20bd 8299 17be 8003 bdbd
000002d0: 0f1c 46be 8ee2 b4bd 3e16 063e 69d5 e93d
000002e0: 36ca 933d 039f ab3e 204c 9ebd 879a 7f3d
000002f0: 9421 65be 04db f7bd 4867 833d a971 58be
00000300: 88f3 6b3d e78b a438 4b0f b13d ece6 c6be
00000310: 5d4f a7be aa0a a3be 206f 3c3e 0c24 8dbc
00000320: 187d 603e 3f37 fa3c df4b ff3d 0b5d 22be
00000330: 397d 07be 7dc1 55be f038 36bd 522e 803e
00000340: d45d 143d 70ae b3bd 2663 64be 3a6a 4f3e
00000350: e743 323e d477 88bd decc 603e 8e40 5abc
00000360: f5ea 6abe 649d 383d 09d6 813d 4348 6bbd
00000370: 971d 743e b1e4 78be 4868 06bd 0d08 2b3d
00000380: b494 c5bd 74b6 343c 0881 a73e dbeb 42be
00000390: 9763 96bc a00e 8abb 9810 123d 0ddf 933d
000003a0: 7620 9fbd 7f9c ebbb 9458 953e 2d89 b63c
000003b0: 5723 acbb 5ef6 033e b92b 473e 8c0a ec3e
000003c0: fdf4 f3bc b376 c83d 36dd fdbd 996a 0a3e
000003d0: ffb7 05bd 3bf2 47be 42bd 67be f187 52be
000003e0: c677 e33d b301 183e 917b 98be af8c 1d3e
000003f0: f1a6 03be 72d5 db3d 8a94 8fbe 82da 863e

advantage_stream.2.bias f4 [4]
0.13729085 0.00651211 0.033856288 0.026829429
00000000: f995 0c3e 8a63 d53b e4ac 0a3d 64c9 db3c
