Dueling Neural Network/duel_checkpoint_3.pth (torch_old, 93648 bytes, 11 tensors)

feauture_layer.0.weight f4 [80, 37]
0	0xbebc4f14	-0.36779082
1	0x3e989ecb	0.2980865
2	0xbf0e51da	-0.55593646
3	0x3e6bc909	0.23025908
4	0x3d93f970	0.07225311
5	0x3e11bcaa	0.14232126
6	0xbe164a88	-0.14676869
7	0x3e511ca8	0.20421088
8	0xbe46ee34	-0.19426805
9	0xbdeba48a	-0.11505993
10	0xbe113f74	-0.14184362
11	0xbbe44727	-0.00696649
12	0xbda3847c	-0.07984254
13	0xbf088337	-0.5332522
14	0xbea34aa6	-0.3189289
15	0x3e11ee3e	0.14251038
16	0xbf00bb62	-0.50285923
17	0x3cb60e66	0.022223663
18	0xbe29bf5d	-0.16576906
19	0xbf0c060e	-0.5469674
20	0x3d9f579f	0.07780384
21	0xbe9130ea	-0.2835763
22	0xbec36211	-0.38160756
23	0x3edc5b3b	0.43038353
24	0xbe636eef	-0.22210287
25	0xbedf0d46	-0.43564814
26	0x3d1215d3	0.035665344
27	0x3e3edfa2	0.18639997
28	0xbde85c70	-0.11345756
29	0x3eb1e7e1	0.34747222
30	0xbe319fb8	-0.17346084
31	0x3e8e422e	0.27784866
32	0xbf1c892f	-0.61146826
33	0x3dc5982e	0.096481666
34	0xbe245eec	-0.16051835
35	0xbd06672c	-0.032813236
36	0x3b7c26c0	0.0038475245
37	0x3d961525	0.07328252
38	0x3e9cfe58	0.306628
39	0xbccf0da4	-0.025275059
40	0xbe61c1a2	-0.22046521
41	0xbe810f30	-0.252069
42	0x3cce11e9	0.025155025
43	0xbe5a497c	-0.21317095
44	0xbeaff089	-0.343632
45	0x3e89f79c	0.26946723
46	0x3f34278e	0.70372856
47	0xbd73c99f	-0.059518453
48	0xbd664eb2	-0.056227393
49	0x3d4140e4	0.047181025
50	0x3e1d73c4	0.15376192
51	0x3e0ee391	0.13953997
52	0x3e3c09c3	0.18363099
53	0xbe17962e	-0.14803383
54	0xbb97c4ca	-0.0046316134
55	0xbe4be1d6	-0.19910368
56	0xbf1731d0	-0.5906038
57	0xbe814acb	-0.25252375
58	0xbf0e80be	-0.55665195
59	0x3e2252c7	0.1585189
60	0xbd6262e4	-0.05527009
61	0xbe55558b	-0.20833413
62	0xbe23fa62	-0.16013482
63	0xbe4c4054	-0.19946414
64	0x3e3b2410	0.18275476
65	0x3e68feee	0.22753498
66	0x3e60ff50	0.21972394
67	0xbdc215f1	-0.09476841
68	0x3c9ec406	0.01938058
69	0x3e870d1a	0.26377183
70	0xbd474709	-0.04865173
71	0xbd3279ac	-0.043573067
72	0x3d3ed7d2	0.04659254
73	0x3a876733	0.0010330438
74	0x3e3f8976	0.18704781
75	0xbd266f95	-0.040633757
76	0x3d405ea5	0.04696526
77	0xbee10f0f	-0.439568
78	0xbebd368f	-0.36955687
79	0xbf687e3e	-0.9081763
80	0xbec1de49	-0.37864903
81	0x3ed716bd	0.42009535
82	0xbca49db5	-0.020094732
83	0x3c7239ce	0.0147842895
84	0xbd0937d9	-0.033500526
85	0xbdd27b80	-0.10277462
86	0xbda2002d	-0.0791019
87	0xbc38826c	-0.011261564
88	0xbea831a0	-0.3285036
89	0xbc0a14dc	-0.008427825
90	0xbed6916d	-0.41907826
91	0x3dcbfcbc	0.09960315
92	0x3e4be017	0.19909702
93	0xbe6644e2	-0.22487214
94	0xbea09577	-0.31364033
95	0x3caaaded	0.020834887
96	0x3cab70d9	0.020927833
97	0xbcaaae5b	-0.020835092
98	0x3d94d550	0.07267249
99	0x3bf29bef	0.0074038426
100	0x3ee431d4	0.44569266
101	0xbe54e793	-0.20791464
102	0xbf60f4de	-0.8787364
103	0x3de6feb5	0.1127905
104	0xbef4c0e2	-0.47803408
105	0xbe5b7a0f	-0.2143328
106	0xbe3c0743	-0.18362145
107	0x3e6abbbf	0.22923182
108	0xbeacb6cc	-0.33733213
109	0x3e2e755b	0.17036955
110	0xbccdba8e	-0.02511337
111	0x3e50ed53	0.20403032
112	0xbd625492	-0.055256434
113	0x3ea2094a	0.31647712
114	0x3e3a371b	0.18185084
115	0x3da912dc	0.0825555
116	0xbd2f2656	-0.04276117
117	0xbe60a4af	-0.21937822
118	0x3eb3b2e0	0.35097408
119	0x3eabfcf3	0.33591422
120	0x3ee954d2	0.45572525
121	0x3db6621e	0.08905433
122	0x3d81e29d	0.06342051
123	0x3e50feb2	0.20409659
124	0xbdaa14bf	-0.08304738
125	0xbe034bdf	-0.12821911
126	0x3d56bd4f	0.052426632
127	0x3e389406	0.18025216
128	0xbe02ce2c	-0.12773961
129	0xbe9c9d78	-0.3058889
130	0xbec46df7	-0.38365147
131	0x3d3853e4	0.04500188
132	0xbc04caf4	-0.008105028
133	0xbd2e3304	-0.04252912
134	0x3e8a7e93	0.27049693
135	0x3dd9186d	0.10600362
136	0xbc326028	-0.010887183
137	0x3e23bcca	0.15989986
138	0xbbe810ba	-0.007082072
139	0x3ea5ba9d	0.32368937
140	0xbeb88997	-0.36042473
141	0x3e47c41f	0.19508408
142	0x3ebbb9e0	0.3666525
143	0xbe97d2c3	-0.29652986
144	0xbe080ff6	-0.13287339
145	0xbf18b30a	-0.5964819
146	0x3cea8d2d	0.028631771
147	0xb9cebc9d	-0.0003943191
148	0xbecf808a	-0.40527755
149	0xbe5d3137	-0.21600805
150	0x3e19e3f3	0.15028362
151	0x3c9639e1	0.018338146
152	0x3c2cd508	0.0105488375
153	0x3df5f7e8	0.12010175
154	0x3e8f8b7c	0.28036106
155	0xbdc22114	-0.094789654
156	0xbf07de82	-0.53073895
157	0xbe996f1d	-0.29967585
158	0x3e795d92	0.243521
159	0xbe362a51	-0.1778958
160	0xbc256b8f	-0.010096445
161	0xbe652185	-0.22376068
162	0xbdad8f77	-0.08474629
163	0xbce58c74	-0.028021075
164	0xbe070eea	-0.13189283
165	0x3d71cc92	0.059032984
166	0xbe85a887	-0.2610514
167	0xbced8a5d	-0.02899664
168	0xbea94cf9	-0.33066538
169	0xbcad2c96	-0.021139424
170	0x3ec76f94	0.38952315
171	0xbe4adcca	-0.19810787
172	0x3dd8d599	0.105876155
173	0x3caa8eb9	0.020820009
174	0x3e3aeb47	0.18253814
175	0xbe718300	-0.23585129
176	0xbdbabeee	-0.09118448
177	0xbf16fe45	-0.58981735
178	0x3d686418	0.05673608
179	0x3d564f5a	0.05232177
180	0x3ddffab8	0.10936493
181	0xbcf8c539	-0.03036748
182	0xbda916cd	-0.08256302
183	0x3e2f33ae	0.17109558
184	0x3d2dfaa9	0.042475376
185	0xb9fe39d8	-0.00048489752
186	0xbdc61d7d	-0.09673593
187	0xbe0c56e6	-0.13705024
188	0x3be28eca	0.0069139944
189	0x3e5d1b69	0.21592487
190	0x3eb6664b	0.35624918
191	0xbdc474e2	-0.09592606
192	0xbe8c213e	-0.27369112
193	0xbee8b5b2	-0.45451123
194	0xbf1e60d0	-0.61866474
195	0xbe3059a3	-0.17221694
196	0x3db4d917	0.08830469
197	0xbe698885	-0.22805984
198	0x3ca4dbc7	0.02012433
199	0x3ded4524	0.11585453
200	0xbd97a1a9	-0.07403881
201	0x3cbed0a1	0.023292841
202	0xbd14832d	-0.03625791
203	0xbe3f51ca	-0.18683544
204	0x3ee58cf0	0.4483409
205	0xbe1b4932	-0.1516464
206	0x3dd2e6b8	0.10297912
207	0xbce5b033	-0.02803812
208	0x3e800dd7	0.2501056
209	0x3e8aa25b	0.27076992
210	0x3c6e8582	0.014558198
211	0xbe9cd4fb	-0.3063124
212	0x3d9180e6	0.071046636
213	0x3e8ed085	0.27893463
214	0x3edbe1f5	0.4294583
215	0xbdd5ca69	-0.10438997
216	0xbe205eb1	-0.15661122
217	0x3dd54a4d	0.104145624
218	0xbdcf3738	-0.10117954
219	0xbdd48e08	-0.10378653
220	0x3c6ebe3c	0.014571723
221	0x3d36a559	0.04459128
222	0x3ed7a0cb	0.42114863
223	0xbe6f4675	-0.23366721
224	0xbeaa4fb1	-0.33263925
225	0xbf13a56a	-0.57674277
226	0xbf97f99c	-1.187305
227	0xbe851c68	-0.25998235
228	0xbdb57249	-0.08859689
229	0xbcc95edc	-0.024581365
230	0x3d6b22da	0.057406284
231	0x3ebbeccc	0.367041
232	0x3e9202c9	0.2851775
233	0x3dcd399d	0.100207545
234	0xbeb88d3f	-0.36045262
235	0xbd79b19e	-0.060960405
236	0x3d953e1b	0.07287236
237	0xbe30a9ef	-0.17252325
238	0xbe0a18ff	-0.13486098
239	0xbe1a7b91	-0.150862
240	0x3ea8c1c0	0.3296032
241	0x3c7abfd3	0.0153045235
242	0x3d3cc903	0.046090137
243	0x3de71b76	0.11284535
244	0xbdb4e152	-0.08832039
245	0xbe31cdbb	-0.17363636
246	0x3ecab721	0.3959284
247	0xbe4195af	-0.18904756
248	0x3dc27631	0.094951995
249	0xbdfbac8c	-0.1228877
250	0xbe2bf9d5	-0.16794522
251	0x3ea29338	0.31752944
252	0x3e864f8c	0.26232564
253	0xbee68196	-0.4502074
254	0xbe245e4c	-0.16051596
255	0x3d05b699	0.03264484

feauture_layer.0.bias f4 [80]
0	0x3dfd0699	0.12354774
1	0xbe0824a1	-0.13295223
2	0x3cdef89b	0.027218154
3	0xbe5293cb	-0.20564191
4	0xbd2d301f	-0.04228222
5	0xbdbcf289	-0.092259474
6	0x3df3ce49	0.1190458
7	0x3d1b9917	0.037987795
8	0xbcf6b0c5	-0.030113587
9	0x3d5f698b	0.054544013
10	0x3d0e1ae3	0.03469361
11	0x3da258da	0.07927103
12	0xbdf6c481	-0.12049199
13	0x3bc0fa9f	0.0058892514
14	0xbd8bb250	-0.0682112
15	0xbe186187	-0.14880954
16	0x3d17cb40	0.03705907
17	0x3d05d234	0.03267117
18	0x3d52b3d8	0.051441044
19	0x3df8ec87	0.12154489
20	0x3e2165af	0.15761445
21	0x3d80450a	0.06263168
22	0x3c3aa298	0.011391304
23	0xbd97b807	-0.07408147
24	0xbd53576d	-0.051597048
25	0x3dc50cd5	0.09621588
26	0xbd16a14b	-0.036774915
27	0xbd18f9fe	-0.037347786
28	0xbd9390f4	-0.07205382
29	0x3e345875	0.17611869
30	0x3e619ab7	0.22031675
31	0xbdc652e7	-0.09683781
32	0x3e9baaa4	0.30403626
33	0xbe3d19c2	-0.18466857
34	0xbdc310de	-0.095247015
35	0xbe5636e1	-0.20919372
36	0x3c67420d	0.014114869
37	0xbe07ec54	-0.13273746
38	0x3be82e27	0.00708558
39	0xbde10f53	-0.10989251
40	0x3c9b5abb	0.018964162
41	0x3c181580	0.00928247
42	0xbdf1e90a	-0.11812027
43	0x3de76137	0.11297839
44	0x3ddc84d8	0.107675254
45	0xbe89d6c7	-0.26921675
46	0xbdc5ddf0	-0.09661472
47	0x3dc4d3fd	0.09610746
48	0x3e0c9bc5	0.13731296
49	0x3d8a283b	0.067459546
50	0x3d8c8a99	0.06862373
51	0xbcd83787	-0.026393665
52	0xbe2fdf53	-0.17175035
53	0x3e806c82	0.25082785
54	0xbe0b40a4	-0.13598877
55	0x3dce9c71	0.100884326
56	0x3dd3fa0a	0.103504255
57	0xbe26721e	-0.1625447
58	0x3ddc8e54	0.107693344
59	0x3d821195	0.0635101
60	0x3dd331f3	0.103122614
61	0x3e2158b3	0.15756492
62	0xbc9bcd68	-0.019018844
63	0xbe2c77ea	-0.16842619
64	0x3a44d733	0.0007508874
65	0xbb116fb4	-0.0022191824
66	0x3adf6eaf	0.0017046536
67	0xbe46e1d9	-0.19422092
68	0x3d5c7811	0.05382544
69	0xbda06fba	-0.0783381
70	0x3c1cfc3b	0.009581621
71	0xbd2435e0	-0.04009044
72	0xbdaf04a3	-0.08545806
73	0xbd10abc6	-0.035320066
74	0xbd905a50	-0.07048476
75	0x3c278a58	0.010225855
76	0xbdb81b7e	-0.08989619
77	0xbe08e20c	-0.1336748
78	0x3cdeed36	0.02721272
79	0xbe1bf306	-0.15229425

feauture_layer.2.weight f4 [80, 80]
0	0x3e900817	0.28131172
1	0xbdf9ef2d	-0.12203822
2	0xbedd73b9	-0.43252352
3	0xbef7ec7d	-0.48422614
4	0xbf0a8bae	-0.54119384
5	0xbefa3926	-0.48871726
6	0xbe00390d	-0.12521763
7	0x3e0a50a4	0.13507324
8	0x3c95e85d	0.018299276
9	0xbd8efcf9	-0.069818445
10	0xbe90eeeb	-0.2830728
11	0xbd164f9c	-0.036697015
12	0xbdb75f54	-0.08953729
13	0xbd37bab1	-0.044855777
14	0xbebfd25c	-0.3746518
15	0x3e022180	0.12708092
16	0xbd2f186e	-0.042747907
17	0xbdc0d25b	-0.09415122
18	0xbf16a34c	-0.5884292
19	0x3df14704	0.11781123
20	0xbf0a6630	-0.54062176
21	0x3e31f135	0.1737717
22	0xbf8c8d3a	-1.0980599
23	0xbe454494	-0.19264442
24	0xbea750b1	-0.3267875
25	0xbe12191e	-0.14267394
26	0xbd7ea139	-0.062165473
27	0xbd4bd236	-0.04976102
28	0x3e73d9c3	0.23813538
29	0xbf368703	-0.7129976
30	0xbc5a46ee	-0.013322575
31	0xbdef2893	-0.11677661
32	0x3ea03109	0.3128741
33	0x3cd5a5c3	0.026080018
34	0xbd614fb1	-0.05500764
35	0x3dba2a67	0.09090119
36	0xbea0eb56	-0.31429547
37	0xbf2a9132	-0.666278
38	0xbeb9a548	-0.36258912
39	0xbee1e4f6	-0.44119996
40	0x3d2f797f	0.042840477
41	0x3e5775a1	0.21040966
42	0xbe9f5daf	-0.31126162
43	0x3c71e54c	0.014764141
44	0xbdeb83a0	-0.11499715
45	0x3e4a9df4	0.19786817
46	0xbe7f959a	-0.24959412
47	0xbf1f12cf	-0.62138075
48	0xbe265d14	-0.16246444
49	0xbd6317ff	-0.055442806
50	0xbe49b96d	-0.1969964
51	0x3dc9ce61	0.09853817
52	0xbeb3c559	-0.35111502
53	0xbee4d86b	-0.44696364
54	0xbca8a098	-0.02058439
55	0xbdd2faf1	-0.103017695
56	0xbf53dd75	-0.8275979
57	0xbd0b2251	-0.033968274
58	0xbe51b755	-0.20480092
59	0xbcc34631	-0.02383718
60	0xbf2f0323	-0.6836416
61	0xbe639346	-0.22224149
62	0x3e830333	0.25588378
63	0x3e303b25	0.17210062
64	0xbe42b448	-0.19014084
65	0xbe8ad176	-0.2711293
66	0xbe1960e9	-0.14978375
67	0xbd8aba42	-0.06773807
68	0x3d07018b	0.032960456
69	0xbd005baa	-0.031337418
70	0xbc5f44c5	-0.013627236
71	0x3e3ebb8b	0.1862623
72	0x3ec0c024	0.37646592
73	0x3d89541d	0.067054965
74	0xbd059932	-0.0326168
75	0xbd559f09	-0.05215362
76	0xbe4d8de8	-0.20073664
77	0x3e1c828d	0.15284176
78	0xbdc40eb5	-0.09573118
79	0xbd42d381	-0.047564987
80	0x3d4ca66f	0.04996341
81	0xbea7dda5	-0.3278629
82	0x3de62a9f	0.11238598
83	0xbf024565	-0.5088714
84	0xbdb028d3	-0.086015366
85	0x3dc3109c	0.09524652
86	0xbea5a2f8	-0.32350898
87	0x3dadfba7	0.084952645
88	0x3bdd9a5c	0.006762786
89	0xbe55a610	-0.20864129
90	0xbe121a36	-0.14267811
91	0xbf02e4b1	-0.51130205
92	0xbda51f0e	-0.08062564
93	0xbd3c0718	-0.045905203
94	0xbe03d76f	-0.1287515
95	0x3ec95e29	0.3932965
96	0x3d7d7be2	0.061885722
97	0x3e0f7261	0.14008476
98	0xbea487bd	-0.3213481
99	0x3d8da01a	0.069153026
100	0x3dbd273c	0.09235999
101	0xbdad1b40	-0.08452463
102	0x3e5a41ab	0.21314113
103	0xbea02b14	-0.31282866
104	0x3e255c72	0.16148546
105	0xbe2cd6d6	-0.16878828
106	0xbd090b22	-0.033457883
107	0x3e321dbc	0.17394155
108	0xbe330665	-0.17482908
109	0xbeb9c4c0	-0.3628292
110	0x3eb0aa40	0.3450489
111	0xbe8ca9d8	-0.2747333
112	0xbe8ac38e	-0.2710232
113	0xbe3ebfe0	-0.18627882
114	0x3df55438	0.11978954
115	0xbf460fdf	-0.7736797
116	0x3d8c1552	0.06840004
117	0xbe10f7c1	-0.1415701
118	0xbebb4f65	-0.3658401
119	0xbe0d2247	-0.13782607
120	0xbe0ac07b	-0.13549988
121	0x3d8b8266	0.06811981
122	0x3e790420	0.2431798
123	0xbd8cee8a	-0.06881435
124	0xbe36f633	-0.17867355
125	0xbb812ec1	-0.003942341
126	0x3e6a2ba8	0.22868216
127	0x3e37ff1e	0.17968413
128	0xbef7c492	-0.4839216
129	0xbde58330	-0.11206663
130	0xbe0cf866	-0.13766631
131	0x3e9ca827	0.3059704
132	0xbd998e0e	-0.07497798
133	0x3bcc7ee1	0.006240711
134	0x3d872f7f	0.06600856
135	0xbdb365bf	-0.08759641
136	0xbe0a8031	-0.13525464
137	0xbdcfaac0	-0.1013999
138	0xbe34d4cb	-0.17659299
139	0x3d8611c4	0.06546357
140	0xbe491e7c	-0.19640535
141	0x3db8757f	0.090067856
142	0x3e401333	0.18757324
143	0x3c6e5a9b	0.014547969
144	0xbdd9e9cc	-0.10640296
145	0x3ea4e031	0.32202294
146	0xbe3cc88f	-0.18435882
147	0xbe7c8d10	-0.24663186
148	0xbd8dd231	-0.069248565
149	0xbe61020d	-0.21973439
150	0xbe771bcb	-0.24131696
151	0xbeac2002	-0.3361817
152	0x3c87fd77	0.016600354
153	0xbd2ccc6a	-0.042187132
154	0x3e245c44	0.16050822
155	0x3e266099	0.16247787
156	0xbd6fc713	-0.05853946
157	0x3d831634	0.06400719
158	0xbe043d6c	-0.12914056
159	0xbdb490f8	-0.08816713
160	0xbea5eb08	-0.32405877
161	0xbf061c94	-0.52387357
162	0x3d33eabf	0.043925043
163	0xbe693589	-0.22774328
164	0x3e52beda	0.20580617
165	0xbd64e0a0	-0.05587828
166	0x3e177cbb	0.14793675
167	0x3e20d22a	0.15705171
168	0x3c1751e1	0.00923583
169	0x3ded4475	0.11585323
170	0xbe0a60d4	-0.135135
171	0x3e9dd78c	0.30828512
172	0x3e06b344	0.13154322
173	0xbee94f11	-0.45568135
174	0xbee252fb	-0.44203934
175	0xbf3e50dc	-0.7434213
176	0x3d848942	0.06471492
177	0x3e83019b	0.25587162
178	0x3e2826fc	0.16421121
179	0xbef19c1b	-0.47189412
180	0xbd99c71f	-0.075086825
181	0x3e29c9ba	0.16580859
182	0xbd88076a	-0.06642039
183	0x3e9be25b	0.30446133
184	0xbd185f12	-0.03720004
185	0xbdff2d26	-0.12459783
186	0x3ce21a1c	0.02760034
187	0x3ccc1a53	0.024914896
188	0x3d07293d	0.032998312
189	0xbe52bb1a	-0.20579186
190	0x3db294c7	0.08719783
191	0xbcdbc536	-0.026827436
192	0xbeb607ed	-0.35552922
193	0xbbbb40cd	-0.005714512
194	0xbec3ef84	-0.38268673
195	0x3d9e47c1	0.0772853
196	0xbe558643	-0.20851998
197	0xbe51e57c	-0.20497698
198	0x3e94b6c7	0.29045698
199	0xbe2c511f	-0.1682782
200	0xbe854614	-0.26030028
201	0xbecd0eeb	-0.40050444
202	0x3cbead3e	0.023275968
203	0x3ea24c60	0.31698895
204	0x3dd0ef5a	0.10201903
205	0xbe9e22f0	-0.3088603
206	0xbea80aaf	-0.3282065
207	0xbdc8ab19	-0.09798259
208	0x3baad9b6	0.0052139414
209	0x3d9d9d62	0.07696034
210	0x3e0d2058	0.1378187
211	0x3d805363	0.06265905
212	0xbe88236c	-0.26589525
213	0xbdf9da04	-0.12199786
214	0xbde32be4	-0.11092356
215	0xbe4d6df2	-0.20061472
216	0xbe3a3161	-0.18182899
217	0xbf04a9a6	-0.5182136
218	0xbe9a2a43	-0.30110368
219	0x3d4478d3	0.04796679
220	0xbd5f797f	-0.054559227
221	0xbdeee649	-0.11665017
222	0xbf1e1a78	-0.6175914
223	0xbec1492c	-0.37751138
224	0xbe17557a	-0.147787
225	0xbe9b1397	-0.30288383
226	0xbec0e9d3	-0.37678394
227	0xbd028dba	-0.031873442
228	0xbe985367	-0.2975113
229	0x3e4cdc71	0.20005967
230	0xbe9d60b9	-0.30737856
231	0x3e7a1eae	0.24425766
232	0xbea204f4	-0.31644404
233	0xbe6e7156	-0.23285422
234	0xbc8a7357	-0.016900701
235	0xbe88ec71	-0.2674289
236	0xbdabe589	-0.0839339
237	0xbf2b8ef7	-0.6701502
238	0xbf212204	-0.6294253
239	0xbec5c696	-0.38628072
240	0x3e60ae94	0.21941596
241	0x3cda28a3	0.026630705
242	0xbd5b27c4	-0.05350472
243	0x3cfd855b	0.030947378
244	0xbd42b0a4	-0.04753174
245	0x3d1944d4	0.037419155
246	0x3d98d25d	0.074619986
247	0x3e837e11	0.2568212
248	0x3dda4742	0.106581226
249	0x3da68be0	0.08132148
250	0x3c6d16d6	0.014470777
251	0x3ea7c1b9	0.32764986
252	0xbcd8f19d	-0.026482398
253	0x3e43f73c	0.19137281
254	0x3d8a7690	0.06760895
255	0x3d4739d8	0.04863915

feauture_layer.2.bias f4 [80]
0	0x3c98bcd7	0.018644733
1	0xbe354ef3	-0.17705898
2	0xbdacdff8	-0.08441156
3	0x3dc7d5c9	0.09757573
4	0xbe9d9588	-0.30778146
5	0xbdf997e9	-0.12187178
6	0xbe3f5323	-0.18684058
7	0xbb0e89b9	-0.002174957
8	0xbe1be747	-0.15224944
9	0xbe0ff366	-0.14057693
10	0xbe6fb0fa	-0.23407355
11	0x3a4c8b3a	0.0007802729
12	0xbdf00f9c	-0.11721727
13	0xbcb0ae85	-0.021567592
14	0xbe01617d	-0.12634845
15	0x3bfce7c6	0.0077180592
16	0xbe2d93a1	-0.16950847
17	0xbd95b803	-0.07310488
18	0xbd9cad06	-0.07650189
19	0xbdc33a60	-0.095326185
20	0xbe1d4c4f	-0.1536114
21	0xbd11b447	-0.035572316
22	0x3d57ec41	0.052715544
23	0x3ca1078d	0.01965692
24	0xbe6116c0	-0.21981335
25	0xbd264256	-0.040590607
26	0xbd1a8c08	-0.0377312
27	0x3dea0b70	0.11427963
28	0xbd82952f	-0.06376111
29	0xbd1fc2d8	-0.039004177
30	0x3d81fe9a	0.063473895
31	0xbe2e397a	-0.17014113
32	0xbdeb9692	-0.115033284
33	0x3e139616	0.14412722
34	0xbc84f13c	-0.01622831
35	0xbcf25173	-0.029579854
36	0xbd6b50e9	-0.05745021
37	0x3e31ca49	0.17362322
38	0xbe17ba0b	-0.14817064
39	0xbd94c51b	-0.072641574
40	0xbe13e936	-0.14444432
41	0xbe6e8c21	-0.23295642
42	0xbe177617	-0.14791141
43	0x3eb05d94	0.34446394
44	0x3e03e5ab	0.1288058
45	0x3cb4edcc	0.022086047
46	0xbe79e426	-0.24403438
47	0xbd5d5cd8	-0.05404362
48	0x3d707dd9	0.058713768
49	0xbdf575a2	-0.11985327
50	0xbe095fa3	-0.13415389
51	0x3c59f600	0.01330328
52	0xbdc4872f	-0.09596097
53	0xbdadf209	-0.0849343
54	0xbcc9963c	-0.02460777
55	0xbe61af4b	-0.22039525
56	0x3d4294d8	0.04750523
57	0xbd57234c	-0.052523896
58	0x3d04a85c	0.032387123
59	0x3d8c6488	0.06855112
60	0xbdb5c2c9	-0.08875043
61	0x3c8693c0	0.016427875
62	0xbd0ccb69	-0.034373675
63	0xbbb235b7	-0.005438532
64	0xbceede9e	-0.029158887
65	0xbd957ad6	-0.0729882
66	0x3d88d999	0.066821285
67	0x3d9ee56e	0.07758604
68	0x3dcc10a1	0.09964109
69	0xbdfd6e95	-0.123746075
70	0xbe4b7657	-0.19869362
71	0x3da6b436	0.08139841
72	0xbe1648a8	-0.14676154
73	0xbda17d61	-0.07885242
74	0x3c8fae7d	0.017539257
75	0xbd87a6fa	-0.06623645
76	0xbe55adab	-0.2086703
77	0xbd9fb79c	-0.077986926
78	0x3c285b5c	0.010275688
79	0xbe010f5c	-0.12603515

value_stream.0.weight f4 [80, 80]
0	0x3d87e89e	0.06636165
1	0xbe0d669c	-0.13808674
2	0xbec215e9	-0.3790734
3	0x3e2dd1de	0.16974589
4	0xbe3e6e0a	-0.18596664
5	0x3cc27845	0.02373899
6	0xbe8c89c6	-0.27448863
7	0x3e6639ce	0.22482988
8	0x3c328a21	0.01089719
9	0xbf344f61	-0.7043362
10	0xbf135366	-0.5754913
11	0xbe8038d9	-0.2504337
12	0xbe09bf6d	-0.1345193
13	0xbd71e2bc	-0.05905412
14	0xbe2c1ae5	-0.16807134
15	0x3ea85edd	0.32884875
16	0x3c752d58	0.014964424
17	0xbea4f748	-0.3221991
18	0x3d93dfe8	0.07220441
19	0xbf0402ec	-0.5156696
20	0xbf539f60	-0.8266506
21	0xbe8e42a4	-0.27785218
22	0xbf1df8fd	-0.6170805
23	0xbecd112d	-0.40052167
24	0xbf54b916	-0.8309492
25	0x3e7a89d6	0.24466643
26	0xbefa6a60	-0.48909283
27	0x3c1eccc2	0.009692373
28	0xbe8a30e6	-0.26990432
29	0x3ce240d6	0.027618807
30	0xbee6f4fc	-0.45108783
31	0xbe0485e3	-0.12941699
32	0xbefcc994	-0.49372542
33	0x3e91f4bd	0.28507033
34	0xbd22ca8b	-0.03974394
35	0xbf03c8b2	-0.5147811
36	0xbf3a012e	-0.7265805
37	0xbf6d1692	-0.92612565
38	0xbf457eca	-0.7714659
39	0x3a0fabe2	0.00054806296
40	0xbe18c5d2	-0.14919212
41	0xbebfaaec	-0.3743509
42	0xbc39e363	-0.011345717
43	0x3e86d16b	0.26331648
44	0xbebf8ffc	-0.3741454
45	0xbf5a760e	-0.8533639
46	0xbf32ed97	-0.69893783
47	0x3ecf154a	0.4044593
48	0xbd1e87d6	-0.038703762
49	0xbf1a7038	-0.6032748
50	0xbd82d441	-0.063881405
51	0x3dd28464	0.10279158
52	0x3d9a81c1	0.0754428
53	0xbe90cc6c	-0.28280962
54	0xbebe9222	-0.37220865
55	0xbf1f7c55	-0.6229909
56	0xbf0f7eb5	-0.56052715
57	0xbe22e482	-0.15907481
58	0xbeeac347	-0.4585211
59	0xbea75df8	-0.3268888
60	0xbe82155e	-0.25406927
61	0xbd7e01e8	-0.062013537
62	0x3cd06f23	0.02544362
63	0x3ccce4e8	0.025011495
64	0x3d3b3951	0.045708958
65	0xbee0e68b	-0.4392589
66	0xbdb05710	-0.08610356
67	0xbee85b09	-0.45381954
68	0xbe4d6e15	-0.20061524
69	0x3e06e455	0.1317304
70	0xbe098a9e	-0.13431785
71	0x3ccfcf80	0.025367498
72	0x3ec6fa1a	0.38862687
73	0x3e995a69	0.2995179
74	0xbd6bcf57	-0.05757078
75	0xbf3b3487	-0.73127025
76	0xbeea368f	-0.4574475
77	0x3cfb26bb	0.030658117
78	0xbdc22707	-0.094801
79	0xbe0e560a	-0.13900009
80	0xbdbf1e57	-0.09331959
81	0xbd6c2a8e	-0.05765777
82	0xbd45f40e	-0.04832845
83	0x3d8cef18	0.06881541
84	0xbb923aa3	-0.0044625564
85	0xbcf47f7d	-0.029845947
86	0xbdaaa1b3	-0.08331623
87	0xbe181ef7	-0.14855562
88	0xbe33c7cb	-0.17556684
89	0xbce2d3f9	-0.027688967
90	0x3d30f42b	0.043201607
91	0xbdef7322	-0.11691882
92	0xbd0aa579	-0.033849213
93	0xbe207dd3	-0.15672998
94	0x3d7ff8b9	0.06249306
95	0xbcfdbb22	-0.030973021
96	0xbe19b2bd	-0.1500959
97	0xbe1b2be3	-0.1515346
98	0xbdfb984a	-0.12284906
99	0x3de09ad0	0.10967028
100	0xbdc99401	-0.09842683
101	0x3ca36e37	0.019950015
102	0xbd10c64b	-0.035345357
103	0xbc8d94cb	-0.017282864
104	0xbe20394c	-0.15646857
105	0xbe9d3a27	-0.3070843
106	0xbdf2918a	-0.118441656
107	0x3db1c21b	0.08679601
108	0xbc1032af	-0.008801146
109	0xbe37771d	-0.17916532
110	0x3c9c33b5	0.019067625
111	0xbd465bc7	-0.04842737
112	0xbc857012	-0.01628879
113	0x3de569be	0.11201809
114	0x3b92ee85	0.004484
115	0x3b588b9b	0.0033042196
116	0x3d89e3d5	0.06732909
117	0xbda8af1e	-0.08236526
118	0xbd0a33e6	-0.0337409
119	0xbe62d2e9	-0.22150768
120	0xbd38c003	-0.04510499
121	0xbe744431	-0.23854138
122	0x3df52472	0.11969842
123	0xbcf1cc9a	-0.029516507
124	0x3d30f1f8	0.04319951
125	0x3dbf5c42	0.09343769
126	0x3d4a7833	0.049431037
127	0xb9fe807b	-0.0004854238
128	0x3e283907	0.16428004
129	0xbe3312a1	-0.17487575
130	0x3d9f162b	0.077679
131	0xbde6753f	-0.11252832
132	0x3cd40e5d	0.025885755
133	0x3bc37bf1	0.0059657027
134	0xbd4d2dc6	-0.05009248
135	0xbd49e0c7	-0.04928663
136	0xbca5a25d	-0.020219022
137	0xbdcaabb1	-0.09896029
138	0x3cf5666f	0.02995607
139	0x3dab010a	0.083498076
140	0x3a6e13dc	0.0009081939
141	0x3dd61742	0.10453655
142	0xbe7ef834	-0.2489937
143	0xbd23aca7	-0.039959576
144	0xbd8df9d1	-0.06932414
145	0x3dde3b91	0.10851205
146	0x3cb7bb2f	0.022428123
147	0x3ca1ddd8	0.019759104
148	0x3e03f2d5	0.12885602
149	0xbd77eb56	-0.06052717
150	0xbda21ffb	-0.07916256
151	0xbe08b957	-0.13351952
152	0xb9163f3b	-0.0001432867
153	0xbc8d8ab6	-0.017278057
154	0xbe096f8d	-0.1342146
155	0x3d647870	0.05577892
156	0xbd095ea6	-0.03353753
157	0x3e468ea4	0.1939035
158	0x3d79a823	0.060951363
159	0xbdbc2162	-0.09186055
160	0xbd9d672f	-0.07685696
161	0xbdac4211	-0.08411039
162	0xbd9d7c11	-0.076896794
163	0xbd2d5da1	-0.04232562
164	0x3cb6f67b	0.022334328
165	0xbde10c1e	-0.10988639
166	0xbdd01480	-0.1016016
167	0xbe51a929	-0.20474686
168	0xbe72cfba	-0.23712054
169	0x3d9d972e	0.07694851
170	0x3e0736fe	0.13204572
171	0xbc725cd1	-0.014792637
172	0xbdbf2862	-0.09333874
173	0xbe31abad	-0.17350645
174	0x3bf18699	0.0073707816
175	0x3d90a7d7	0.07063263
176	0xbe1c3267	-0.15253602
177	0xbe5281fc	-0.20557398
178	0xbe4c2fab	-0.19940059
179	0x3d84adeb	0.06478485
180	0x3e0bc870	0.1365068
181	0xbe199108	-0.14996731
182	0x3d8d4db9	0.0689959
183	0x3d6022e8	0.05472079
184	0xbca3e4c8	-0.020006552
185	0xbde5c9be	-0.1122012
186	0xbc9f6ad7	-0.019460125
187	0x3d8ddb10	0.069265485
188	0xbca75e3e	-0.02043068
189	0xbe0cb009	-0.13739027
190	0xbdb13046	-0.086517856
191	0xbe4edc02	-0.20201114
192	0xbc93b8b7	-0.018032415
193	0x3dc4baf2	0.096059695
194	0xbe4b8939	-0.19876565
195	0xbd68a286	-0.05679562
196	0xbde67e6d	-0.112545826
197	0xbc35fc9c	-0.01110759
198	0x3a484395	0.0007639465
199	0x3c6fa0b1	0.014625714
200	0x3d888357	0.06665676
201	0xbe024ba0	-0.12724161
202	0x3d9b9a11	0.07597745
203	0xbd168bd9	-0.036754463
204	0xbcb9a391	-0.022661002
205	0x3dc961f7	0.098331384
206	0x3c531a33	0.012884664
207	0x3ccc72e4	0.024957128
208	0x3d3b038c	0.04565768
209	0xba953cf2	-0.0011385961
210	0x3d750198	0.059815973
211	0x3c8872f1	0.01665637
212	0xbda29568	-0.07938653
213	0x3dd7b9b6	0.105334684
214	0x3dfc0c4f	0.12307035
215	0x3d26b74a	0.04070214
216	0x3db48065	0.08813552
217	0xbe349f8a	-0.17638984
218	0xbd04f3a9	-0.032458935
219	0xbdb1bf73	-0.08679094
220	0xbda06cbb	-0.07833239
221	0x3c1b6485	0.009484415
222	0xbd5331ce	-0.05156117
223	0xbe091517	-0.13386951
224	0xbe7a2726	-0.24428996
225	0x3e2fa683	0.17153363
226	0xbd3472cb	-0.044054788
227	0xbd922f7a	-0.07137962
228	0x3cc63fd1	0.024200352
229	0xbbde3310	-0.0067809895
230	0x3d242d99	0.040082548
231	0xbe42e6e2	-0.19033387
232	0x3aea3255	0.0017867783
233	0x3d00e787	0.0314708
234	0x3dafc15b	0.085818015
235	0xbd963f31	-0.073362716
236	0xbdaa5fbc	-0.08319041
237	0x3e6bf975	0.23044379
238	0xbd8a831b	-0.06763288
239	0xbdc8b24a	-0.09799631
240	0x3d419143	0.047257673
241	0xbc7a0907	-0.015260941
242	0x3d91050f	0.07081043
243	0xbd3ae51b	-0.04562865
244	0xbdad4f99	-0.08462448
245	0xbc3040a8	-0.010757603
246	0x3d6baf94	0.05754049
247	0x3d48c6db	0.04901777
248	0xbd6a998d	-0.057275344
249	0xbc6012c0	-0.013676345
250	0xbdcd6f8a	-0.1003104
251	0xbd91cff4	-0.07119742
252	0xbd80ca9d	-0.062886454
253	0x3c2e5b28	0.0106418505
254	0xbd35b340	-0.0443604
255	0xbb691927	-0.003556797

value_stream.0.bias f4 [80]
0	0x3e15d618	0.14632452
1	0x3eec73dc	0.46182144
2	0x3f0fc4c1	0.561596
3	0xbdfa1e06	-0.12212758
4	0x3e77747a	0.24165526
5	0x3f10a9e4	0.5650923
6	0xbd9323aa	-0.07184537
7	0xbdb31133	-0.08743515
8	0xbdd6fb69	-0.104971714
9	0xbd0720a5	-0.032990117
10	0xbe620d16	-0.22075304
11	0x3e414906	0.18875512
12	0xbeb972b0	-0.36220312
13	0xbe0a4308	-0.13502133
14	0x3e5180d4	0.204593
15	0x3ec602af	0.38673922
16	0x3f199bb9	0.6000324
17	0xbd439cb6	-0.047756873
18	0xbd020108	-0.031739265
19	0x3e8ae380	0.27126694
20	0xbdd9a0bb	-0.1062636
21	0xbe1938a5	-0.14963014
22	0x3d180531	0.037114326
23	0x3d4af40b	0.049549144
24	0xbe27db3e	-0.16392228
25	0xbc6e9d1a	-0.014563823
26	0x3f1abda4	0.6044562
27	0xbd782dca	-0.060590543
28	0xbea50d0f	-0.32236525
29	0x3ea78d56	0.32725018
30	0x3eda8c02	0.42684942
31	0x3f1514b8	0.5823474
32	0x3da5f829	0.081039734
33	0xbe5e8a74	-0.21732503
34	0x3f1f7d42	0.62300503
35	0x3e661906	0.22470483
36	0x3f12617c	0.5718
37	0xbe3075a8	-0.17232382
38	0xbdcab51f	-0.09897827
39	0xbda0018f	-0.07812797
40	0x3f1ba066	0.60791624
41	0x3f14535a	0.57939684
42	0x3e396f13	0.18108778
43	0x3e1377f5	0.14401229
44	0x3f0ba672	0.5455085
45	0x3eeb9428	0.46011472
46	0x3ef8f004	0.48620617
47	0xbe67473f	-0.22585772
48	0xbeb3a4d0	-0.3508668
49	0x3e960351	0.29299405
50	0xbea1d7f4	-0.31610072
51	0x3dbf8055	0.09350649
52	0xbc6cccf2	-0.01445316
53	0xbe246a9d	-0.16056295
54	0x3f13048a	0.574288
55	0xbea1c945	-0.3159887
56	0xbe1fff80	-0.1562481
57	0xbcbaa1e3	-0.022782272
58	0xbdd44c4b	-0.10366114
59	0xbe2aa31e	-0.16663787
60	0x3f1f7500	0.622879
61	0xbdfdecc5	-0.12398676
62	0x3e326bc9	0.1742393
63	0xbe1708d3	-0.1474946
64	0xbd826510	-0.063669324
65	0xbe867623	-0.26262006
66	0x3e448dda	0.19194737
67	0xbe29c6fc	-0.16579813
68	0x3f04f42c	0.51935077
69	0xbe3f1a69	-0.18662418
70	0xbec80164	-0.3906356
71	0xbeacf514	-0.3378073
72	0x3f1e82d6	0.6191839
73	0x3f01db03	0.5072481
74	0xbe2b15f8	-0.16707599
75	0xbe3ae26a	-0.18250433
76	0xbe819bc7	-0.2531416
77	0x3e04cd0c	0.12968844
78	0xbda43cf6	-0.0801944
79	0xbe065d6b	-0.13121574

value_stream.2.weight f4 [1, 80]
0	0xbf5e221e	-0.8677081
1	0x3e201b35	0.15635379
2	0x3e62cd0d	0.22148533
3	0x3c048f5d	0.008090821
4	0x3dba4102	0.090944305
5	0x3e84cf95	0.25939623
6	0xbeed6c5b	-0.4637173
7	0xbf8adbab	-1.0848287
8	0xbea977b3	-0.33099136
9	0x3e8bee56	0.27330273
10	0x3e6a2c60	0.2286849
11	0x3e1cb07c	0.15301698
12	0xbe8ef93f	-0.27924535
13	0xbb112adb	-0.0022150788
14	0x3dd76fea	0.10519393
15	0x3e9aad02	0.3021012
16	0x3e90e5e4	0.28300393
17	0xbf4f9ebe	-0.81101596
18	0xbeff5b9f	-0.4987459
19	0x3cd04b76	0.025426608
20	0xbb8094bf	-0.003923982
21	0x3edc93c8	0.43081498
22	0xbf0919fb	-0.5355527
23	0xbf9a2b32	-1.2044432
24	0xbc9ae8b6	-0.018909793
25	0x3d5865b9	0.052831385
26	0x3e93f451	0.28897336
27	0xbea5400d	-0.3227543
28	0xbe8326c0	-0.256155
29	0x3e48e41c	0.19618267
30	0x3e0d8c2e	0.13823006
31	0x3e8f7d79	0.28025416
32	0x3d531d3f	0.051541563
33	0xbe3c9a41	-0.18418218
34	0x3e972d84	0.29526913
35	0x3ea2def9	0.3181074
36	0x3e8fbfec	0.28076112
37	0xbebb1370	-0.36538267
38	0xbebd695c	-0.36994445
39	0xbefb5fff	-0.49096677
40	0x3e96121c	0.2931069
41	0x3e7df59e	0.24800727
42	0x3d720872	0.059090085
43	0xbf85384a	-1.0407803
44	0x3e94d6d4	0.2907015
45	0x3e29b90d	0.16574498
46	0x3e75211e	0.23938414
47	0xbeac10aa	-0.33606464
48	0xbe5e77c1	-0.2172537
49	0x3dab19f6	0.08354561
50	0x3e8ae1d2	0.27125412
51	0x3dcb5f69	0.099303074
52	0xbf9418a3	-1.1570019
53	0x3dd0359c	0.10166475
54	0x3e6046b3	0.2190197
55	0xbecda996	-0.40168446
56	0x3b78e9d9	0.003798118
57	0xbf3e7586	-0.74398077
58	0x3e8b9e8b	0.27269396
59	0x3dce8971	0.100848086
60	0x3e9a6d3c	0.30161464
61	0xbe8ff798	-0.28118587
62	0xbfa388a7	-1.2776078
63	0xbdcb2827	-0.09919768
64	0xbf783666	-0.96958005
65	0xbe8cae62	-0.27476794
66	0x3e73a7a5	0.2379442
67	0xbf205cc0	-0.62641525
68	0x3e8e0e41	0.2774525
69	0xbf61112f	-0.87916845
70	0xbea93d72	-0.33054692
71	0xbebd8e6e	-0.37022728
72	0x3e9654a4	0.2936145
73	0x3e519a81	0.20469095
74	0xbdbe752a	-0.09299691
75	0xbe21969c	-0.15780109
76	0xbf9a397e	-1.2048795
77	0x3ea65526	0.32486838
78	0x3e767edf	0.24071835
79	0xbf4b404c	-0.79394984

advantage_stream.0.weight f4 [80, 80]
0	0x3e816888	0.25275064
1	0x3e8543a1	0.2602816
2	0xbd1d7cd8	-0.03844914
3	0xbe27c08f	-0.16382049
4	0x39399042	0.00017696715
5	0xbdb5575e	-0.088545546
6	0xbf08b81f	-0.53405946
7	0xbf32da23	-0.698641
8	0xbf865c11	-1.0496846
9	0x3deda9a8	0.11604625
10	0xbec33a02	-0.38130194
11	0xbde20f69	-0.110380955
12	0x3df6acc0	0.12044668
13	0x3e9d2f93	0.3070036
14	0xbb7038c2	-0.0036654924
15	0x3e49bae8	0.19700205
16	0x3e9e6e5b	0.3094357
17	0x3ea9a117	0.33130714
18	0xbeb3c130	-0.35108328
19	0x3d9251e3	0.07144525
20	0xbd35f548	-0.04442337
21	0xbf401ca9	-0.7504373
22	0x3da564af	0.080758445
23	0xbe7ee558	-0.24892175
24	0x3e860aae	0.26180023
25	0x3dbe2648	0.09284645
26	0x3ce87984	0.028378256
27	0xbdbb673a	-0.09150548
28	0x3d6a34ba	0.05717919
29	0xbea2761b	-0.31730732
30	0xbd74eadd	-0.059794296
31	0xbf1ebbbf	-0.6200523
32	0xbed52324	-0.41628373
33	0xbd6e4e19	-0.05817995
34	0xbe79ace7	-0.24382363
35	0x3e2f1f5c	0.17101806
36	0xbe06c3f6	-0.1316069
37	0x3e709520	0.23494387
38	0x3ce47bf8	0.027891144
39	0xbe941289	-0.2892039
40	0xbeb6121b	-0.35560688
41	0xbf80d75f	-1.0065726
42	0x3ee99f20	0.45629215
43	0xbe8d488b	-0.27594408
44	0xbdc01a48	-0.09380013
45	0x3c2f6ff1	0.010707841
46	0xbdafe1eb	-0.08588012
47	0x3de247e5	0.11048869
48	0x3dd74298	0.105107486
49	0x3ead47c0	0.33843803
50	0x3e74e5f1	0.2391584
51	0xbe8e5687	-0.2780039
52	0x3d88e73c	0.066847295
53	0x3e3bf8ff	0.18356703
54	0xbe2580cf	-0.16162418
55	0x3e071174	0.13190252
56	0x3e2b58bf	0.16733073
57	0xbeda95a7	-0.426923
58	0x3e895960	0.26826
59	0x3ddec51c	0.108774394
60	0x3d67756a	0.05650846
61	0xbe576014	-0.21032745
62	0xbec89458	-0.39175677
63	0xbea2a7e6	-0.3176872
64	0x3d552963	0.052041423
65	0x3ea8cbe8	0.32968068
66	0xbd6ca891	-0.057777945
67	0xbeba87d4	-0.36431754
68	0x3e07e6ba	0.13271609
69	0xbe9e2523	-0.30887708
70	0x3e0bf1de	0.13666484
71	0xbeea9e80	-0.4582405
72	0xbeb78396	-0.3584258
73	0xbdb57667	-0.08860474
74	0xbf2b703f	-0.6696815
75	0x3ddbe38c	0.107367605
76	0xbe8fbbd6	-0.28072995
77	0x3f1abc09	0.6044317
78	0xbe519316	-0.20466265
79	0x3e84df29	0.25951508
80	0xbe951422	-0.29116923
81	0xbe293b86	-0.16526613
82	0x3e833c9e	0.25632185
83	0xbb2ffb3e	-0.0026852633
84	0xbe472071	-0.19445969
85	0x3e270e92	0.16314152
86	0x3e3ba5dd	0.1832499
87	0xbf1c0c1c	-0.6095598
88	0xbf149405	-0.5803836
89	0x3e3cb716	0.18429217
90	0x3e5a6b15	0.21329911
91	0x3d30010c	0.04296975
92	0xbe566d61	-0.20940162
93	0x3de4d454	0.11173311
94	0x3e048382	0.12940791
95	0x3e935719	0.28777388
96	0xbf3ea46e	-0.7446965
97	0xbda518a1	-0.08061338
98	0x3e3347a7	0.17507802
99	0x3dfd2a12	0.1236154
100	0xbe4c046d	-0.19923563
101	0x3e4b971d	0.19881864
102	0x3e84dc9e	0.25949568
103	0x3ea4c1eb	0.32179198
104	0xbe8ca08a	-0.27466232
105	0x3e874c36	0.26425332
106	0x3e8f8add	0.28035632
107	0xbe82a91a	-0.2551964
108	0xbe4c66cc	-0.19961089
109	0xbeddebfb	-0.433441
110	0xbe8af401	-0.27139285
111	0xbe75db29	-0.24009384
112	0xbdd8c83b	-0.10585066
113	0x3dd1579b	0.102217875
114	0xbe3566f9	-0.17715062
115	0x3df90ae6	0.12160282
116	0x3d199982	0.037499912
117	0xbe26fa7e	-0.16306493
118	0xbe3ece98	-0.18633497
119	0x3dda4a36	0.10658686
120	0x3eef879e	0.46783155
121	0x3e98887d	0.29791632
122	0x3e7eb128	0.24872267
123	0xbe61d5a5	-0.22054155
124	0x3cdb27ef	0.02675244
125	0xbeefc1b1	-0.46827462
126	0x3d25a6f6	0.04044243
127	0xbe4878ce	-0.19577333
128	0xbda2533c	-0.07926032
129	0xbe4a39ec	-0.19748658
130	0xbcd480de	-0.025940355
131	0xbda8b176	-0.08236973
132	0xbe1331a7	-0.1437441
133	0xbe460b31	-0.19340207
134	0xbd0e3354	-0.03471692
135	0xbc8a6c3f	-0.016897319
136	0xbe26ac3c	-0.1627664
137	0xbbda69f7	-0.006665464
138	0x3ee1d721	0.44109443
139	0xbd3e90b5	-0.046524722
140	0xbd202db7	-0.039106097
141	0xbd3d9948	-0.04628876
142	0xbe544460	-0.20729208
143	0x3ebffa6c	0.37495744
144	0xbd4e93de	-0.050433986
145	0x3d92a998	0.07161254
146	0x3d030314	0.031985357
147	0xbe4654fe	-0.1936836
148	0xbd358022	-0.04431165
149	0x3db64055	0.08898989
150	0x3c8b7d91	0.017027648
151	0xbebfa4d0	-0.3743043
152	0xbc8c22b3	-0.01710639
153	0x3dec2a68	0.11531526
154	0x3e9b4f52	0.30333954
155	0xbd70d1ef	-0.05879396
156	0x3d3a1766	0.04543247
157	0x3ca4c81e	0.020114955
158	0xbe0f50a0	-0.139956
159	0xbe0818ab	-0.1329066
160	0x3e5596c1	0.2085829
161	0xbed2d8e3	-0.41181096
162	0xbe54b991	-0.20773913
163	0x3d380b50	0.044932663
164	0xbca79d3b	-0.020460716
165	0x3e03cde3	0.12871508
166	0xbdd8f244	-0.105930835
167	0x3d31ea02	0.043436058
168	0x3d47d2cd	0.04878502
169	0x3d4f7d4c	0.0506566
170	0xbe8a7eb2	-0.27049786
171	0xbed68971	-0.41901734
172	0x3ee7dc9f	0.45285508
173	0x3ef0a6b0	0.47002172
174	0xbeed4f50	-0.46349573
175	0x3e762765	0.24038465
176	0x3e879896	0.264836
177	0x3f03c6bf	0.5147514
178	0x3e8a0bb1	0.26962045
179	0x3d4494f9	0.047993634
180	0x3d6dbec7	0.058043268
181	0x3d4e0975	0.050301988
182	0xbe94ca0d	-0.29060403
183	0xbb971e74	-0.0046117846
184	0xbdbe1e04	-0.09283069
185	0xbd67cffd	-0.056594837
186	0x3dabdc6e	0.08391653
187	0xbd64cc2e	-0.055858783
188	0x3d9d8edf	0.07693266
189	0x3e9b4bb2	0.30331188
190	0xbe8ded8e	-0.27720302
191	0x3dd00c62	0.10158612
192	0x3e21f1f6	0.15814957
193	0xbe92b1c1	-0.2865124
194	0x3e579361	0.21052314
195	0x3eb591c4	0.35462773
196	0x3d01f28e	0.03172546
197	0xbf2b64ab	-0.6695048
198	0xbee8a303	-0.45436868
199	0xbdc2e895	-0.09517018
200	0x3f04be7b	0.5185315
201	0xbf02063c	-0.5079076
202	0xbe96588d	-0.29364434
203	0xbdb4cc15	-0.08827988
204	0xbe870ad6	-0.26375455
205	0xbe95a192	-0.2922483
206	0xbe671a6d	-0.22568674
207	0x3e9f4a0b	0.31111178
208	0x3e23470c	0.15945071
209	0x3d0c3b23	0.034236085
210	0x3d03e457	0.032200184
211	0x3e3dea99	0.18546523
212	0x3efe772a	0.4970029
213	0x3dc464d4	0.09589544
214	0xbea6c1a7	-0.3256962
215	0x3d8801f9	0.06641001
216	0xbe9749db	-0.29548535
217	0xbe89dc6c	-0.2692598
218	0xbe43e96d	-0.19132014
219	0xbdad37bc	-0.08457896
220	0x3e735438	0.23762596
221	0x3dcd5496	0.10025899
222	0x3ea42353	0.320582
223	0xbe490f9a	-0.19634858
224	0xbe4d40aa	-0.20044199
225	0x3d58c0fe	0.052918427
226	0xbf04fb51	-0.5194598
227	0xbe8ba172	-0.2727161
228	0xbda25d00	-0.079278946
229	0xbd98a5dd	-0.07453511
230	0x3e9c1860	0.30487347
231	0x3e847c89	0.25876263
232	0x3f0c1cc9	0.5473142
233	0xbed3fb7f	-0.41402814
234	0x3ebb248b	0.36551318
235	0xbe45d0f6	-0.19317994
236	0xbdc10af2	-0.09425916
237	0x3e71c78b	0.23611276
238	0x3e7c100d	0.24615498
239	0x3ecd2768	0.40069127
240	0xbc88bae7	-0.016690684
241	0x3e4d93bf	0.20075892
242	0xb9323b77	-0.00016997555
243	0xbc4a54ce	-0.012349321
244	0xbbd31ce9	-0.0064426553
245	0x3d7d7f58	0.061889023
246	0x3e170574	0.14748174
247	0xbe1a9612	-0.1509631
248	0x3e31326f	0.17304395
249	0x3d98cadf	0.074605696
250	0xbdd44b65	-0.10365943
251	0x3e401d20	0.1876111
252	0x3e973167	0.29529878
253	0x3e60381c	0.21896404
254	0x3e828f57	0.25499985
255	0xbe36a477	-0.17836176

advantage_stream.0.bias f4 [80]
0	0xbcbbee8f	-0.022940902
1	0xbe559958	-0.20859277
2	0xbc81a243	-0.015824443
3	0x3e28d3c8	0.16487038
4	0xbe269714	-0.16268569
5	0xbe68eb19	-0.22745933
6	0xbe0ce459	-0.13758983
7	0xbdfdcb24	-0.123922616
8	0x3d07d172	0.033158727
9	0xbe26d2bd	-0.16291328
10	0xbe00a018	-0.12561071
11	0x3e2e8e7b	0.1704654
12	0xbe5ae940	-0.2137804
13	0xbe60fd63	-0.2197166
14	0x3d571e38	0.052519053
15	0xbc836b4e	-0.016042378
16	0x3d0659aa	0.032800354
17	0xbe1d3283	-0.153513
18	0x3d87977c	0.0662069
19	0xbceb42e5	-0.028718421
20	0xbe4010e9	-0.1875645
21	0x3d8dfa0f	0.069324605
22	0x3de5cf21	0.11221147
23	0xbdb6d060	-0.08926463
24	0x3cf5e528	0.030016497
25	0xbdd3a974	-0.10335055
26	0x3e1d1e6c	0.15343636
27	0xbe3af76f	-0.18258451
28	0x3c5edc28	0.013602294
29	0x3e655a93	0.22397833
30	0xbdaafd12	-0.083490506
31	0x3d910593	0.07081141
32	0x3e0ac141	0.13550283
33	0xbd803598	-0.06260222
34	0x3d21ed79	0.039533112
35	0xbd1b6aa5	-0.0379435
36	0xbe74c14c	-0.23901862
37	0x3e19ac95	0.15007241
38	0xbe27ac63	-0.16374354
39	0x3c008e36	0.007846406
40	0xbc04b953	-0.008100825
41	0xbe8e166f	-0.2775149
42	0xbec2bb0b	-0.38033327
43	0x3d619f2f	0.05508345
44	0xbd017124	-0.03160204
45	0x3e0b05bb	0.13576405
46	0xbdf8c632	-0.12147178
47	0x3e07140f	0.13191245
48	0xbd64f21c	-0.055894956
49	0xbdc8a59b	-0.09797212
50	0xbe963d55	-0.29343668
51	0xbd7614f6	-0.060078584
52	0xbe3bbafb	-0.18333046
53	0xbe27c9e0	-0.16385603
54	0xbe9c59d0	-0.30537271
55	0x3d38b2d3	0.045092415
56	0xbe53c4a5	-0.20680483
57	0xbe1c3ab2	-0.15256765
58	0xbde9dec2	-0.11419441
59	0xbcb4f5f0	-0.022089928
60	0xbd93a26f	-0.07208716
61	0xbe08c18f	-0.13355087
62	0x3e1c2c0e	0.1525118
63	0xbd43419c	-0.04766999
64	0x3e2bd4e8	0.16780436
65	0x3c4f480e	0.0126514565
66	0x3df58f11	0.119901784
67	0xbda15e68	-0.07879335
68	0x3e2fafd6	0.1715692
69	0xbdc7e4da	-0.09760447
70	0x3d8a4836	0.067520544
71	0x3e29e191	0.16589953
72	0xbe35839d	-0.17725988
73	0xbe35e56b	-0.17763297
74	0xbd2cab1e	-0.042155378
75	0xbe15526f	-0.14582227
76	0xbcb8370b	-0.022487184
77	0x3d6b145a	0.057392456
78	0x3ddb6032	0.10711707
79	0xbe209b65	-0.15684278

advantage_stream.2.weight f4 [4, 80]
0	0xbe9b9d93	-0.30393657
1	0xbe05aabb	-0.1305341
2	0xbeab8479	-0.33499506
3	0xbd948a16	-0.072529
4	0xbf73faa8	-0.95304346
5	0xbeb2d40c	-0.34927404
6	0x3ed3d025	0.4136974
7	0x3d86b756	0.06577937
8	0xbdff66d4	-0.12470785
9	0x3ef1bba1	0.47213462
10	0xbe6327f4	-0.2218321
11	0xbded4490	-0.11585343
12	0x3e624db7	0.22099958
13	0xbf16936d	-0.58818704
14	0x3e4288b7	0.18997465
15	0xbe95ba07	-0.2924349
16	0xbf00ded9	-0.5034004
17	0xbc9f93f3	-0.019479727
18	0x3dffab31	0.12483824
19	0x3d244e79	0.0401139
20	0x3d32a7f6	0.04361721
21	0xbf4cb726	-0.7996696
22	0xbf34a8fc	-0.7057035
23	0x3e7bcc80	0.2458973
24	0xbf70adf2	-0.9401542
25	0x3e8630ed	0.26209202
26	0x3e28f75c	0.1650061
27	0xbe35b530	-0.17744899
28	0x3eb7b727	0.35881922
29	0x3e281980	0.16415977
30	0xbe045b19	-0.12925376
31	0xbf3e16af	-0.7425336
32	0xbf827d88	-1.0194559
33	0xbe9e7591	-0.3094907
34	0xbf074b68	-0.52849436
35	0xbef0d038	-0.47033858
36	0x3e3070c1	0.17230512
37	0x3e8adb13	0.27120265
38	0xbe3e6438	-0.18592918
39	0xbc74f3cf	-0.014950707
40	0xbf3e44f4	-0.74323964
41	0x3eb2c41c	0.34915245
42	0xbe586cff	-0.21135329
43	0x3d9067de	0.07051061
44	0x3ebc0fd7	0.36730835
45	0x3bfed2b9	0.007776585
46	0x3e373bb3	0.17893867
47	0xbe063877	-0.13107477
48	0x3e4b83ca	0.19874492
49	0x3e929178	0.2862661
50	0xbeac22c4	-0.33620274
51	0x3ea81485	0.32828155
52	0x3e05c059	0.13061656
53	0x3de3b620	0.11118722
54	0x3edf2646	0.43583888
55	0x3e9fd070	0.31213713
56	0xbe33d7c2	-0.17562774
57	0x3e3cf3c9	0.18452372
58	0xbdec820a	-0.115482405
59	0x3e658fda	0.22418156
60	0x3e35c01c	0.17749065
61	0xbf484528	-0.78230524
62	0xbe745bff	-0.23863219
63	0xbe2000cc	-0.15625304
64	0x3e3fcb5f	0.18729924
65	0xbf84fab4	-1.0389009
66	0xbd9769cf	-0.07393228
67	0xbf4d13e1	-0.8010846
68	0xbf2e95fc	-0.6819761
69	0xbe0739ae	-0.13205597
70	0xbf3c211b	-0.73488015
71	0xbe9ea065	-0.30981746
72	0xbe954c9f	-0.2916002
73	0x3e9ea5f1	0.30985978
74	0x3e34d7a7	0.1766039
75	0x3b7f2a6b	0.0038935195
76	0xbe731c04	-0.23741156
77	0xbcabba76	-0.020962935
78	0xbe98c2b7	-0.29836056
79	0x3e4e400c	0.2014162
80	0xbdf5d595	-0.12003628
81	0xbec09536	-0.3761384
82	0x3ed3c2cf	0.41359565
83	0xbba862fc	-0.005138753
84	0xbe860f4c	-0.26183546
85	0xbe94e82e	-0.2908339
86	0x3e78e827	0.24307309
87	0x3d4f5c11	0.05062491
88	0x3d89b930	0.06724775
89	0xbf0767ef	-0.52892965
90	0xbe8d5034	-0.27600253
91	0xbdae98dc	-0.08525249
92	0x3e4730ad	0.19452162
93	0x3c9ee215	0.019394914
94	0xbe66e5c4	-0.22548586
95	0x3ea2217f	0.3166618
96	0x3b9c0c54	0.004762212
97	0xbd53b0ad	-0.051682163
98	0x3d2900ea	0.041260637
99	0xbd8e5a88	-0.06950861
100	0xbd5eb90a	-0.054375686
101	0x3e01bb4b	0.12669103
102	0x3e77c0c0	0.24194622
103	0xbecc8e5f	-0.3995237
104	0x3ed16263	0.40895376
105	0xbe899af1	-0.26876023
106	0x3dae675a	0.085158065
107	0x3c44dbbe	0.012015281
108	0xbd709eb6	-0.05874511
109	0x3e491333	0.1963623
110	0x3ebf2b43	0.37337694
111	0x3e02eeef	0.12786458
112	0x3eceff9a	0.40429384
113	0x3f0c2160	0.54738426
114	0x3e138743	0.14407067
115	0xbe20f1c8	-0.15717232
116	0x3dd26452	0.10273041
117	0x3d40e9a7	0.04709783
118	0x3ee4b480	0.4466896
119	0xbe624e06	-0.22100076
120	0x3e04c54c	0.12965888
121	0x3e8ca95c	0.2747296
122	0xbd9f51b7	-0.07779258
123	0x3e81ef26	0.25377768
124	0x3ea86e38	0.3289659
125	0x3dc2f55d	0.095194556
126	0x3da9950d	0.08280382
127	0xbdb1fc71	-0.086907275
128	0x3e60961b	0.2193226
129	0x3dcd8876	0.100357935
130	0xbea3bf0e	-0.319817
131	0x3e809cd5	0.25119653
132	0x3992161d	0.00027863766
133	0xbcc8e4dd	-0.024523193
134	0x3e23a8b9	0.15982331
135	0xbce19bf4	-0.027540185
136	0x3c75e286	0.015007621
137	0x3dbc0c71	0.091820605
138	0x3cfee464	0.031114765
139	0xbd6f37b5	-0.058402736
140	0xbd151b48	-0.03640297
141	0xbd2364f5	-0.039891202
142	0xbc588e74	-0.013217557
143	0xbe7ee5ab	-0.24892299
144	0x3e65cfc8	0.22442544
145	0x3ef2a40f	0.47390792
146	0xbdb687b1	-0.089126
147	0xbe46ffc4	-0.19433504
148	0xbe912e0b	-0.2835544
149	0x3cc6dc05	0.024274835
150	0xbebfd468	-0.3746674
151	0x3e0dc3b6	0.13844189
152	0x3e06fb4e	0.13181803
153	0x3e235aa6	0.15952548
154	0x3dbc1bfc	0.09185025
155	0xbdbb9fc5	-0.09161333
156	0x3e7708aa	0.24124399
157	0xbe3cd6f6	-0.18441376
158	0xbddd77a3	-0.108138345
159	0x3e02432a	0.12720934
160	0xbe130092	-0.14355686
161	0x3e5ef6fc	0.21773905
162	0x3d7cfc81	0.061764244
163	0x3db95677	0.09049695
164	0x3e80c4c4	0.2515012
165	0xbe18911b	-0.14899103
166	0xbe3aa967	-0.18228684
167	0xbec61f78	-0.38695884
168	0x3dca6d27	0.098841004
169	0x3e9a5e2b	0.3014997
170	0x3e0729a4	0.13199478
171	0x3e131555	0.14363606
172	0x3e9a897f	0.30183026
173	0xbec3b2e6	-0.38222426
174	0xbe3775cd	-0.17916031
175	0x3db20ef7	0.086942606
176	0xbe4690c8	-0.19391167
177	0xbd508cee	-0.05091565
178	0xbdd1453f	-0.10218286
179	0xbe85478b	-0.26031145
180	0xbe8ed4f6	-0.2789685
181	0xbdbf68bd	-0.09346149
182	0x3f0a0fcf	0.5393037
183	0x3ea49da3	0.32151517
184	0x3edcc7ae	0.43121094
185	0x3eb9d4b7	0.362951
186	0xbe5cf398	-0.21577299
187	0x3e1b2149	0.15149416
188	0x3e3d3cec	0.18480271
189	0xbed35eb3	-0.41283187
190	0xbea9a2ab	-0.33131918
191	0xbd634795	-0.055488188
192	0x3eef876a	0.46783
193	0xbd2c15cd	-0.04201298
194	0x3e29a310	0.1656611
195	0xbedc990d	-0.43085518
196	0x3e942cd4	0.2894045
197	0xbf3486a3	-0.7051794
198	0x3ebcb3d5	0.3685595
199	0x3e7a77a5	0.24459703
200	0x3ec31aba	0.38106328
201	0x3e5dc94f	0.21658824
202	0x3f012f61	0.5046292
203	0xbe9d2b9c	-0.30697334
204	0xbdb9c0a3	-0.09069946
205	0xbe8fe29d	-0.2810258
206	0xbdfdf181	-0.12399579
207	0x3e199eb0	0.1500194
208	0xbe036c71	-0.12834336
209	0xbf174c11	-0.59100443
210	0xbeafa8d5	-0.34308496
211	0x3de8508e	0.113434896
212	0x3ea97572	0.33097416
213	0xbebe4cf5	-0.3716809
214	0x3e99edda	0.3006428
215	0x3f00a461	0.5025082
216	0xbe0ad903	-0.13559346
217	0x3d97b3d3	0.074073456
218	0x3e1708e4	0.14749485
219	0xbe56870e	-0.20949957
220	0x3ebe9c4a	0.37228614
221	0xbe6c20eb	-0.23059432
222	0xbc7c09fb	-0.015383239
223	0x3e42f326	0.19038066
224	0xbf484fcd	-0.78246766
225	0x3f04798e	0.5174798
226	0x3e7f6129	0.24939407
227	0x3d0463cf	0.032321747
228	0x3d8bc64d	0.06824932
229	0x3c16985c	0.009191599
230	0x3ee9ff89	0.4570277
231	0x3e4b87b5	0.19875987
232	0x3e0c8e2c	0.1372611
233	0xbd217d2e	-0.03942602
234	0x3eb4d5d5	0.3531939
235	0x3d23c884	0.03998615
236	0xbe66f026	-0.22552547
237	0x3e236bbf	0.1595907
238	0x3dc257c0	0.09489393
239	0x3ea6c663	0.32573232
240	0xbdaba6c6	-0.08381419
241	0x3e3aef3f	0.18255328
242	0xbe035a16	-0.12827334
243	0x3e7a8022	0.24462941
244	0x3e6addfe	0.22936246
245	0xbdb2310c	-0.08700761
246	0xbf2b8920	-0.6700611
247	0xbf118d62	-0.5685636
248	0x3dc534eb	0.09629234
249	0x3cc06707	0.023486627
250	0xbe357c8e	-0.17723295
251	0x3d3cdb10	0.04610735
252	0x3e35288e	0.17691252
253	0xbe254d24	-0.16142708
254	0xbf1e7ca4	-0.61908937
255	0x3e9cb055	0.3060328

advantage_stream.2.bias f4 [4]
0	0x3e362ea4	0.1779123
1	0x3b2333c8	0.002490269
2	0x3c8eb10f	0.017418412
3	0xbb634a5e	-0.0034681777
